{"format": "graph-model", "generatedBy": "2.12.0", "convertedBy": "TensorFlow.js Converter v4.7.0", "signature": {"inputs": {"input_1": {"name": "input_1:0", "dtype": "DT_FLOAT", "tensorShape": {"dim": [{"size": "1"}, {"size": "640"}, {"size": "640"}, {"size": "3"}]}}}, "outputs": {"tf_segment_1": {"name": "Identity_1:0", "dtype": "DT_FLOAT", "tensorShape": {"dim": [{"size": "1"}, {"size": "32"}, {"size": "160"}, {"size": "160"}]}}, "tf_segment": {"name": "Identity:0", "dtype": "DT_FLOAT", "tensorShape": {"dim": [{"size": "1"}, {"size": "25200"}, {"size": "117"}]}}}}, "modelTopology": {"node": [{"name": "StatefulPartitionedCall/model/tf_segment/strided_slice_3/stack", "op": "Const", "attr": {"value": {"tensor": {"dtype": "DT_INT32", "tensorShape": {"dim": [{"size": "2"}]}}}, "dtype": {"type": "DT_INT32"}}}, {"name": "StatefulPartitionedCall/model/tf_segment/strided_slice_3/stack_1", "op": "Const", "attr": {"value": {"tensor": {"dtype": "DT_INT32", "tensorShape": {"dim": [{"size": "2"}]}}}, "dtype": {"type": "DT_INT32"}}}, {"name": "StatefulPartitionedCall/model/tf_segment/strided_slice_3/stack_2", "op": "Const", "attr": {"value": {"tensor": {"dtype": "DT_INT32", "tensorShape": {"dim": [{"size": "2"}]}}}, "dtype": {"type": "DT_INT32"}}}, {"name": "StatefulPartitionedCall/model/tf_segment/mul_2/y", "op": "Const", "attr": {"value": {"tensor": {"dtype": "DT_FLOAT", "tensorShape": {}}}, "dtype": {"type": "DT_FLOAT"}}}, {"name": "StatefulPartitionedCall/model/tf_segment/sub", "op": "Const", "attr": {"value": {"tensor": {"dtype": "DT_FLOAT", "tensorShape": {"dim": [{"size": "1"}, {"size": "6400"}, {"size": "1"}, {"size": "2"}]}}}, "dtype": {"type": "DT_FLOAT"}}}, {"name": "StatefulPartitionedCall/model/tf_segment/mul_3", "op": "Const", "attr": {"value": {"tensor": {"dtype": "DT_FLOAT", "tensorShape": {"dim": [{"size": "1"}, {"size": "2"}]}}}, "dtype": {"type": "DT_FLOAT"}}}, {"name": "StatefulPartitionedCall/model/tf_segment/strided_slice_5/stack", "op": "Const", "attr": {"value": {"tensor": {"dtype": "DT_INT32", "tensorShape": {"dim": [{"size": "2"}]}}}, "dtype": {"type": "DT_INT32"}}}, {"name": "StatefulPartitionedCall/model/tf_segment/strided_slice_5/stack_1", "op": "Const", "attr": {"value": {"tensor": {"dtype": "DT_INT32", "tensorShape": {"dim": [{"size": "2"}]}}}, "dtype": {"type": "DT_INT32"}}}, {"name": "StatefulPartitionedCall/model/tf_segment/strided_slice_5/stack_2", "op": "Const", "attr": {"value": {"tensor": {"dtype": "DT_INT32", "tensorShape": {"dim": [{"size": "2"}]}}}, "dtype": {"type": "DT_INT32"}}}, {"name": "StatefulPartitionedCall/model/tf_segment/mul_4", "op": "Const", "attr": {"value": {"tensor": {"dtype": "DT_FLOAT", "tensorShape": {"dim": [{"size": "1"}, {"size": "1"}, {"size": "3"}, {"size": "2"}]}}}, "dtype": {"type": "DT_FLOAT"}}}, {"name": "StatefulPartitionedCall/model/tf_segment/strided_slice_6/stack", "op": "Const", "attr": {"value": {"tensor": {"dtype": "DT_INT32", "tensorShape": {"dim": [{"size": "2"}]}}}, "dtype": {"type": "DT_INT32"}}}, {"name": "StatefulPartitionedCall/model/tf_segment/strided_slice_6/stack_1", "op": "Const", "attr": {"value": {"tensor": {"dtype": "DT_INT32", "tensorShape": {"dim": [{"size": "2"}]}}}, "dtype": {"type": "DT_INT32"}}}, {"name": "StatefulPartitionedCall/model/tf_segment/strided_slice_6/stack_2", "op": "Const", "attr": {"value": {"tensor": {"dtype": "DT_INT32", "tensorShape": {"dim": [{"size": "2"}]}}}, "dtype": {"type": "DT_INT32"}}}, {"name": "StatefulPartitionedCall/model/tf_segment/tf_conv2d_3/conv2d_82/Conv2D/ReadVariableOp", "op": "Const", "attr": {"value": {"tensor": {"dtype": "DT_FLOAT", "tensorShape": {"dim": [{"size": "1"}, {"size": "1"}, {"size": "192"}, {"size": "351"}]}}}, "dtype": {"type": "DT_FLOAT"}}}, {"name": "StatefulPartitionedCall/model/tf_segment/tf_conv2d_3/conv2d_82/BiasAdd/ReadVariableOp", "op": "Const", "attr": {"value": {"tensor": {"dtype": "DT_FLOAT", "tensorShape": {"dim": [{"size": "351"}]}}}, "dtype": {"type": "DT_FLOAT"}}}, {"name": "StatefulPartitionedCall/model/tf_segment/Reshape/shape_1", "op": "Const", "attr": {"value": {"tensor": {"dtype": "DT_INT32", "tensorShape": {"dim": [{"size": "4"}]}}}, "dtype": {"type": "DT_INT32"}}}, {"name": "StatefulPartitionedCall/model/tf_segment/strided_slice_7/stack", "op": "Const", "attr": {"value": {"tensor": {"dtype": "DT_INT32", "tensorShape": {"dim": [{"size": "2"}]}}}, "dtype": {"type": "DT_INT32"}}}, {"name": "StatefulPartitionedCall/model/tf_segment/strided_slice_7/stack_1", "op": "Const", "attr": {"value": {"tensor": {"dtype": "DT_INT32", "tensorShape": {"dim": [{"size": "2"}]}}}, "dtype": {"type": "DT_INT32"}}}, {"name": "StatefulPartitionedCall/model/tf_segment/strided_slice_7/stack_2", "op": "Const", "attr": {"value": {"tensor": {"dtype": "DT_INT32", "tensorShape": {"dim": [{"size": "2"}]}}}, "dtype": {"type": "DT_INT32"}}}, {"name": "StatefulPartitionedCall/model/tf_segment/concat/axis", "op": "Const", "attr": {"value": {"tensor": {"dtype": "DT_INT32", "tensorShape": {}}}, "dtype": {"type": "DT_INT32"}}}, {"name": "StatefulPartitionedCall/model/tf_segment/Reshape_1/shape_1", "op": "Const", "attr": {"value": {"tensor": {"dtype": "DT_INT32", "tensorShape": {"dim": [{"size": "3"}]}}}, "dtype": {"type": "DT_INT32"}}}, {"name": "StatefulPartitionedCall/model/tf_segment/strided_slice_11/stack", "op": "Const", "attr": {"value": {"tensor": {"dtype": "DT_INT32", "tensorShape": {"dim": [{"size": "2"}]}}}, "dtype": {"type": "DT_INT32"}}}, {"name": "StatefulPartitionedCall/model/tf_segment/strided_slice_11/stack_1", "op": "Const", "attr": {"value": {"tensor": {"dtype": "DT_INT32", "tensorShape": {"dim": [{"size": "2"}]}}}, "dtype": {"type": "DT_INT32"}}}, {"name": "StatefulPartitionedCall/model/tf_segment/strided_slice_11/stack_2", "op": "Const", "attr": {"value": {"tensor": {"dtype": "DT_INT32", "tensorShape": {"dim": [{"size": "2"}]}}}, "dtype": {"type": "DT_INT32"}}}, {"name": "StatefulPartitionedCall/model/tf_segment/mul_9/y", "op": "Const", "attr": {"value": {"tensor": {"dtype": "DT_FLOAT", "tensorShape": {}}}, "dtype": {"type": "DT_FLOAT"}}}, {"name": "StatefulPartitionedCall/model/tf_segment/sub_1", "op": "Const", "attr": {"value": {"tensor": {"dtype": "DT_FLOAT", "tensorShape": {"dim": [{"size": "1"}, {"size": "1600"}, {"size": "1"}, {"size": "2"}]}}}, "dtype": {"type": "DT_FLOAT"}}}, {"name": "StatefulPartitionedCall/model/tf_segment/mul_10", "op": "Const", "attr": {"value": {"tensor": {"dtype": "DT_FLOAT", "tensorShape": {"dim": [{"size": "1"}, {"size": "2"}]}}}, "dtype": {"type": "DT_FLOAT"}}}, {"name": "StatefulPartitionedCall/model/tf_segment/strided_slice_13/stack", "op": "Const", "attr": {"value": {"tensor": {"dtype": "DT_INT32", "tensorShape": {"dim": [{"size": "2"}]}}}, "dtype": {"type": "DT_INT32"}}}, {"name": "StatefulPartitionedCall/model/tf_segment/strided_slice_13/stack_1", "op": "Const", "attr": {"value": {"tensor": {"dtype": "DT_INT32", "tensorShape": {"dim": [{"size": "2"}]}}}, "dtype": {"type": "DT_INT32"}}}, {"name": "StatefulPartitionedCall/model/tf_segment/strided_slice_13/stack_2", "op": "Const", "attr": {"value": {"tensor": {"dtype": "DT_INT32", "tensorShape": {"dim": [{"size": "2"}]}}}, "dtype": {"type": "DT_INT32"}}}, {"name": "StatefulPartitionedCall/model/tf_segment/mul_11", "op": "Const", "attr": {"value": {"tensor": {"dtype": "DT_FLOAT", "tensorShape": {"dim": [{"size": "1"}, {"size": "1"}, {"size": "3"}, {"size": "2"}]}}}, "dtype": {"type": "DT_FLOAT"}}}, {"name": "StatefulPartitionedCall/model/tf_segment/strided_slice_14/stack", "op": "Const", "attr": {"value": {"tensor": {"dtype": "DT_INT32", "tensorShape": {"dim": [{"size": "2"}]}}}, "dtype": {"type": "DT_INT32"}}}, {"name": "StatefulPartitionedCall/model/tf_segment/strided_slice_14/stack_1", "op": "Const", "attr": {"value": {"tensor": {"dtype": "DT_INT32", "tensorShape": {"dim": [{"size": "2"}]}}}, "dtype": {"type": "DT_INT32"}}}, {"name": "StatefulPartitionedCall/model/tf_segment/strided_slice_14/stack_2", "op": "Const", "attr": {"value": {"tensor": {"dtype": "DT_INT32", "tensorShape": {"dim": [{"size": "2"}]}}}, "dtype": {"type": "DT_INT32"}}}, {"name": "StatefulPartitionedCall/model/tf_segment/tf_conv2d_4/conv2d_83/Conv2D/ReadVariableOp", "op": "Const", "attr": {"value": {"tensor": {"dtype": "DT_FLOAT", "tensorShape": {"dim": [{"size": "1"}, {"size": "1"}, {"size": "384"}, {"size": "351"}]}}}, "dtype": {"type": "DT_FLOAT"}}}, {"name": "StatefulPartitionedCall/model/tf_segment/tf_conv2d_4/conv2d_83/BiasAdd/ReadVariableOp", "op": "Const", "attr": {"value": {"tensor": {"dtype": "DT_FLOAT", "tensorShape": {"dim": [{"size": "351"}]}}}, "dtype": {"type": "DT_FLOAT"}}}, {"name": "StatefulPartitionedCall/model/tf_segment/Reshape_2/shape_1", "op": "Const", "attr": {"value": {"tensor": {"dtype": "DT_INT32", "tensorShape": {"dim": [{"size": "4"}]}}}, "dtype": {"type": "DT_INT32"}}}, {"name": "StatefulPartitionedCall/model/tf_segment/strided_slice_15/stack", "op": "Const", "attr": {"value": {"tensor": {"dtype": "DT_INT32", "tensorShape": {"dim": [{"size": "2"}]}}}, "dtype": {"type": "DT_INT32"}}}, {"name": "StatefulPartitionedCall/model/tf_segment/strided_slice_15/stack_1", "op": "Const", "attr": {"value": {"tensor": {"dtype": "DT_INT32", "tensorShape": {"dim": [{"size": "2"}]}}}, "dtype": {"type": "DT_INT32"}}}, {"name": "StatefulPartitionedCall/model/tf_segment/strided_slice_15/stack_2", "op": "Const", "attr": {"value": {"tensor": {"dtype": "DT_INT32", "tensorShape": {"dim": [{"size": "2"}]}}}, "dtype": {"type": "DT_INT32"}}}, {"name": "StatefulPartitionedCall/model/tf_segment/concat_1/axis", "op": "Const", "attr": {"value": {"tensor": {"dtype": "DT_INT32", "tensorShape": {}}}, "dtype": {"type": "DT_INT32"}}}, {"name": "StatefulPartitionedCall/model/tf_segment/Reshape_3/shape_1", "op": "Const", "attr": {"value": {"tensor": {"dtype": "DT_INT32", "tensorShape": {"dim": [{"size": "3"}]}}}, "dtype": {"type": "DT_INT32"}}}, {"name": "StatefulPartitionedCall/model/tf_segment/strided_slice_19/stack", "op": "Const", "attr": {"value": {"tensor": {"dtype": "DT_INT32", "tensorShape": {"dim": [{"size": "2"}]}}}, "dtype": {"type": "DT_INT32"}}}, {"name": "StatefulPartitionedCall/model/tf_segment/strided_slice_19/stack_1", "op": "Const", "attr": {"value": {"tensor": {"dtype": "DT_INT32", "tensorShape": {"dim": [{"size": "2"}]}}}, "dtype": {"type": "DT_INT32"}}}, {"name": "StatefulPartitionedCall/model/tf_segment/strided_slice_19/stack_2", "op": "Const", "attr": {"value": {"tensor": {"dtype": "DT_INT32", "tensorShape": {"dim": [{"size": "2"}]}}}, "dtype": {"type": "DT_INT32"}}}, {"name": "StatefulPartitionedCall/model/tf_segment/mul_16/y", "op": "Const", "attr": {"value": {"tensor": {"dtype": "DT_FLOAT", "tensorShape": {}}}, "dtype": {"type": "DT_FLOAT"}}}, {"name": "StatefulPartitionedCall/model/tf_segment/sub_2", "op": "Const", "attr": {"value": {"tensor": {"dtype": "DT_FLOAT", "tensorShape": {"dim": [{"size": "1"}, {"size": "400"}, {"size": "1"}, {"size": "2"}]}}}, "dtype": {"type": "DT_FLOAT"}}}, {"name": "StatefulPartitionedCall/model/tf_segment/mul_17", "op": "Const", "attr": {"value": {"tensor": {"dtype": "DT_FLOAT", "tensorShape": {"dim": [{"size": "1"}, {"size": "2"}]}}}, "dtype": {"type": "DT_FLOAT"}}}, {"name": "StatefulPartitionedCall/model/tf_segment/strided_slice_21/stack", "op": "Const", "attr": {"value": {"tensor": {"dtype": "DT_INT32", "tensorShape": {"dim": [{"size": "2"}]}}}, "dtype": {"type": "DT_INT32"}}}, {"name": "StatefulPartitionedCall/model/tf_segment/strided_slice_21/stack_1", "op": "Const", "attr": {"value": {"tensor": {"dtype": "DT_INT32", "tensorShape": {"dim": [{"size": "2"}]}}}, "dtype": {"type": "DT_INT32"}}}, {"name": "StatefulPartitionedCall/model/tf_segment/strided_slice_21/stack_2", "op": "Const", "attr": {"value": {"tensor": {"dtype": "DT_INT32", "tensorShape": {"dim": [{"size": "2"}]}}}, "dtype": {"type": "DT_INT32"}}}, {"name": "StatefulPartitionedCall/model/tf_segment/mul_18", "op": "Const", "attr": {"value": {"tensor": {"dtype": "DT_FLOAT", "tensorShape": {"dim": [{"size": "1"}, {"size": "1"}, {"size": "3"}, {"size": "2"}]}}}, "dtype": {"type": "DT_FLOAT"}}}, {"name": "StatefulPartitionedCall/model/tf_segment/strided_slice_22/stack", "op": "Const", "attr": {"value": {"tensor": {"dtype": "DT_INT32", "tensorShape": {"dim": [{"size": "2"}]}}}, "dtype": {"type": "DT_INT32"}}}, {"name": "StatefulPartitionedCall/model/tf_segment/strided_slice_22/stack_1", "op": "Const", "attr": {"value": {"tensor": {"dtype": "DT_INT32", "tensorShape": {"dim": [{"size": "2"}]}}}, "dtype": {"type": "DT_INT32"}}}, {"name": "StatefulPartitionedCall/model/tf_segment/strided_slice_22/stack_2", "op": "Const", "attr": {"value": {"tensor": {"dtype": "DT_INT32", "tensorShape": {"dim": [{"size": "2"}]}}}, "dtype": {"type": "DT_INT32"}}}, {"name": "StatefulPartitionedCall/model/tfc3_7/tf_conv_72/conv2d_72/Conv2D/ReadVariableOp", "op": "Const", "attr": {"value": {"tensor": {"dtype": "DT_FLOAT", "tensorShape": {"dim": [{"size": "1"}, {"size": "1"}, {"size": "768"}, {"size": "384"}]}}}, "dtype": {"type": "DT_FLOAT"}}}, {"name": "StatefulPartitionedCall/model/tfc3_7/tf_conv_72/conv2d_72/BiasAdd/ReadVariableOp", "op": "Const", "attr": {"value": {"tensor": {"dtype": "DT_FLOAT", "tensorShape": {"dim": [{"size": "384"}]}}}, "dtype": {"type": "DT_FLOAT"}}}, {"name": "StatefulPartitionedCall/model/tfc3_7/sequential_14/tf_bottleneck_20/tf_conv_75/conv2d_75/Conv2D/ReadVariableOp", "op": "Const", "attr": {"value": {"tensor": {"dtype": "DT_FLOAT", "tensorShape": {"dim": [{"size": "1"}, {"size": "1"}, {"size": "384"}, {"size": "384"}]}}}, "dtype": {"type": "DT_FLOAT"}}}, {"name": "StatefulPartitionedCall/model/tfc3_7/sequential_14/tf_bottleneck_20/tf_conv_75/conv2d_75/BiasAdd/ReadVariableOp", "op": "Const", "attr": {"value": {"tensor": {"dtype": "DT_FLOAT", "tensorShape": {"dim": [{"size": "384"}]}}}, "dtype": {"type": "DT_FLOAT"}}}, {"name": "StatefulPartitionedCall/model/tfc3_7/sequential_14/tf_bottleneck_20/tf_conv_76/conv2d_76/Conv2D/ReadVariableOp", "op": "Const", "attr": {"value": {"tensor": {"dtype": "DT_FLOAT", "tensorShape": {"dim": [{"size": "3"}, {"size": "3"}, {"size": "384"}, {"size": "384"}]}}}, "dtype": {"type": "DT_FLOAT"}}}, {"name": "StatefulPartitionedCall/model/tfc3_7/sequential_14/tf_bottleneck_20/tf_conv_76/conv2d_76/BiasAdd/ReadVariableOp", "op": "Const", "attr": {"value": {"tensor": {"dtype": "DT_FLOAT", "tensorShape": {"dim": [{"size": "384"}]}}}, "dtype": {"type": "DT_FLOAT"}}}, {"name": "StatefulPartitionedCall/model/tfc3_7/sequential_14/tf_bottleneck_21/tf_conv_77/conv2d_77/Conv2D/ReadVariableOp", "op": "Const", "attr": {"value": {"tensor": {"dtype": "DT_FLOAT", "tensorShape": {"dim": [{"size": "1"}, {"size": "1"}, {"size": "384"}, {"size": "384"}]}}}, "dtype": {"type": "DT_FLOAT"}}}, {"name": "StatefulPartitionedCall/model/tfc3_7/sequential_14/tf_bottleneck_21/tf_conv_77/conv2d_77/BiasAdd/ReadVariableOp", "op": "Const", "attr": {"value": {"tensor": {"dtype": "DT_FLOAT", "tensorShape": {"dim": [{"size": "384"}]}}}, "dtype": {"type": "DT_FLOAT"}}}, {"name": "StatefulPartitionedCall/model/tfc3_7/sequential_14/tf_bottleneck_21/tf_conv_78/conv2d_78/Conv2D/ReadVariableOp", "op": "Const", "attr": {"value": {"tensor": {"dtype": "DT_FLOAT", "tensorShape": {"dim": [{"size": "3"}, {"size": "3"}, {"size": "384"}, {"size": "384"}]}}}, "dtype": {"type": "DT_FLOAT"}}}, {"name": "StatefulPartitionedCall/model/tfc3_7/sequential_14/tf_bottleneck_21/tf_conv_78/conv2d_78/BiasAdd/ReadVariableOp", "op": "Const", "attr": {"value": {"tensor": {"dtype": "DT_FLOAT", "tensorShape": {"dim": [{"size": "384"}]}}}, "dtype": {"type": "DT_FLOAT"}}}, {"name": "StatefulPartitionedCall/model/tfc3_6/tf_conv_64/conv2d_64/Conv2D/ReadVariableOp", "op": "Const", "attr": {"value": {"tensor": {"dtype": "DT_FLOAT", "tensorShape": {"dim": [{"size": "1"}, {"size": "1"}, {"size": "384"}, {"size": "192"}]}}}, "dtype": {"type": "DT_FLOAT"}}}, {"name": "StatefulPartitionedCall/model/tfc3_6/tf_conv_64/conv2d_64/BiasAdd/ReadVariableOp", "op": "Const", "attr": {"value": {"tensor": {"dtype": "DT_FLOAT", "tensorShape": {"dim": [{"size": "192"}]}}}, "dtype": {"type": "DT_FLOAT"}}}, {"name": "StatefulPartitionedCall/model/tfc3_6/sequential_12/tf_bottleneck_18/tf_conv_67/conv2d_67/Conv2D/ReadVariableOp", "op": "Const", "attr": {"value": {"tensor": {"dtype": "DT_FLOAT", "tensorShape": {"dim": [{"size": "1"}, {"size": "1"}, {"size": "192"}, {"size": "192"}]}}}, "dtype": {"type": "DT_FLOAT"}}}, {"name": "StatefulPartitionedCall/model/tfc3_6/sequential_12/tf_bottleneck_18/tf_conv_67/conv2d_67/BiasAdd/ReadVariableOp", "op": "Const", "attr": {"value": {"tensor": {"dtype": "DT_FLOAT", "tensorShape": {"dim": [{"size": "192"}]}}}, "dtype": {"type": "DT_FLOAT"}}}, {"name": "StatefulPartitionedCall/model/tfc3_6/sequential_12/tf_bottleneck_18/tf_conv_68/conv2d_68/Conv2D/ReadVariableOp", "op": "Const", "attr": {"value": {"tensor": {"dtype": "DT_FLOAT", "tensorShape": {"dim": [{"size": "3"}, {"size": "3"}, {"size": "192"}, {"size": "192"}]}}}, "dtype": {"type": "DT_FLOAT"}}}, {"name": "StatefulPartitionedCall/model/tfc3_6/sequential_12/tf_bottleneck_18/tf_conv_68/conv2d_68/BiasAdd/ReadVariableOp", "op": "Const", "attr": {"value": {"tensor": {"dtype": "DT_FLOAT", "tensorShape": {"dim": [{"size": "192"}]}}}, "dtype": {"type": "DT_FLOAT"}}}, {"name": "StatefulPartitionedCall/model/tfc3_6/sequential_12/tf_bottleneck_19/tf_conv_69/conv2d_69/Conv2D/ReadVariableOp", "op": "Const", "attr": {"value": {"tensor": {"dtype": "DT_FLOAT", "tensorShape": {"dim": [{"size": "1"}, {"size": "1"}, {"size": "192"}, {"size": "192"}]}}}, "dtype": {"type": "DT_FLOAT"}}}, {"name": "StatefulPartitionedCall/model/tfc3_6/sequential_12/tf_bottleneck_19/tf_conv_69/conv2d_69/BiasAdd/ReadVariableOp", "op": "Const", "attr": {"value": {"tensor": {"dtype": "DT_FLOAT", "tensorShape": {"dim": [{"size": "192"}]}}}, "dtype": {"type": "DT_FLOAT"}}}, {"name": "StatefulPartitionedCall/model/tfc3_6/sequential_12/tf_bottleneck_19/tf_conv_70/conv2d_70/Conv2D/ReadVariableOp", "op": "Const", "attr": {"value": {"tensor": {"dtype": "DT_FLOAT", "tensorShape": {"dim": [{"size": "3"}, {"size": "3"}, {"size": "192"}, {"size": "192"}]}}}, "dtype": {"type": "DT_FLOAT"}}}, {"name": "StatefulPartitionedCall/model/tfc3_6/sequential_12/tf_bottleneck_19/tf_conv_70/conv2d_70/BiasAdd/ReadVariableOp", "op": "Const", "attr": {"value": {"tensor": {"dtype": "DT_FLOAT", "tensorShape": {"dim": [{"size": "192"}]}}}, "dtype": {"type": "DT_FLOAT"}}}, {"name": "unknown_130", "op": "Const", "attr": {"value": {"tensor": {"dtype": "DT_INT32", "tensorShape": {"dim": [{"size": "4"}, {"size": "2"}]}}}, "dtype": {"type": "DT_INT32"}}}, {"name": "StatefulPartitionedCall/model/tf_conv_63/sequential_11/conv2d_63/Conv2D/ReadVariableOp", "op": "Const", "attr": {"value": {"tensor": {"dtype": "DT_FLOAT", "tensorShape": {"dim": [{"size": "3"}, {"size": "3"}, {"size": "192"}, {"size": "192"}]}}}, "dtype": {"type": "DT_FLOAT"}}}, {"name": "StatefulPartitionedCall/model/tf_conv_63/sequential_11/conv2d_63/BiasAdd/ReadVariableOp", "op": "Const", "attr": {"value": {"tensor": {"dtype": "DT_FLOAT", "tensorShape": {"dim": [{"size": "192"}]}}}, "dtype": {"type": "DT_FLOAT"}}}, {"name": "StatefulPartitionedCall/model/tf_concat_2/concat/axis", "op": "Const", "attr": {"value": {"tensor": {"dtype": "DT_INT32", "tensorShape": {}}}, "dtype": {"type": "DT_INT32"}}}, {"name": "StatefulPartitionedCall/model/tfc3_6/tf_conv_65/conv2d_65/Conv2D/ReadVariableOp", "op": "Const", "attr": {"value": {"tensor": {"dtype": "DT_FLOAT", "tensorShape": {"dim": [{"size": "1"}, {"size": "1"}, {"size": "384"}, {"size": "192"}]}}}, "dtype": {"type": "DT_FLOAT"}}}, {"name": "StatefulPartitionedCall/model/tfc3_6/tf_conv_65/conv2d_65/BiasAdd/ReadVariableOp", "op": "Const", "attr": {"value": {"tensor": {"dtype": "DT_FLOAT", "tensorShape": {"dim": [{"size": "192"}]}}}, "dtype": {"type": "DT_FLOAT"}}}, {"name": "StatefulPartitionedCall/model/tfc3_6/concat/axis", "op": "Const", "attr": {"value": {"tensor": {"dtype": "DT_INT32", "tensorShape": {}}}, "dtype": {"type": "DT_INT32"}}}, {"name": "StatefulPartitionedCall/model/tfc3_6/tf_conv_66/conv2d_66/Conv2D/ReadVariableOp", "op": "Const", "attr": {"value": {"tensor": {"dtype": "DT_FLOAT", "tensorShape": {"dim": [{"size": "1"}, {"size": "1"}, {"size": "384"}, {"size": "384"}]}}}, "dtype": {"type": "DT_FLOAT"}}}, {"name": "StatefulPartitionedCall/model/tfc3_6/tf_conv_66/conv2d_66/BiasAdd/ReadVariableOp", "op": "Const", "attr": {"value": {"tensor": {"dtype": "DT_FLOAT", "tensorShape": {"dim": [{"size": "384"}]}}}, "dtype": {"type": "DT_FLOAT"}}}, {"name": "unknown_147", "op": "Const", "attr": {"value": {"tensor": {"dtype": "DT_INT32", "tensorShape": {"dim": [{"size": "4"}, {"size": "2"}]}}}, "dtype": {"type": "DT_INT32"}}}, {"name": "StatefulPartitionedCall/model/tf_conv_71/sequential_13/conv2d_71/Conv2D/ReadVariableOp", "op": "Const", "attr": {"value": {"tensor": {"dtype": "DT_FLOAT", "tensorShape": {"dim": [{"size": "3"}, {"size": "3"}, {"size": "384"}, {"size": "384"}]}}}, "dtype": {"type": "DT_FLOAT"}}}, {"name": "StatefulPartitionedCall/model/tf_conv_71/sequential_13/conv2d_71/BiasAdd/ReadVariableOp", "op": "Const", "attr": {"value": {"tensor": {"dtype": "DT_FLOAT", "tensorShape": {"dim": [{"size": "384"}]}}}, "dtype": {"type": "DT_FLOAT"}}}, {"name": "StatefulPartitionedCall/model/tf_concat_3/concat/axis", "op": "Const", "attr": {"value": {"tensor": {"dtype": "DT_INT32", "tensorShape": {}}}, "dtype": {"type": "DT_INT32"}}}, {"name": "StatefulPartitionedCall/model/tfc3_7/tf_conv_73/conv2d_73/Conv2D/ReadVariableOp", "op": "Const", "attr": {"value": {"tensor": {"dtype": "DT_FLOAT", "tensorShape": {"dim": [{"size": "1"}, {"size": "1"}, {"size": "768"}, {"size": "384"}]}}}, "dtype": {"type": "DT_FLOAT"}}}, {"name": "StatefulPartitionedCall/model/tfc3_7/tf_conv_73/conv2d_73/BiasAdd/ReadVariableOp", "op": "Const", "attr": {"value": {"tensor": {"dtype": "DT_FLOAT", "tensorShape": {"dim": [{"size": "384"}]}}}, "dtype": {"type": "DT_FLOAT"}}}, {"name": "StatefulPartitionedCall/model/tfc3_7/concat/axis", "op": "Const", "attr": {"value": {"tensor": {"dtype": "DT_INT32", "tensorShape": {}}}, "dtype": {"type": "DT_INT32"}}}, {"name": "StatefulPartitionedCall/model/tfc3_7/tf_conv_74/conv2d_74/Conv2D/ReadVariableOp", "op": "Const", "attr": {"value": {"tensor": {"dtype": "DT_FLOAT", "tensorShape": {"dim": [{"size": "1"}, {"size": "1"}, {"size": "768"}, {"size": "768"}]}}}, "dtype": {"type": "DT_FLOAT"}}}, {"name": "StatefulPartitionedCall/model/tfc3_7/tf_conv_74/conv2d_74/BiasAdd/ReadVariableOp", "op": "Const", "attr": {"value": {"tensor": {"dtype": "DT_FLOAT", "tensorShape": {"dim": [{"size": "768"}]}}}, "dtype": {"type": "DT_FLOAT"}}}, {"name": "StatefulPartitionedCall/model/tf_segment/tf_conv2d_5/conv2d_84/Conv2D/ReadVariableOp", "op": "Const", "attr": {"value": {"tensor": {"dtype": "DT_FLOAT", "tensorShape": {"dim": [{"size": "1"}, {"size": "1"}, {"size": "768"}, {"size": "351"}]}}}, "dtype": {"type": "DT_FLOAT"}}}, {"name": "StatefulPartitionedCall/model/tf_segment/tf_conv2d_5/conv2d_84/BiasAdd/ReadVariableOp", "op": "Const", "attr": {"value": {"tensor": {"dtype": "DT_FLOAT", "tensorShape": {"dim": [{"size": "351"}]}}}, "dtype": {"type": "DT_FLOAT"}}}, {"name": "StatefulPartitionedCall/model/tf_segment/Reshape_4/shape_1", "op": "Const", "attr": {"value": {"tensor": {"dtype": "DT_INT32", "tensorShape": {"dim": [{"size": "4"}]}}}, "dtype": {"type": "DT_INT32"}}}, {"name": "StatefulPartitionedCall/model/tf_segment/strided_slice_23/stack", "op": "Const", "attr": {"value": {"tensor": {"dtype": "DT_INT32", "tensorShape": {"dim": [{"size": "2"}]}}}, "dtype": {"type": "DT_INT32"}}}, {"name": "StatefulPartitionedCall/model/tf_segment/strided_slice_23/stack_1", "op": "Const", "attr": {"value": {"tensor": {"dtype": "DT_INT32", "tensorShape": {"dim": [{"size": "2"}]}}}, "dtype": {"type": "DT_INT32"}}}, {"name": "StatefulPartitionedCall/model/tf_segment/strided_slice_23/stack_2", "op": "Const", "attr": {"value": {"tensor": {"dtype": "DT_INT32", "tensorShape": {"dim": [{"size": "2"}]}}}, "dtype": {"type": "DT_INT32"}}}, {"name": "StatefulPartitionedCall/model/tf_segment/concat_2/axis", "op": "Const", "attr": {"value": {"tensor": {"dtype": "DT_INT32", "tensorShape": {}}}, "dtype": {"type": "DT_INT32"}}}, {"name": "StatefulPartitionedCall/model/tf_segment/Reshape_5/shape_1", "op": "Const", "attr": {"value": {"tensor": {"dtype": "DT_INT32", "tensorShape": {"dim": [{"size": "3"}]}}}, "dtype": {"type": "DT_INT32"}}}, {"name": "StatefulPartitionedCall/model/tf_segment/concat_3/axis", "op": "Const", "attr": {"value": {"tensor": {"dtype": "DT_INT32", "tensorShape": {}}}, "dtype": {"type": "DT_INT32"}}}, {"name": "StatefulPartitionedCall/model/tfc3_5/tf_conv_56/conv2d_56/Conv2D/ReadVariableOp", "op": "Const", "attr": {"value": {"tensor": {"dtype": "DT_FLOAT", "tensorShape": {"dim": [{"size": "1"}, {"size": "1"}, {"size": "384"}, {"size": "96"}]}}}, "dtype": {"type": "DT_FLOAT"}}}, {"name": "StatefulPartitionedCall/model/tfc3_5/tf_conv_56/conv2d_56/BiasAdd/ReadVariableOp", "op": "Const", "attr": {"value": {"tensor": {"dtype": "DT_FLOAT", "tensorShape": {"dim": [{"size": "96"}]}}}, "dtype": {"type": "DT_FLOAT"}}}, {"name": "StatefulPartitionedCall/model/tfc3_5/sequential_10/tf_bottleneck_16/tf_conv_59/conv2d_59/Conv2D/ReadVariableOp", "op": "Const", "attr": {"value": {"tensor": {"dtype": "DT_FLOAT", "tensorShape": {"dim": [{"size": "1"}, {"size": "1"}, {"size": "96"}, {"size": "96"}]}}}, "dtype": {"type": "DT_FLOAT"}}}, {"name": "StatefulPartitionedCall/model/tfc3_5/sequential_10/tf_bottleneck_16/tf_conv_59/conv2d_59/BiasAdd/ReadVariableOp", "op": "Const", "attr": {"value": {"tensor": {"dtype": "DT_FLOAT", "tensorShape": {"dim": [{"size": "96"}]}}}, "dtype": {"type": "DT_FLOAT"}}}, {"name": "StatefulPartitionedCall/model/tfc3_5/sequential_10/tf_bottleneck_16/tf_conv_60/conv2d_60/Conv2D/ReadVariableOp", "op": "Const", "attr": {"value": {"tensor": {"dtype": "DT_FLOAT", "tensorShape": {"dim": [{"size": "3"}, {"size": "3"}, {"size": "96"}, {"size": "96"}]}}}, "dtype": {"type": "DT_FLOAT"}}}, {"name": "StatefulPartitionedCall/model/tfc3_5/sequential_10/tf_bottleneck_16/tf_conv_60/conv2d_60/BiasAdd/ReadVariableOp", "op": "Const", "attr": {"value": {"tensor": {"dtype": "DT_FLOAT", "tensorShape": {"dim": [{"size": "96"}]}}}, "dtype": {"type": "DT_FLOAT"}}}, {"name": "StatefulPartitionedCall/model/tfc3_5/sequential_10/tf_bottleneck_17/tf_conv_61/conv2d_61/Conv2D/ReadVariableOp", "op": "Const", "attr": {"value": {"tensor": {"dtype": "DT_FLOAT", "tensorShape": {"dim": [{"size": "1"}, {"size": "1"}, {"size": "96"}, {"size": "96"}]}}}, "dtype": {"type": "DT_FLOAT"}}}, {"name": "StatefulPartitionedCall/model/tfc3_5/sequential_10/tf_bottleneck_17/tf_conv_61/conv2d_61/BiasAdd/ReadVariableOp", "op": "Const", "attr": {"value": {"tensor": {"dtype": "DT_FLOAT", "tensorShape": {"dim": [{"size": "96"}]}}}, "dtype": {"type": "DT_FLOAT"}}}, {"name": "StatefulPartitionedCall/model/tfc3_5/sequential_10/tf_bottleneck_17/tf_conv_62/conv2d_62/Conv2D/ReadVariableOp", "op": "Const", "attr": {"value": {"tensor": {"dtype": "DT_FLOAT", "tensorShape": {"dim": [{"size": "3"}, {"size": "3"}, {"size": "96"}, {"size": "96"}]}}}, "dtype": {"type": "DT_FLOAT"}}}, {"name": "StatefulPartitionedCall/model/tfc3_5/sequential_10/tf_bottleneck_17/tf_conv_62/conv2d_62/BiasAdd/ReadVariableOp", "op": "Const", "attr": {"value": {"tensor": {"dtype": "DT_FLOAT", "tensorShape": {"dim": [{"size": "96"}]}}}, "dtype": {"type": "DT_FLOAT"}}}, {"name": "StatefulPartitionedCall/model/tfc3_4/tf_conv_48/conv2d_48/Conv2D/ReadVariableOp", "op": "Const", "attr": {"value": {"tensor": {"dtype": "DT_FLOAT", "tensorShape": {"dim": [{"size": "1"}, {"size": "1"}, {"size": "768"}, {"size": "192"}]}}}, "dtype": {"type": "DT_FLOAT"}}}, {"name": "StatefulPartitionedCall/model/tfc3_4/tf_conv_48/conv2d_48/BiasAdd/ReadVariableOp", "op": "Const", "attr": {"value": {"tensor": {"dtype": "DT_FLOAT", "tensorShape": {"dim": [{"size": "192"}]}}}, "dtype": {"type": "DT_FLOAT"}}}, {"name": "StatefulPartitionedCall/model/tfc3_4/sequential_9/tf_bottleneck_14/tf_conv_51/conv2d_51/Conv2D/ReadVariableOp", "op": "Const", "attr": {"value": {"tensor": {"dtype": "DT_FLOAT", "tensorShape": {"dim": [{"size": "1"}, {"size": "1"}, {"size": "192"}, {"size": "192"}]}}}, "dtype": {"type": "DT_FLOAT"}}}, {"name": "StatefulPartitionedCall/model/tfc3_4/sequential_9/tf_bottleneck_14/tf_conv_51/conv2d_51/BiasAdd/ReadVariableOp", "op": "Const", "attr": {"value": {"tensor": {"dtype": "DT_FLOAT", "tensorShape": {"dim": [{"size": "192"}]}}}, "dtype": {"type": "DT_FLOAT"}}}, {"name": "StatefulPartitionedCall/model/tfc3_4/sequential_9/tf_bottleneck_14/tf_conv_52/conv2d_52/Conv2D/ReadVariableOp", "op": "Const", "attr": {"value": {"tensor": {"dtype": "DT_FLOAT", "tensorShape": {"dim": [{"size": "3"}, {"size": "3"}, {"size": "192"}, {"size": "192"}]}}}, "dtype": {"type": "DT_FLOAT"}}}, {"name": "StatefulPartitionedCall/model/tfc3_4/sequential_9/tf_bottleneck_14/tf_conv_52/conv2d_52/BiasAdd/ReadVariableOp", "op": "Const", "attr": {"value": {"tensor": {"dtype": "DT_FLOAT", "tensorShape": {"dim": [{"size": "192"}]}}}, "dtype": {"type": "DT_FLOAT"}}}, {"name": "StatefulPartitionedCall/model/tfc3_4/sequential_9/tf_bottleneck_15/tf_conv_53/conv2d_53/Conv2D/ReadVariableOp", "op": "Const", "attr": {"value": {"tensor": {"dtype": "DT_FLOAT", "tensorShape": {"dim": [{"size": "1"}, {"size": "1"}, {"size": "192"}, {"size": "192"}]}}}, "dtype": {"type": "DT_FLOAT"}}}, {"name": "StatefulPartitionedCall/model/tfc3_4/sequential_9/tf_bottleneck_15/tf_conv_53/conv2d_53/BiasAdd/ReadVariableOp", "op": "Const", "attr": {"value": {"tensor": {"dtype": "DT_FLOAT", "tensorShape": {"dim": [{"size": "192"}]}}}, "dtype": {"type": "DT_FLOAT"}}}, {"name": "StatefulPartitionedCall/model/tfc3_4/sequential_9/tf_bottleneck_15/tf_conv_54/conv2d_54/Conv2D/ReadVariableOp", "op": "Const", "attr": {"value": {"tensor": {"dtype": "DT_FLOAT", "tensorShape": {"dim": [{"size": "3"}, {"size": "3"}, {"size": "192"}, {"size": "192"}]}}}, "dtype": {"type": "DT_FLOAT"}}}, {"name": "StatefulPartitionedCall/model/tfc3_4/sequential_9/tf_bottleneck_15/tf_conv_54/conv2d_54/BiasAdd/ReadVariableOp", "op": "Const", "attr": {"value": {"tensor": {"dtype": "DT_FLOAT", "tensorShape": {"dim": [{"size": "192"}]}}}, "dtype": {"type": "DT_FLOAT"}}}, {"name": "StatefulPartitionedCall/model/tfc3_3/tf_conv_38/conv2d_38/Conv2D/ReadVariableOp", "op": "Const", "attr": {"value": {"tensor": {"dtype": "DT_FLOAT", "tensorShape": {"dim": [{"size": "1"}, {"size": "1"}, {"size": "768"}, {"size": "384"}]}}}, "dtype": {"type": "DT_FLOAT"}}}, {"name": "StatefulPartitionedCall/model/tfc3_3/tf_conv_38/conv2d_38/BiasAdd/ReadVariableOp", "op": "Const", "attr": {"value": {"tensor": {"dtype": "DT_FLOAT", "tensorShape": {"dim": [{"size": "384"}]}}}, "dtype": {"type": "DT_FLOAT"}}}, {"name": "StatefulPartitionedCall/model/tfc3_3/sequential_8/tf_bottleneck_12/tf_conv_41/conv2d_41/Conv2D/ReadVariableOp", "op": "Const", "attr": {"value": {"tensor": {"dtype": "DT_FLOAT", "tensorShape": {"dim": [{"size": "1"}, {"size": "1"}, {"size": "384"}, {"size": "384"}]}}}, "dtype": {"type": "DT_FLOAT"}}}, {"name": "StatefulPartitionedCall/model/tfc3_3/sequential_8/tf_bottleneck_12/tf_conv_41/conv2d_41/BiasAdd/ReadVariableOp", "op": "Const", "attr": {"value": {"tensor": {"dtype": "DT_FLOAT", "tensorShape": {"dim": [{"size": "384"}]}}}, "dtype": {"type": "DT_FLOAT"}}}, {"name": "StatefulPartitionedCall/model/tfc3_3/sequential_8/tf_bottleneck_12/tf_conv_42/conv2d_42/Conv2D/ReadVariableOp", "op": "Const", "attr": {"value": {"tensor": {"dtype": "DT_FLOAT", "tensorShape": {"dim": [{"size": "3"}, {"size": "3"}, {"size": "384"}, {"size": "384"}]}}}, "dtype": {"type": "DT_FLOAT"}}}, {"name": "StatefulPartitionedCall/model/tfc3_3/sequential_8/tf_bottleneck_12/tf_conv_42/conv2d_42/BiasAdd/ReadVariableOp", "op": "Const", "attr": {"value": {"tensor": {"dtype": "DT_FLOAT", "tensorShape": {"dim": [{"size": "384"}]}}}, "dtype": {"type": "DT_FLOAT"}}}, {"name": "StatefulPartitionedCall/model/tfc3_3/sequential_8/tf_bottleneck_13/tf_conv_43/conv2d_43/Conv2D/ReadVariableOp", "op": "Const", "attr": {"value": {"tensor": {"dtype": "DT_FLOAT", "tensorShape": {"dim": [{"size": "1"}, {"size": "1"}, {"size": "384"}, {"size": "384"}]}}}, "dtype": {"type": "DT_FLOAT"}}}, {"name": "StatefulPartitionedCall/model/tfc3_3/sequential_8/tf_bottleneck_13/tf_conv_43/conv2d_43/BiasAdd/ReadVariableOp", "op": "Const", "attr": {"value": {"tensor": {"dtype": "DT_FLOAT", "tensorShape": {"dim": [{"size": "384"}]}}}, "dtype": {"type": "DT_FLOAT"}}}, {"name": "StatefulPartitionedCall/model/tfc3_3/sequential_8/tf_bottleneck_13/tf_conv_44/conv2d_44/Conv2D/ReadVariableOp", "op": "Const", "attr": {"value": {"tensor": {"dtype": "DT_FLOAT", "tensorShape": {"dim": [{"size": "3"}, {"size": "3"}, {"size": "384"}, {"size": "384"}]}}}, "dtype": {"type": "DT_FLOAT"}}}, {"name": "StatefulPartitionedCall/model/tfc3_3/sequential_8/tf_bottleneck_13/tf_conv_44/conv2d_44/BiasAdd/ReadVariableOp", "op": "Const", "attr": {"value": {"tensor": {"dtype": "DT_FLOAT", "tensorShape": {"dim": [{"size": "384"}]}}}, "dtype": {"type": "DT_FLOAT"}}}, {"name": "unknown_77", "op": "Const", "attr": {"value": {"tensor": {"dtype": "DT_INT32", "tensorShape": {"dim": [{"size": "4"}, {"size": "2"}]}}}, "dtype": {"type": "DT_INT32"}}}, {"name": "StatefulPartitionedCall/model/tf_conv_37/sequential_7/conv2d_37/Conv2D/ReadVariableOp", "op": "Const", "attr": {"value": {"tensor": {"dtype": "DT_FLOAT", "tensorShape": {"dim": [{"size": "3"}, {"size": "3"}, {"size": "384"}, {"size": "768"}]}}}, "dtype": {"type": "DT_FLOAT"}}}, {"name": "StatefulPartitionedCall/model/tf_conv_37/sequential_7/conv2d_37/BiasAdd/ReadVariableOp", "op": "Const", "attr": {"value": {"tensor": {"dtype": "DT_FLOAT", "tensorShape": {"dim": [{"size": "768"}]}}}, "dtype": {"type": "DT_FLOAT"}}}, {"name": "StatefulPartitionedCall/model/tfc3_3/tf_conv_39/conv2d_39/Conv2D/ReadVariableOp", "op": "Const", "attr": {"value": {"tensor": {"dtype": "DT_FLOAT", "tensorShape": {"dim": [{"size": "1"}, {"size": "1"}, {"size": "768"}, {"size": "384"}]}}}, "dtype": {"type": "DT_FLOAT"}}}, {"name": "StatefulPartitionedCall/model/tfc3_3/tf_conv_39/conv2d_39/BiasAdd/ReadVariableOp", "op": "Const", "attr": {"value": {"tensor": {"dtype": "DT_FLOAT", "tensorShape": {"dim": [{"size": "384"}]}}}, "dtype": {"type": "DT_FLOAT"}}}, {"name": "StatefulPartitionedCall/model/tfc3_3/concat/axis", "op": "Const", "attr": {"value": {"tensor": {"dtype": "DT_INT32", "tensorShape": {}}}, "dtype": {"type": "DT_INT32"}}}, {"name": "StatefulPartitionedCall/model/tfc3_3/tf_conv_40/conv2d_40/Conv2D/ReadVariableOp", "op": "Const", "attr": {"value": {"tensor": {"dtype": "DT_FLOAT", "tensorShape": {"dim": [{"size": "1"}, {"size": "1"}, {"size": "768"}, {"size": "768"}]}}}, "dtype": {"type": "DT_FLOAT"}}}, {"name": "StatefulPartitionedCall/model/tfc3_3/tf_conv_40/conv2d_40/BiasAdd/ReadVariableOp", "op": "Const", "attr": {"value": {"tensor": {"dtype": "DT_FLOAT", "tensorShape": {"dim": [{"size": "768"}]}}}, "dtype": {"type": "DT_FLOAT"}}}, {"name": "StatefulPartitionedCall/model/tfsppf/tf_conv_45/conv2d_45/Conv2D/ReadVariableOp", "op": "Const", "attr": {"value": {"tensor": {"dtype": "DT_FLOAT", "tensorShape": {"dim": [{"size": "1"}, {"size": "1"}, {"size": "768"}, {"size": "384"}]}}}, "dtype": {"type": "DT_FLOAT"}}}, {"name": "StatefulPartitionedCall/model/tfsppf/tf_conv_45/conv2d_45/BiasAdd/ReadVariableOp", "op": "Const", "attr": {"value": {"tensor": {"dtype": "DT_FLOAT", "tensorShape": {"dim": [{"size": "384"}]}}}, "dtype": {"type": "DT_FLOAT"}}}, {"name": "StatefulPartitionedCall/model/tfsppf/concat/axis", "op": "Const", "attr": {"value": {"tensor": {"dtype": "DT_INT32", "tensorShape": {}}}, "dtype": {"type": "DT_INT32"}}}, {"name": "StatefulPartitionedCall/model/tfsppf/tf_conv_46/conv2d_46/Conv2D/ReadVariableOp", "op": "Const", "attr": {"value": {"tensor": {"dtype": "DT_FLOAT", "tensorShape": {"dim": [{"size": "1"}, {"size": "1"}, {"size": "1536"}, {"size": "768"}]}}}, "dtype": {"type": "DT_FLOAT"}}}, {"name": "StatefulPartitionedCall/model/tfsppf/tf_conv_46/conv2d_46/BiasAdd/ReadVariableOp", "op": "Const", "attr": {"value": {"tensor": {"dtype": "DT_FLOAT", "tensorShape": {"dim": [{"size": "768"}]}}}, "dtype": {"type": "DT_FLOAT"}}}, {"name": "StatefulPartitionedCall/model/tf_conv_47/conv2d_47/Conv2D/ReadVariableOp", "op": "Const", "attr": {"value": {"tensor": {"dtype": "DT_FLOAT", "tensorShape": {"dim": [{"size": "1"}, {"size": "1"}, {"size": "768"}, {"size": "384"}]}}}, "dtype": {"type": "DT_FLOAT"}}}, {"name": "StatefulPartitionedCall/model/tf_conv_47/conv2d_47/BiasAdd/ReadVariableOp", "op": "Const", "attr": {"value": {"tensor": {"dtype": "DT_FLOAT", "tensorShape": {"dim": [{"size": "384"}]}}}, "dtype": {"type": "DT_FLOAT"}}}, {"name": "StatefulPartitionedCall/model/tf_upsample/resize/size", "op": "Const", "attr": {"value": {"tensor": {"dtype": "DT_INT32", "tensorShape": {"dim": [{"size": "2"}]}}}, "dtype": {"type": "DT_INT32"}}}, {"name": "StatefulPartitionedCall/model/tfc3_2/tf_conv_22/conv2d_22/Conv2D/ReadVariableOp", "op": "Const", "attr": {"value": {"tensor": {"dtype": "DT_FLOAT", "tensorShape": {"dim": [{"size": "1"}, {"size": "1"}, {"size": "384"}, {"size": "192"}]}}}, "dtype": {"type": "DT_FLOAT"}}}, {"name": "StatefulPartitionedCall/model/tfc3_2/tf_conv_22/conv2d_22/BiasAdd/ReadVariableOp", "op": "Const", "attr": {"value": {"tensor": {"dtype": "DT_FLOAT", "tensorShape": {"dim": [{"size": "192"}]}}}, "dtype": {"type": "DT_FLOAT"}}}, {"name": "StatefulPartitionedCall/model/tfc3_2/sequential_6/tf_bottleneck_6/tf_conv_25/conv2d_25/Conv2D/ReadVariableOp", "op": "Const", "attr": {"value": {"tensor": {"dtype": "DT_FLOAT", "tensorShape": {"dim": [{"size": "1"}, {"size": "1"}, {"size": "192"}, {"size": "192"}]}}}, "dtype": {"type": "DT_FLOAT"}}}, {"name": "StatefulPartitionedCall/model/tfc3_2/sequential_6/tf_bottleneck_6/tf_conv_25/conv2d_25/BiasAdd/ReadVariableOp", "op": "Const", "attr": {"value": {"tensor": {"dtype": "DT_FLOAT", "tensorShape": {"dim": [{"size": "192"}]}}}, "dtype": {"type": "DT_FLOAT"}}}, {"name": "StatefulPartitionedCall/model/tfc3_2/sequential_6/tf_bottleneck_6/tf_conv_26/conv2d_26/Conv2D/ReadVariableOp", "op": "Const", "attr": {"value": {"tensor": {"dtype": "DT_FLOAT", "tensorShape": {"dim": [{"size": "3"}, {"size": "3"}, {"size": "192"}, {"size": "192"}]}}}, "dtype": {"type": "DT_FLOAT"}}}, {"name": "StatefulPartitionedCall/model/tfc3_2/sequential_6/tf_bottleneck_6/tf_conv_26/conv2d_26/BiasAdd/ReadVariableOp", "op": "Const", "attr": {"value": {"tensor": {"dtype": "DT_FLOAT", "tensorShape": {"dim": [{"size": "192"}]}}}, "dtype": {"type": "DT_FLOAT"}}}, {"name": "StatefulPartitionedCall/model/tfc3_2/sequential_6/tf_bottleneck_7/tf_conv_27/conv2d_27/Conv2D/ReadVariableOp", "op": "Const", "attr": {"value": {"tensor": {"dtype": "DT_FLOAT", "tensorShape": {"dim": [{"size": "1"}, {"size": "1"}, {"size": "192"}, {"size": "192"}]}}}, "dtype": {"type": "DT_FLOAT"}}}, {"name": "StatefulPartitionedCall/model/tfc3_2/sequential_6/tf_bottleneck_7/tf_conv_27/conv2d_27/BiasAdd/ReadVariableOp", "op": "Const", "attr": {"value": {"tensor": {"dtype": "DT_FLOAT", "tensorShape": {"dim": [{"size": "192"}]}}}, "dtype": {"type": "DT_FLOAT"}}}, {"name": "StatefulPartitionedCall/model/tfc3_2/sequential_6/tf_bottleneck_7/tf_conv_28/conv2d_28/Conv2D/ReadVariableOp", "op": "Const", "attr": {"value": {"tensor": {"dtype": "DT_FLOAT", "tensorShape": {"dim": [{"size": "3"}, {"size": "3"}, {"size": "192"}, {"size": "192"}]}}}, "dtype": {"type": "DT_FLOAT"}}}, {"name": "StatefulPartitionedCall/model/tfc3_2/sequential_6/tf_bottleneck_7/tf_conv_28/conv2d_28/BiasAdd/ReadVariableOp", "op": "Const", "attr": {"value": {"tensor": {"dtype": "DT_FLOAT", "tensorShape": {"dim": [{"size": "192"}]}}}, "dtype": {"type": "DT_FLOAT"}}}, {"name": "StatefulPartitionedCall/model/tfc3_2/sequential_6/tf_bottleneck_8/tf_conv_29/conv2d_29/Conv2D/ReadVariableOp", "op": "Const", "attr": {"value": {"tensor": {"dtype": "DT_FLOAT", "tensorShape": {"dim": [{"size": "1"}, {"size": "1"}, {"size": "192"}, {"size": "192"}]}}}, "dtype": {"type": "DT_FLOAT"}}}, {"name": "StatefulPartitionedCall/model/tfc3_2/sequential_6/tf_bottleneck_8/tf_conv_29/conv2d_29/BiasAdd/ReadVariableOp", "op": "Const", "attr": {"value": {"tensor": {"dtype": "DT_FLOAT", "tensorShape": {"dim": [{"size": "192"}]}}}, "dtype": {"type": "DT_FLOAT"}}}, {"name": "StatefulPartitionedCall/model/tfc3_2/sequential_6/tf_bottleneck_8/tf_conv_30/conv2d_30/Conv2D/ReadVariableOp", "op": "Const", "attr": {"value": {"tensor": {"dtype": "DT_FLOAT", "tensorShape": {"dim": [{"size": "3"}, {"size": "3"}, {"size": "192"}, {"size": "192"}]}}}, "dtype": {"type": "DT_FLOAT"}}}, {"name": "StatefulPartitionedCall/model/tfc3_2/sequential_6/tf_bottleneck_8/tf_conv_30/conv2d_30/BiasAdd/ReadVariableOp", "op": "Const", "attr": {"value": {"tensor": {"dtype": "DT_FLOAT", "tensorShape": {"dim": [{"size": "192"}]}}}, "dtype": {"type": "DT_FLOAT"}}}, {"name": "StatefulPartitionedCall/model/tfc3_2/sequential_6/tf_bottleneck_9/tf_conv_31/conv2d_31/Conv2D/ReadVariableOp", "op": "Const", "attr": {"value": {"tensor": {"dtype": "DT_FLOAT", "tensorShape": {"dim": [{"size": "1"}, {"size": "1"}, {"size": "192"}, {"size": "192"}]}}}, "dtype": {"type": "DT_FLOAT"}}}, {"name": "StatefulPartitionedCall/model/tfc3_2/sequential_6/tf_bottleneck_9/tf_conv_31/conv2d_31/BiasAdd/ReadVariableOp", "op": "Const", "attr": {"value": {"tensor": {"dtype": "DT_FLOAT", "tensorShape": {"dim": [{"size": "192"}]}}}, "dtype": {"type": "DT_FLOAT"}}}, {"name": "StatefulPartitionedCall/model/tfc3_2/sequential_6/tf_bottleneck_9/tf_conv_32/conv2d_32/Conv2D/ReadVariableOp", "op": "Const", "attr": {"value": {"tensor": {"dtype": "DT_FLOAT", "tensorShape": {"dim": [{"size": "3"}, {"size": "3"}, {"size": "192"}, {"size": "192"}]}}}, "dtype": {"type": "DT_FLOAT"}}}, {"name": "StatefulPartitionedCall/model/tfc3_2/sequential_6/tf_bottleneck_9/tf_conv_32/conv2d_32/BiasAdd/ReadVariableOp", "op": "Const", "attr": {"value": {"tensor": {"dtype": "DT_FLOAT", "tensorShape": {"dim": [{"size": "192"}]}}}, "dtype": {"type": "DT_FLOAT"}}}, {"name": "StatefulPartitionedCall/model/tfc3_2/sequential_6/tf_bottleneck_10/tf_conv_33/conv2d_33/Conv2D/ReadVariableOp", "op": "Const", "attr": {"value": {"tensor": {"dtype": "DT_FLOAT", "tensorShape": {"dim": [{"size": "1"}, {"size": "1"}, {"size": "192"}, {"size": "192"}]}}}, "dtype": {"type": "DT_FLOAT"}}}, {"name": "StatefulPartitionedCall/model/tfc3_2/sequential_6/tf_bottleneck_10/tf_conv_33/conv2d_33/BiasAdd/ReadVariableOp", "op": "Const", "attr": {"value": {"tensor": {"dtype": "DT_FLOAT", "tensorShape": {"dim": [{"size": "192"}]}}}, "dtype": {"type": "DT_FLOAT"}}}, {"name": "StatefulPartitionedCall/model/tfc3_2/sequential_6/tf_bottleneck_10/tf_conv_34/conv2d_34/Conv2D/ReadVariableOp", "op": "Const", "attr": {"value": {"tensor": {"dtype": "DT_FLOAT", "tensorShape": {"dim": [{"size": "3"}, {"size": "3"}, {"size": "192"}, {"size": "192"}]}}}, "dtype": {"type": "DT_FLOAT"}}}, {"name": "StatefulPartitionedCall/model/tfc3_2/sequential_6/tf_bottleneck_10/tf_conv_34/conv2d_34/BiasAdd/ReadVariableOp", "op": "Const", "attr": {"value": {"tensor": {"dtype": "DT_FLOAT", "tensorShape": {"dim": [{"size": "192"}]}}}, "dtype": {"type": "DT_FLOAT"}}}, {"name": "StatefulPartitionedCall/model/tfc3_2/sequential_6/tf_bottleneck_11/tf_conv_35/conv2d_35/Conv2D/ReadVariableOp", "op": "Const", "attr": {"value": {"tensor": {"dtype": "DT_FLOAT", "tensorShape": {"dim": [{"size": "1"}, {"size": "1"}, {"size": "192"}, {"size": "192"}]}}}, "dtype": {"type": "DT_FLOAT"}}}, {"name": "StatefulPartitionedCall/model/tfc3_2/sequential_6/tf_bottleneck_11/tf_conv_35/conv2d_35/BiasAdd/ReadVariableOp", "op": "Const", "attr": {"value": {"tensor": {"dtype": "DT_FLOAT", "tensorShape": {"dim": [{"size": "192"}]}}}, "dtype": {"type": "DT_FLOAT"}}}, {"name": "StatefulPartitionedCall/model/tfc3_2/sequential_6/tf_bottleneck_11/tf_conv_36/conv2d_36/Conv2D/ReadVariableOp", "op": "Const", "attr": {"value": {"tensor": {"dtype": "DT_FLOAT", "tensorShape": {"dim": [{"size": "3"}, {"size": "3"}, {"size": "192"}, {"size": "192"}]}}}, "dtype": {"type": "DT_FLOAT"}}}, {"name": "StatefulPartitionedCall/model/tfc3_2/sequential_6/tf_bottleneck_11/tf_conv_36/conv2d_36/BiasAdd/ReadVariableOp", "op": "Const", "attr": {"value": {"tensor": {"dtype": "DT_FLOAT", "tensorShape": {"dim": [{"size": "192"}]}}}, "dtype": {"type": "DT_FLOAT"}}}, {"name": "unknown_44", "op": "Const", "attr": {"value": {"tensor": {"dtype": "DT_INT32", "tensorShape": {"dim": [{"size": "4"}, {"size": "2"}]}}}, "dtype": {"type": "DT_INT32"}}}, {"name": "StatefulPartitionedCall/model/tf_conv_21/sequential_5/conv2d_21/Conv2D/ReadVariableOp", "op": "Const", "attr": {"value": {"tensor": {"dtype": "DT_FLOAT", "tensorShape": {"dim": [{"size": "3"}, {"size": "3"}, {"size": "192"}, {"size": "384"}]}}}, "dtype": {"type": "DT_FLOAT"}}}, {"name": "StatefulPartitionedCall/model/tf_conv_21/sequential_5/conv2d_21/BiasAdd/ReadVariableOp", "op": "Const", "attr": {"value": {"tensor": {"dtype": "DT_FLOAT", "tensorShape": {"dim": [{"size": "384"}]}}}, "dtype": {"type": "DT_FLOAT"}}}, {"name": "StatefulPartitionedCall/model/tfc3_2/tf_conv_23/conv2d_23/Conv2D/ReadVariableOp", "op": "Const", "attr": {"value": {"tensor": {"dtype": "DT_FLOAT", "tensorShape": {"dim": [{"size": "1"}, {"size": "1"}, {"size": "384"}, {"size": "192"}]}}}, "dtype": {"type": "DT_FLOAT"}}}, {"name": "StatefulPartitionedCall/model/tfc3_2/tf_conv_23/conv2d_23/BiasAdd/ReadVariableOp", "op": "Const", "attr": {"value": {"tensor": {"dtype": "DT_FLOAT", "tensorShape": {"dim": [{"size": "192"}]}}}, "dtype": {"type": "DT_FLOAT"}}}, {"name": "StatefulPartitionedCall/model/tfc3_2/concat/axis", "op": "Const", "attr": {"value": {"tensor": {"dtype": "DT_INT32", "tensorShape": {}}}, "dtype": {"type": "DT_INT32"}}}, {"name": "StatefulPartitionedCall/model/tfc3_2/tf_conv_24/conv2d_24/Conv2D/ReadVariableOp", "op": "Const", "attr": {"value": {"tensor": {"dtype": "DT_FLOAT", "tensorShape": {"dim": [{"size": "1"}, {"size": "1"}, {"size": "384"}, {"size": "384"}]}}}, "dtype": {"type": "DT_FLOAT"}}}, {"name": "StatefulPartitionedCall/model/tfc3_2/tf_conv_24/conv2d_24/BiasAdd/ReadVariableOp", "op": "Const", "attr": {"value": {"tensor": {"dtype": "DT_FLOAT", "tensorShape": {"dim": [{"size": "384"}]}}}, "dtype": {"type": "DT_FLOAT"}}}, {"name": "StatefulPartitionedCall/model/tf_concat/concat/axis", "op": "Const", "attr": {"value": {"tensor": {"dtype": "DT_INT32", "tensorShape": {}}}, "dtype": {"type": "DT_INT32"}}}, {"name": "StatefulPartitionedCall/model/tfc3_4/tf_conv_49/conv2d_49/Conv2D/ReadVariableOp", "op": "Const", "attr": {"value": {"tensor": {"dtype": "DT_FLOAT", "tensorShape": {"dim": [{"size": "1"}, {"size": "1"}, {"size": "768"}, {"size": "192"}]}}}, "dtype": {"type": "DT_FLOAT"}}}, {"name": "StatefulPartitionedCall/model/tfc3_4/tf_conv_49/conv2d_49/BiasAdd/ReadVariableOp", "op": "Const", "attr": {"value": {"tensor": {"dtype": "DT_FLOAT", "tensorShape": {"dim": [{"size": "192"}]}}}, "dtype": {"type": "DT_FLOAT"}}}, {"name": "StatefulPartitionedCall/model/tfc3_4/concat/axis", "op": "Const", "attr": {"value": {"tensor": {"dtype": "DT_INT32", "tensorShape": {}}}, "dtype": {"type": "DT_INT32"}}}, {"name": "StatefulPartitionedCall/model/tfc3_4/tf_conv_50/conv2d_50/Conv2D/ReadVariableOp", "op": "Const", "attr": {"value": {"tensor": {"dtype": "DT_FLOAT", "tensorShape": {"dim": [{"size": "1"}, {"size": "1"}, {"size": "384"}, {"size": "384"}]}}}, "dtype": {"type": "DT_FLOAT"}}}, {"name": "StatefulPartitionedCall/model/tfc3_4/tf_conv_50/conv2d_50/BiasAdd/ReadVariableOp", "op": "Const", "attr": {"value": {"tensor": {"dtype": "DT_FLOAT", "tensorShape": {"dim": [{"size": "384"}]}}}, "dtype": {"type": "DT_FLOAT"}}}, {"name": "StatefulPartitionedCall/model/tf_conv_55/conv2d_55/Conv2D/ReadVariableOp", "op": "Const", "attr": {"value": {"tensor": {"dtype": "DT_FLOAT", "tensorShape": {"dim": [{"size": "1"}, {"size": "1"}, {"size": "384"}, {"size": "192"}]}}}, "dtype": {"type": "DT_FLOAT"}}}, {"name": "StatefulPartitionedCall/model/tf_conv_55/conv2d_55/BiasAdd/ReadVariableOp", "op": "Const", "attr": {"value": {"tensor": {"dtype": "DT_FLOAT", "tensorShape": {"dim": [{"size": "192"}]}}}, "dtype": {"type": "DT_FLOAT"}}}, {"name": "StatefulPartitionedCall/model/tf_upsample_1/resize/size", "op": "Const", "attr": {"value": {"tensor": {"dtype": "DT_INT32", "tensorShape": {"dim": [{"size": "2"}]}}}, "dtype": {"type": "DT_INT32"}}}, {"name": "StatefulPartitionedCall/model/tfc3_1/tf_conv_10/conv2d_10/Conv2D/ReadVariableOp", "op": "Const", "attr": {"value": {"tensor": {"dtype": "DT_FLOAT", "tensorShape": {"dim": [{"size": "1"}, {"size": "1"}, {"size": "192"}, {"size": "96"}]}}}, "dtype": {"type": "DT_FLOAT"}}}, {"name": "StatefulPartitionedCall/model/tfc3_1/tf_conv_10/conv2d_10/BiasAdd/ReadVariableOp", "op": "Const", "attr": {"value": {"tensor": {"dtype": "DT_FLOAT", "tensorShape": {"dim": [{"size": "96"}]}}}, "dtype": {"type": "DT_FLOAT"}}}, {"name": "StatefulPartitionedCall/model/tfc3_1/sequential_4/tf_bottleneck_2/tf_conv_13/conv2d_13/Conv2D/ReadVariableOp", "op": "Const", "attr": {"value": {"tensor": {"dtype": "DT_FLOAT", "tensorShape": {"dim": [{"size": "1"}, {"size": "1"}, {"size": "96"}, {"size": "96"}]}}}, "dtype": {"type": "DT_FLOAT"}}}, {"name": "StatefulPartitionedCall/model/tfc3_1/sequential_4/tf_bottleneck_2/tf_conv_13/conv2d_13/BiasAdd/ReadVariableOp", "op": "Const", "attr": {"value": {"tensor": {"dtype": "DT_FLOAT", "tensorShape": {"dim": [{"size": "96"}]}}}, "dtype": {"type": "DT_FLOAT"}}}, {"name": "StatefulPartitionedCall/model/tfc3_1/sequential_4/tf_bottleneck_2/tf_conv_14/conv2d_14/Conv2D/ReadVariableOp", "op": "Const", "attr": {"value": {"tensor": {"dtype": "DT_FLOAT", "tensorShape": {"dim": [{"size": "3"}, {"size": "3"}, {"size": "96"}, {"size": "96"}]}}}, "dtype": {"type": "DT_FLOAT"}}}, {"name": "StatefulPartitionedCall/model/tfc3_1/sequential_4/tf_bottleneck_2/tf_conv_14/conv2d_14/BiasAdd/ReadVariableOp", "op": "Const", "attr": {"value": {"tensor": {"dtype": "DT_FLOAT", "tensorShape": {"dim": [{"size": "96"}]}}}, "dtype": {"type": "DT_FLOAT"}}}, {"name": "StatefulPartitionedCall/model/tfc3_1/sequential_4/tf_bottleneck_3/tf_conv_15/conv2d_15/Conv2D/ReadVariableOp", "op": "Const", "attr": {"value": {"tensor": {"dtype": "DT_FLOAT", "tensorShape": {"dim": [{"size": "1"}, {"size": "1"}, {"size": "96"}, {"size": "96"}]}}}, "dtype": {"type": "DT_FLOAT"}}}, {"name": "StatefulPartitionedCall/model/tfc3_1/sequential_4/tf_bottleneck_3/tf_conv_15/conv2d_15/BiasAdd/ReadVariableOp", "op": "Const", "attr": {"value": {"tensor": {"dtype": "DT_FLOAT", "tensorShape": {"dim": [{"size": "96"}]}}}, "dtype": {"type": "DT_FLOAT"}}}, {"name": "StatefulPartitionedCall/model/tfc3_1/sequential_4/tf_bottleneck_3/tf_conv_16/conv2d_16/Conv2D/ReadVariableOp", "op": "Const", "attr": {"value": {"tensor": {"dtype": "DT_FLOAT", "tensorShape": {"dim": [{"size": "3"}, {"size": "3"}, {"size": "96"}, {"size": "96"}]}}}, "dtype": {"type": "DT_FLOAT"}}}, {"name": "StatefulPartitionedCall/model/tfc3_1/sequential_4/tf_bottleneck_3/tf_conv_16/conv2d_16/BiasAdd/ReadVariableOp", "op": "Const", "attr": {"value": {"tensor": {"dtype": "DT_FLOAT", "tensorShape": {"dim": [{"size": "96"}]}}}, "dtype": {"type": "DT_FLOAT"}}}, {"name": "StatefulPartitionedCall/model/tfc3_1/sequential_4/tf_bottleneck_4/tf_conv_17/conv2d_17/Conv2D/ReadVariableOp", "op": "Const", "attr": {"value": {"tensor": {"dtype": "DT_FLOAT", "tensorShape": {"dim": [{"size": "1"}, {"size": "1"}, {"size": "96"}, {"size": "96"}]}}}, "dtype": {"type": "DT_FLOAT"}}}, {"name": "StatefulPartitionedCall/model/tfc3_1/sequential_4/tf_bottleneck_4/tf_conv_17/conv2d_17/BiasAdd/ReadVariableOp", "op": "Const", "attr": {"value": {"tensor": {"dtype": "DT_FLOAT", "tensorShape": {"dim": [{"size": "96"}]}}}, "dtype": {"type": "DT_FLOAT"}}}, {"name": "StatefulPartitionedCall/model/tfc3_1/sequential_4/tf_bottleneck_4/tf_conv_18/conv2d_18/Conv2D/ReadVariableOp", "op": "Const", "attr": {"value": {"tensor": {"dtype": "DT_FLOAT", "tensorShape": {"dim": [{"size": "3"}, {"size": "3"}, {"size": "96"}, {"size": "96"}]}}}, "dtype": {"type": "DT_FLOAT"}}}, {"name": "StatefulPartitionedCall/model/tfc3_1/sequential_4/tf_bottleneck_4/tf_conv_18/conv2d_18/BiasAdd/ReadVariableOp", "op": "Const", "attr": {"value": {"tensor": {"dtype": "DT_FLOAT", "tensorShape": {"dim": [{"size": "96"}]}}}, "dtype": {"type": "DT_FLOAT"}}}, {"name": "StatefulPartitionedCall/model/tfc3_1/sequential_4/tf_bottleneck_5/tf_conv_19/conv2d_19/Conv2D/ReadVariableOp", "op": "Const", "attr": {"value": {"tensor": {"dtype": "DT_FLOAT", "tensorShape": {"dim": [{"size": "1"}, {"size": "1"}, {"size": "96"}, {"size": "96"}]}}}, "dtype": {"type": "DT_FLOAT"}}}, {"name": "StatefulPartitionedCall/model/tfc3_1/sequential_4/tf_bottleneck_5/tf_conv_19/conv2d_19/BiasAdd/ReadVariableOp", "op": "Const", "attr": {"value": {"tensor": {"dtype": "DT_FLOAT", "tensorShape": {"dim": [{"size": "96"}]}}}, "dtype": {"type": "DT_FLOAT"}}}, {"name": "StatefulPartitionedCall/model/tfc3_1/sequential_4/tf_bottleneck_5/tf_conv_20/conv2d_20/Conv2D/ReadVariableOp", "op": "Const", "attr": {"value": {"tensor": {"dtype": "DT_FLOAT", "tensorShape": {"dim": [{"size": "3"}, {"size": "3"}, {"size": "96"}, {"size": "96"}]}}}, "dtype": {"type": "DT_FLOAT"}}}, {"name": "StatefulPartitionedCall/model/tfc3_1/sequential_4/tf_bottleneck_5/tf_conv_20/conv2d_20/BiasAdd/ReadVariableOp", "op": "Const", "attr": {"value": {"tensor": {"dtype": "DT_FLOAT", "tensorShape": {"dim": [{"size": "96"}]}}}, "dtype": {"type": "DT_FLOAT"}}}, {"name": "StatefulPartitionedCall/model/tfc3/tf_conv_2/conv2d_2/Conv2D/ReadVariableOp", "op": "Const", "attr": {"value": {"tensor": {"dtype": "DT_FLOAT", "tensorShape": {"dim": [{"size": "1"}, {"size": "1"}, {"size": "96"}, {"size": "48"}]}}}, "dtype": {"type": "DT_FLOAT"}}}, {"name": "StatefulPartitionedCall/model/tfc3/tf_conv_2/conv2d_2/BiasAdd/ReadVariableOp", "op": "Const", "attr": {"value": {"tensor": {"dtype": "DT_FLOAT", "tensorShape": {"dim": [{"size": "48"}]}}}, "dtype": {"type": "DT_FLOAT"}}}, {"name": "StatefulPartitionedCall/model/tfc3/sequential_2/tf_bottleneck/tf_conv_5/conv2d_5/Conv2D/ReadVariableOp", "op": "Const", "attr": {"value": {"tensor": {"dtype": "DT_FLOAT", "tensorShape": {"dim": [{"size": "1"}, {"size": "1"}, {"size": "48"}, {"size": "48"}]}}}, "dtype": {"type": "DT_FLOAT"}}}, {"name": "StatefulPartitionedCall/model/tfc3/sequential_2/tf_bottleneck/tf_conv_5/conv2d_5/BiasAdd/ReadVariableOp", "op": "Const", "attr": {"value": {"tensor": {"dtype": "DT_FLOAT", "tensorShape": {"dim": [{"size": "48"}]}}}, "dtype": {"type": "DT_FLOAT"}}}, {"name": "StatefulPartitionedCall/model/tfc3/sequential_2/tf_bottleneck/tf_conv_6/conv2d_6/Conv2D/ReadVariableOp", "op": "Const", "attr": {"value": {"tensor": {"dtype": "DT_FLOAT", "tensorShape": {"dim": [{"size": "3"}, {"size": "3"}, {"size": "48"}, {"size": "48"}]}}}, "dtype": {"type": "DT_FLOAT"}}}, {"name": "StatefulPartitionedCall/model/tfc3/sequential_2/tf_bottleneck/tf_conv_6/conv2d_6/BiasAdd/ReadVariableOp", "op": "Const", "attr": {"value": {"tensor": {"dtype": "DT_FLOAT", "tensorShape": {"dim": [{"size": "48"}]}}}, "dtype": {"type": "DT_FLOAT"}}}, {"name": "StatefulPartitionedCall/model/tfc3/sequential_2/tf_bottleneck_1/tf_conv_7/conv2d_7/Conv2D/ReadVariableOp", "op": "Const", "attr": {"value": {"tensor": {"dtype": "DT_FLOAT", "tensorShape": {"dim": [{"size": "1"}, {"size": "1"}, {"size": "48"}, {"size": "48"}]}}}, "dtype": {"type": "DT_FLOAT"}}}, {"name": "StatefulPartitionedCall/model/tfc3/sequential_2/tf_bottleneck_1/tf_conv_7/conv2d_7/BiasAdd/ReadVariableOp", "op": "Const", "attr": {"value": {"tensor": {"dtype": "DT_FLOAT", "tensorShape": {"dim": [{"size": "48"}]}}}, "dtype": {"type": "DT_FLOAT"}}}, {"name": "StatefulPartitionedCall/model/tfc3/sequential_2/tf_bottleneck_1/tf_conv_8/conv2d_8/Conv2D/ReadVariableOp", "op": "Const", "attr": {"value": {"tensor": {"dtype": "DT_FLOAT", "tensorShape": {"dim": [{"size": "3"}, {"size": "3"}, {"size": "48"}, {"size": "48"}]}}}, "dtype": {"type": "DT_FLOAT"}}}, {"name": "StatefulPartitionedCall/model/tfc3/sequential_2/tf_bottleneck_1/tf_conv_8/conv2d_8/BiasAdd/ReadVariableOp", "op": "Const", "attr": {"value": {"tensor": {"dtype": "DT_FLOAT", "tensorShape": {"dim": [{"size": "48"}]}}}, "dtype": {"type": "DT_FLOAT"}}}, {"name": "unknown", "op": "Const", "attr": {"value": {"tensor": {"dtype": "DT_INT32", "tensorShape": {"dim": [{"size": "4"}, {"size": "2"}]}}}, "dtype": {"type": "DT_INT32"}}}, {"name": "StatefulPartitionedCall/model/tf_conv/sequential/conv2d/Conv2D/ReadVariableOp", "op": "Const", "attr": {"value": {"tensor": {"dtype": "DT_FLOAT", "tensorShape": {"dim": [{"size": "6"}, {"size": "6"}, {"size": "3"}, {"size": "48"}]}}}, "dtype": {"type": "DT_FLOAT"}}}, {"name": "StatefulPartitionedCall/model/tf_conv/sequential/conv2d/BiasAdd/ReadVariableOp", "op": "Const", "attr": {"value": {"tensor": {"dtype": "DT_FLOAT", "tensorShape": {"dim": [{"size": "48"}]}}}, "dtype": {"type": "DT_FLOAT"}}}, {"name": "unknown_2", "op": "Const", "attr": {"value": {"tensor": {"dtype": "DT_INT32", "tensorShape": {"dim": [{"size": "4"}, {"size": "2"}]}}}, "dtype": {"type": "DT_INT32"}}}, {"name": "StatefulPartitionedCall/model/tf_conv_1/sequential_1/conv2d_1/Conv2D/ReadVariableOp", "op": "Const", "attr": {"value": {"tensor": {"dtype": "DT_FLOAT", "tensorShape": {"dim": [{"size": "3"}, {"size": "3"}, {"size": "48"}, {"size": "96"}]}}}, "dtype": {"type": "DT_FLOAT"}}}, {"name": "StatefulPartitionedCall/model/tf_conv_1/sequential_1/conv2d_1/BiasAdd/ReadVariableOp", "op": "Const", "attr": {"value": {"tensor": {"dtype": "DT_FLOAT", "tensorShape": {"dim": [{"size": "96"}]}}}, "dtype": {"type": "DT_FLOAT"}}}, {"name": "StatefulPartitionedCall/model/tfc3/tf_conv_3/conv2d_3/Conv2D/ReadVariableOp", "op": "Const", "attr": {"value": {"tensor": {"dtype": "DT_FLOAT", "tensorShape": {"dim": [{"size": "1"}, {"size": "1"}, {"size": "96"}, {"size": "48"}]}}}, "dtype": {"type": "DT_FLOAT"}}}, {"name": "StatefulPartitionedCall/model/tfc3/tf_conv_3/conv2d_3/BiasAdd/ReadVariableOp", "op": "Const", "attr": {"value": {"tensor": {"dtype": "DT_FLOAT", "tensorShape": {"dim": [{"size": "48"}]}}}, "dtype": {"type": "DT_FLOAT"}}}, {"name": "StatefulPartitionedCall/model/tfc3/concat/axis", "op": "Const", "attr": {"value": {"tensor": {"dtype": "DT_INT32", "tensorShape": {}}}, "dtype": {"type": "DT_INT32"}}}, {"name": "StatefulPartitionedCall/model/tfc3/tf_conv_4/conv2d_4/Conv2D/ReadVariableOp", "op": "Const", "attr": {"value": {"tensor": {"dtype": "DT_FLOAT", "tensorShape": {"dim": [{"size": "1"}, {"size": "1"}, {"size": "96"}, {"size": "96"}]}}}, "dtype": {"type": "DT_FLOAT"}}}, {"name": "StatefulPartitionedCall/model/tfc3/tf_conv_4/conv2d_4/BiasAdd/ReadVariableOp", "op": "Const", "attr": {"value": {"tensor": {"dtype": "DT_FLOAT", "tensorShape": {"dim": [{"size": "96"}]}}}, "dtype": {"type": "DT_FLOAT"}}}, {"name": "unknown_19", "op": "Const", "attr": {"value": {"tensor": {"dtype": "DT_INT32", "tensorShape": {"dim": [{"size": "4"}, {"size": "2"}]}}}, "dtype": {"type": "DT_INT32"}}}, {"name": "StatefulPartitionedCall/model/tf_conv_9/sequential_3/conv2d_9/Conv2D/ReadVariableOp", "op": "Const", "attr": {"value": {"tensor": {"dtype": "DT_FLOAT", "tensorShape": {"dim": [{"size": "3"}, {"size": "3"}, {"size": "96"}, {"size": "192"}]}}}, "dtype": {"type": "DT_FLOAT"}}}, {"name": "StatefulPartitionedCall/model/tf_conv_9/sequential_3/conv2d_9/BiasAdd/ReadVariableOp", "op": "Const", "attr": {"value": {"tensor": {"dtype": "DT_FLOAT", "tensorShape": {"dim": [{"size": "192"}]}}}, "dtype": {"type": "DT_FLOAT"}}}, {"name": "StatefulPartitionedCall/model/tfc3_1/tf_conv_11/conv2d_11/Conv2D/ReadVariableOp", "op": "Const", "attr": {"value": {"tensor": {"dtype": "DT_FLOAT", "tensorShape": {"dim": [{"size": "1"}, {"size": "1"}, {"size": "192"}, {"size": "96"}]}}}, "dtype": {"type": "DT_FLOAT"}}}, {"name": "StatefulPartitionedCall/model/tfc3_1/tf_conv_11/conv2d_11/BiasAdd/ReadVariableOp", "op": "Const", "attr": {"value": {"tensor": {"dtype": "DT_FLOAT", "tensorShape": {"dim": [{"size": "96"}]}}}, "dtype": {"type": "DT_FLOAT"}}}, {"name": "StatefulPartitionedCall/model/tfc3_1/concat/axis", "op": "Const", "attr": {"value": {"tensor": {"dtype": "DT_INT32", "tensorShape": {}}}, "dtype": {"type": "DT_INT32"}}}, {"name": "StatefulPartitionedCall/model/tfc3_1/tf_conv_12/conv2d_12/Conv2D/ReadVariableOp", "op": "Const", "attr": {"value": {"tensor": {"dtype": "DT_FLOAT", "tensorShape": {"dim": [{"size": "1"}, {"size": "1"}, {"size": "192"}, {"size": "192"}]}}}, "dtype": {"type": "DT_FLOAT"}}}, {"name": "StatefulPartitionedCall/model/tfc3_1/tf_conv_12/conv2d_12/BiasAdd/ReadVariableOp", "op": "Const", "attr": {"value": {"tensor": {"dtype": "DT_FLOAT", "tensorShape": {"dim": [{"size": "192"}]}}}, "dtype": {"type": "DT_FLOAT"}}}, {"name": "StatefulPartitionedCall/model/tf_concat_1/concat/axis", "op": "Const", "attr": {"value": {"tensor": {"dtype": "DT_INT32", "tensorShape": {}}}, "dtype": {"type": "DT_INT32"}}}, {"name": "StatefulPartitionedCall/model/tfc3_5/tf_conv_57/conv2d_57/Conv2D/ReadVariableOp", "op": "Const", "attr": {"value": {"tensor": {"dtype": "DT_FLOAT", "tensorShape": {"dim": [{"size": "1"}, {"size": "1"}, {"size": "384"}, {"size": "96"}]}}}, "dtype": {"type": "DT_FLOAT"}}}, {"name": "StatefulPartitionedCall/model/tfc3_5/tf_conv_57/conv2d_57/BiasAdd/ReadVariableOp", "op": "Const", "attr": {"value": {"tensor": {"dtype": "DT_FLOAT", "tensorShape": {"dim": [{"size": "96"}]}}}, "dtype": {"type": "DT_FLOAT"}}}, {"name": "StatefulPartitionedCall/model/tfc3_5/concat/axis", "op": "Const", "attr": {"value": {"tensor": {"dtype": "DT_INT32", "tensorShape": {}}}, "dtype": {"type": "DT_INT32"}}}, {"name": "StatefulPartitionedCall/model/tfc3_5/tf_conv_58/conv2d_58/Conv2D/ReadVariableOp", "op": "Const", "attr": {"value": {"tensor": {"dtype": "DT_FLOAT", "tensorShape": {"dim": [{"size": "1"}, {"size": "1"}, {"size": "192"}, {"size": "192"}]}}}, "dtype": {"type": "DT_FLOAT"}}}, {"name": "StatefulPartitionedCall/model/tfc3_5/tf_conv_58/conv2d_58/BiasAdd/ReadVariableOp", "op": "Const", "attr": {"value": {"tensor": {"dtype": "DT_FLOAT", "tensorShape": {"dim": [{"size": "192"}]}}}, "dtype": {"type": "DT_FLOAT"}}}, {"name": "StatefulPartitionedCall/model/tf_segment/tf_proto/tf_conv_79/conv2d_85/Conv2D/ReadVariableOp", "op": "Const", "attr": {"value": {"tensor": {"dtype": "DT_FLOAT", "tensorShape": {"dim": [{"size": "3"}, {"size": "3"}, {"size": "192"}, {"size": "192"}]}}}, "dtype": {"type": "DT_FLOAT"}}}, {"name": "StatefulPartitionedCall/model/tf_segment/tf_proto/tf_conv_79/conv2d_85/BiasAdd/ReadVariableOp", "op": "Const", "attr": {"value": {"tensor": {"dtype": "DT_FLOAT", "tensorShape": {"dim": [{"size": "192"}]}}}, "dtype": {"type": "DT_FLOAT"}}}, {"name": "StatefulPartitionedCall/model/tf_segment/tf_proto/tf_upsample_2/resize/size", "op": "Const", "attr": {"value": {"tensor": {"dtype": "DT_INT32", "tensorShape": {"dim": [{"size": "2"}]}}}, "dtype": {"type": "DT_INT32"}}}, {"name": "StatefulPartitionedCall/model/tf_segment/tf_proto/tf_conv_80/conv2d_86/Conv2D/ReadVariableOp", "op": "Const", "attr": {"value": {"tensor": {"dtype": "DT_FLOAT", "tensorShape": {"dim": [{"size": "3"}, {"size": "3"}, {"size": "192"}, {"size": "192"}]}}}, "dtype": {"type": "DT_FLOAT"}}}, {"name": "StatefulPartitionedCall/model/tf_segment/tf_proto/tf_conv_80/conv2d_86/BiasAdd/ReadVariableOp", "op": "Const", "attr": {"value": {"tensor": {"dtype": "DT_FLOAT", "tensorShape": {"dim": [{"size": "192"}]}}}, "dtype": {"type": "DT_FLOAT"}}}, {"name": "StatefulPartitionedCall/model/tf_segment/tf_proto/tf_conv_81/conv2d_87/Conv2D/ReadVariableOp", "op": "Const", "attr": {"value": {"tensor": {"dtype": "DT_FLOAT", "tensorShape": {"dim": [{"size": "1"}, {"size": "1"}, {"size": "192"}, {"size": "32"}]}}}, "dtype": {"type": "DT_FLOAT"}}}, {"name": "StatefulPartitionedCall/model/tf_segment/tf_proto/tf_conv_81/conv2d_87/BiasAdd/ReadVariableOp", "op": "Const", "attr": {"value": {"tensor": {"dtype": "DT_FLOAT", "tensorShape": {"dim": [{"size": "32"}]}}}, "dtype": {"type": "DT_FLOAT"}}}, {"name": "StatefulPartitionedCall/model/tf_segment/transpose/perm", "op": "Const", "attr": {"value": {"tensor": {"dtype": "DT_INT32", "tensorShape": {"dim": [{"size": "4"}]}}}, "dtype": {"type": "DT_INT32"}}}, {"name": "input_1", "op": "Placeholder", "attr": {"shape": {"shape": {"dim": [{"size": "1"}, {"size": "640"}, {"size": "640"}, {"size": "3"}]}}, "dtype": {"type": "DT_FLOAT"}}}, {"name": "StatefulPartitionedCall/model/tf_conv/sequential/tf_pad/Pad", "op": "Pad", "input": ["input_1", "unknown"], "attr": {"Tpaddings": {"type": "DT_INT32"}, "T": {"type": "DT_FLOAT"}}}, {"name": "StatefulPartitionedCall/model/tf_conv/sequential/conv2d/BiasAdd", "op": "_FusedConv2D", "input": ["StatefulPartitionedCall/model/tf_conv/sequential/tf_pad/Pad", "StatefulPartitionedCall/model/tf_conv/sequential/conv2d/Conv2D/ReadVariableOp", "StatefulPartitionedCall/model/tf_conv/sequential/conv2d/BiasAdd/ReadVariableOp"], "device": "/device:CPU:0", "attr": {"num_host_args": {"i": "0"}, "data_format": {"s": "TkhXQw=="}, "filter_format": {"s": "SFdJTw=="}, "fused_ops": {"list": {"s": ["Qmlhc0FkZA=="]}}, "num_args": {"i": "1"}, "strides": {"list": {"i": ["1", "2", "2", "1"]}}, "TArgs": {"list": {"type": ["DT_FLOAT"]}}, "padding": {"s": "VkFMSUQ="}, "use_cudnn_on_gpu": {"b": true}, "leakyrelu_alpha": {"f": 0.2}, "epsilon": {"f": 0.0}, "T": {"type": "DT_FLOAT"}, "explicit_paddings": {"list": {}}, "dilations": {"list": {"i": ["1", "1", "1", "1"]}}}}, {"name": "StatefulPartitionedCall/model/tf_conv/Sigmoid", "op": "Sigmoid", "input": ["StatefulPartitionedCall/model/tf_conv/sequential/conv2d/BiasAdd"], "attr": {"T": {"type": "DT_FLOAT"}}}, {"name": "StatefulPartitionedCall/model/tf_conv/mul_1", "op": "Mul", "input": ["StatefulPartitionedCall/model/tf_conv/sequential/conv2d/BiasAdd", "StatefulPartitionedCall/model/tf_conv/Sigmoid"], "attr": {"T": {"type": "DT_FLOAT"}}}, {"name": "StatefulPartitionedCall/model/tf_conv_1/sequential_1/tf_pad_1/Pad", "op": "Pad", "input": ["StatefulPartitionedCall/model/tf_conv/mul_1", "unknown_2"], "attr": {"Tpaddings": {"type": "DT_INT32"}, "T": {"type": "DT_FLOAT"}}}, {"name": "StatefulPartitionedCall/model/tf_conv_1/sequential_1/conv2d_1/BiasAdd", "op": "_FusedConv2D", "input": ["StatefulPartitionedCall/model/tf_conv_1/sequential_1/tf_pad_1/Pad", "StatefulPartitionedCall/model/tf_conv_1/sequential_1/conv2d_1/Conv2D/ReadVariableOp", "StatefulPartitionedCall/model/tf_conv_1/sequential_1/conv2d_1/BiasAdd/ReadVariableOp"], "device": "/device:CPU:0", "attr": {"num_host_args": {"i": "0"}, "data_format": {"s": "TkhXQw=="}, "filter_format": {"s": "SFdJTw=="}, "fused_ops": {"list": {"s": ["Qmlhc0FkZA=="]}}, "num_args": {"i": "1"}, "strides": {"list": {"i": ["1", "2", "2", "1"]}}, "TArgs": {"list": {"type": ["DT_FLOAT"]}}, "padding": {"s": "VkFMSUQ="}, "use_cudnn_on_gpu": {"b": true}, "leakyrelu_alpha": {"f": 0.2}, "epsilon": {"f": 0.0}, "T": {"type": "DT_FLOAT"}, "explicit_paddings": {"list": {}}, "dilations": {"list": {"i": ["1", "1", "1", "1"]}}}}, {"name": "StatefulPartitionedCall/model/tf_conv_1/Sigmoid", "op": "Sigmoid", "input": ["StatefulPartitionedCall/model/tf_conv_1/sequential_1/conv2d_1/BiasAdd"], "attr": {"T": {"type": "DT_FLOAT"}}}, {"name": "StatefulPartitionedCall/model/tf_conv_1/mul_1", "op": "Mul", "input": ["StatefulPartitionedCall/model/tf_conv_1/sequential_1/conv2d_1/BiasAdd", "StatefulPartitionedCall/model/tf_conv_1/Sigmoid"], "attr": {"T": {"type": "DT_FLOAT"}}}, {"name": "StatefulPartitionedCall/model/tfc3/tf_conv_2/conv2d_2/BiasAdd", "op": "_FusedConv2D", "input": ["StatefulPartitionedCall/model/tf_conv_1/mul_1", "StatefulPartitionedCall/model/tfc3/tf_conv_2/conv2d_2/Conv2D/ReadVariableOp", "StatefulPartitionedCall/model/tfc3/tf_conv_2/conv2d_2/BiasAdd/ReadVariableOp"], "device": "/device:CPU:0", "attr": {"num_host_args": {"i": "0"}, "data_format": {"s": "TkhXQw=="}, "filter_format": {"s": "SFdJTw=="}, "strides": {"list": {"i": ["1", "1", "1", "1"]}}, "num_args": {"i": "1"}, "fused_ops": {"list": {"s": ["Qmlhc0FkZA=="]}}, "TArgs": {"list": {"type": ["DT_FLOAT"]}}, "padding": {"s": "U0FNRQ=="}, "use_cudnn_on_gpu": {"b": true}, "leakyrelu_alpha": {"f": 0.2}, "epsilon": {"f": 0.0}, "T": {"type": "DT_FLOAT"}, "explicit_paddings": {"list": {}}, "dilations": {"list": {"i": ["1", "1", "1", "1"]}}}}, {"name": "StatefulPartitionedCall/model/tfc3/tf_conv_3/conv2d_3/BiasAdd", "op": "_FusedConv2D", "input": ["StatefulPartitionedCall/model/tf_conv_1/mul_1", "StatefulPartitionedCall/model/tfc3/tf_conv_3/conv2d_3/Conv2D/ReadVariableOp", "StatefulPartitionedCall/model/tfc3/tf_conv_3/conv2d_3/BiasAdd/ReadVariableOp"], "device": "/device:CPU:0", "attr": {"num_host_args": {"i": "0"}, "data_format": {"s": "TkhXQw=="}, "filter_format": {"s": "SFdJTw=="}, "fused_ops": {"list": {"s": ["Qmlhc0FkZA=="]}}, "num_args": {"i": "1"}, "strides": {"list": {"i": ["1", "1", "1", "1"]}}, "TArgs": {"list": {"type": ["DT_FLOAT"]}}, "padding": {"s": "U0FNRQ=="}, "use_cudnn_on_gpu": {"b": true}, "leakyrelu_alpha": {"f": 0.2}, "epsilon": {"f": 0.0}, "T": {"type": "DT_FLOAT"}, "explicit_paddings": {"list": {}}, "dilations": {"list": {"i": ["1", "1", "1", "1"]}}}}, {"name": "StatefulPartitionedCall/model/tfc3/tf_conv_2/Sigmoid", "op": "Sigmoid", "input": ["StatefulPartitionedCall/model/tfc3/tf_conv_2/conv2d_2/BiasAdd"], "attr": {"T": {"type": "DT_FLOAT"}}}, {"name": "StatefulPartitionedCall/model/tfc3/tf_conv_3/Sigmoid", "op": "Sigmoid", "input": ["StatefulPartitionedCall/model/tfc3/tf_conv_3/conv2d_3/BiasAdd"], "attr": {"T": {"type": "DT_FLOAT"}}}, {"name": "StatefulPartitionedCall/model/tfc3/tf_conv_2/mul_1", "op": "Mul", "input": ["StatefulPartitionedCall/model/tfc3/tf_conv_2/conv2d_2/BiasAdd", "StatefulPartitionedCall/model/tfc3/tf_conv_2/Sigmoid"], "attr": {"T": {"type": "DT_FLOAT"}}}, {"name": "StatefulPartitionedCall/model/tfc3/tf_conv_3/mul_1", "op": "Mul", "input": ["StatefulPartitionedCall/model/tfc3/tf_conv_3/conv2d_3/BiasAdd", "StatefulPartitionedCall/model/tfc3/tf_conv_3/Sigmoid"], "attr": {"T": {"type": "DT_FLOAT"}}}, {"name": "StatefulPartitionedCall/model/tfc3/sequential_2/tf_bottleneck/tf_conv_5/conv2d_5/BiasAdd", "op": "_FusedConv2D", "input": ["StatefulPartitionedCall/model/tfc3/tf_conv_2/mul_1", "StatefulPartitionedCall/model/tfc3/sequential_2/tf_bottleneck/tf_conv_5/conv2d_5/Conv2D/ReadVariableOp", "StatefulPartitionedCall/model/tfc3/sequential_2/tf_bottleneck/tf_conv_5/conv2d_5/BiasAdd/ReadVariableOp"], "device": "/device:CPU:0", "attr": {"num_host_args": {"i": "0"}, "data_format": {"s": "TkhXQw=="}, "filter_format": {"s": "SFdJTw=="}, "fused_ops": {"list": {"s": ["Qmlhc0FkZA=="]}}, "num_args": {"i": "1"}, "strides": {"list": {"i": ["1", "1", "1", "1"]}}, "TArgs": {"list": {"type": ["DT_FLOAT"]}}, "padding": {"s": "U0FNRQ=="}, "use_cudnn_on_gpu": {"b": true}, "leakyrelu_alpha": {"f": 0.2}, "epsilon": {"f": 0.0}, "T": {"type": "DT_FLOAT"}, "explicit_paddings": {"list": {}}, "dilations": {"list": {"i": ["1", "1", "1", "1"]}}}}, {"name": "StatefulPartitionedCall/model/tfc3/sequential_2/tf_bottleneck/tf_conv_5/Sigmoid", "op": "Sigmoid", "input": ["StatefulPartitionedCall/model/tfc3/sequential_2/tf_bottleneck/tf_conv_5/conv2d_5/BiasAdd"], "attr": {"T": {"type": "DT_FLOAT"}}}, {"name": "StatefulPartitionedCall/model/tfc3/sequential_2/tf_bottleneck/tf_conv_5/mul_1", "op": "Mul", "input": ["StatefulPartitionedCall/model/tfc3/sequential_2/tf_bottleneck/tf_conv_5/conv2d_5/BiasAdd", "StatefulPartitionedCall/model/tfc3/sequential_2/tf_bottleneck/tf_conv_5/Sigmoid"], "attr": {"T": {"type": "DT_FLOAT"}}}, {"name": "StatefulPartitionedCall/model/tfc3/sequential_2/tf_bottleneck/tf_conv_6/conv2d_6/BiasAdd", "op": "_FusedConv2D", "input": ["StatefulPartitionedCall/model/tfc3/sequential_2/tf_bottleneck/tf_conv_5/mul_1", "StatefulPartitionedCall/model/tfc3/sequential_2/tf_bottleneck/tf_conv_6/conv2d_6/Conv2D/ReadVariableOp", "StatefulPartitionedCall/model/tfc3/sequential_2/tf_bottleneck/tf_conv_6/conv2d_6/BiasAdd/ReadVariableOp"], "device": "/device:CPU:0", "attr": {"num_host_args": {"i": "0"}, "data_format": {"s": "TkhXQw=="}, "filter_format": {"s": "SFdJTw=="}, "fused_ops": {"list": {"s": ["Qmlhc0FkZA=="]}}, "num_args": {"i": "1"}, "strides": {"list": {"i": ["1", "1", "1", "1"]}}, "TArgs": {"list": {"type": ["DT_FLOAT"]}}, "padding": {"s": "U0FNRQ=="}, "use_cudnn_on_gpu": {"b": true}, "leakyrelu_alpha": {"f": 0.2}, "epsilon": {"f": 0.0}, "T": {"type": "DT_FLOAT"}, "explicit_paddings": {"list": {}}, "dilations": {"list": {"i": ["1", "1", "1", "1"]}}}}, {"name": "StatefulPartitionedCall/model/tfc3/sequential_2/tf_bottleneck/tf_conv_6/Sigmoid", "op": "Sigmoid", "input": ["StatefulPartitionedCall/model/tfc3/sequential_2/tf_bottleneck/tf_conv_6/conv2d_6/BiasAdd"], "attr": {"T": {"type": "DT_FLOAT"}}}, {"name": "StatefulPartitionedCall/model/tfc3/sequential_2/tf_bottleneck/tf_conv_6/mul_1", "op": "Mul", "input": ["StatefulPartitionedCall/model/tfc3/sequential_2/tf_bottleneck/tf_conv_6/conv2d_6/BiasAdd", "StatefulPartitionedCall/model/tfc3/sequential_2/tf_bottleneck/tf_conv_6/Sigmoid"], "attr": {"T": {"type": "DT_FLOAT"}}}, {"name": "StatefulPartitionedCall/model/tfc3/sequential_2/tf_bottleneck/add", "op": "AddV2", "input": ["StatefulPartitionedCall/model/tfc3/tf_conv_2/mul_1", "StatefulPartitionedCall/model/tfc3/sequential_2/tf_bottleneck/tf_conv_6/mul_1"], "attr": {"T": {"type": "DT_FLOAT"}}}, {"name": "StatefulPartitionedCall/model/tfc3/sequential_2/tf_bottleneck_1/tf_conv_7/conv2d_7/BiasAdd", "op": "_FusedConv2D", "input": ["StatefulPartitionedCall/model/tfc3/sequential_2/tf_bottleneck/add", "StatefulPartitionedCall/model/tfc3/sequential_2/tf_bottleneck_1/tf_conv_7/conv2d_7/Conv2D/ReadVariableOp", "StatefulPartitionedCall/model/tfc3/sequential_2/tf_bottleneck_1/tf_conv_7/conv2d_7/BiasAdd/ReadVariableOp"], "device": "/device:CPU:0", "attr": {"num_host_args": {"i": "0"}, "data_format": {"s": "TkhXQw=="}, "filter_format": {"s": "SFdJTw=="}, "strides": {"list": {"i": ["1", "1", "1", "1"]}}, "num_args": {"i": "1"}, "fused_ops": {"list": {"s": ["Qmlhc0FkZA=="]}}, "TArgs": {"list": {"type": ["DT_FLOAT"]}}, "padding": {"s": "U0FNRQ=="}, "use_cudnn_on_gpu": {"b": true}, "leakyrelu_alpha": {"f": 0.2}, "epsilon": {"f": 0.0}, "T": {"type": "DT_FLOAT"}, "explicit_paddings": {"list": {}}, "dilations": {"list": {"i": ["1", "1", "1", "1"]}}}}, {"name": "StatefulPartitionedCall/model/tfc3/sequential_2/tf_bottleneck_1/tf_conv_7/Sigmoid", "op": "Sigmoid", "input": ["StatefulPartitionedCall/model/tfc3/sequential_2/tf_bottleneck_1/tf_conv_7/conv2d_7/BiasAdd"], "attr": {"T": {"type": "DT_FLOAT"}}}, {"name": "StatefulPartitionedCall/model/tfc3/sequential_2/tf_bottleneck_1/tf_conv_7/mul_1", "op": "Mul", "input": ["StatefulPartitionedCall/model/tfc3/sequential_2/tf_bottleneck_1/tf_conv_7/conv2d_7/BiasAdd", "StatefulPartitionedCall/model/tfc3/sequential_2/tf_bottleneck_1/tf_conv_7/Sigmoid"], "attr": {"T": {"type": "DT_FLOAT"}}}, {"name": "StatefulPartitionedCall/model/tfc3/sequential_2/tf_bottleneck_1/tf_conv_8/conv2d_8/BiasAdd", "op": "_FusedConv2D", "input": ["StatefulPartitionedCall/model/tfc3/sequential_2/tf_bottleneck_1/tf_conv_7/mul_1", "StatefulPartitionedCall/model/tfc3/sequential_2/tf_bottleneck_1/tf_conv_8/conv2d_8/Conv2D/ReadVariableOp", "StatefulPartitionedCall/model/tfc3/sequential_2/tf_bottleneck_1/tf_conv_8/conv2d_8/BiasAdd/ReadVariableOp"], "device": "/device:CPU:0", "attr": {"num_host_args": {"i": "0"}, "data_format": {"s": "TkhXQw=="}, "filter_format": {"s": "SFdJTw=="}, "strides": {"list": {"i": ["1", "1", "1", "1"]}}, "num_args": {"i": "1"}, "fused_ops": {"list": {"s": ["Qmlhc0FkZA=="]}}, "TArgs": {"list": {"type": ["DT_FLOAT"]}}, "padding": {"s": "U0FNRQ=="}, "use_cudnn_on_gpu": {"b": true}, "leakyrelu_alpha": {"f": 0.2}, "epsilon": {"f": 0.0}, "T": {"type": "DT_FLOAT"}, "explicit_paddings": {"list": {}}, "dilations": {"list": {"i": ["1", "1", "1", "1"]}}}}, {"name": "StatefulPartitionedCall/model/tfc3/sequential_2/tf_bottleneck_1/tf_conv_8/Sigmoid", "op": "Sigmoid", "input": ["StatefulPartitionedCall/model/tfc3/sequential_2/tf_bottleneck_1/tf_conv_8/conv2d_8/BiasAdd"], "attr": {"T": {"type": "DT_FLOAT"}}}, {"name": "StatefulPartitionedCall/model/tfc3/sequential_2/tf_bottleneck_1/tf_conv_8/mul_1", "op": "Mul", "input": ["StatefulPartitionedCall/model/tfc3/sequential_2/tf_bottleneck_1/tf_conv_8/conv2d_8/BiasAdd", "StatefulPartitionedCall/model/tfc3/sequential_2/tf_bottleneck_1/tf_conv_8/Sigmoid"], "attr": {"T": {"type": "DT_FLOAT"}}}, {"name": "StatefulPartitionedCall/model/tfc3/sequential_2/tf_bottleneck_1/add", "op": "AddV2", "input": ["StatefulPartitionedCall/model/tfc3/sequential_2/tf_bottleneck/add", "StatefulPartitionedCall/model/tfc3/sequential_2/tf_bottleneck_1/tf_conv_8/mul_1"], "attr": {"T": {"type": "DT_FLOAT"}}}, {"name": "StatefulPartitionedCall/model/tfc3/concat", "op": "ConcatV2", "input": ["StatefulPartitionedCall/model/tfc3/sequential_2/tf_bottleneck_1/add", "StatefulPartitionedCall/model/tfc3/tf_conv_3/mul_1", "StatefulPartitionedCall/model/tfc3/concat/axis"], "attr": {"N": {"i": "2"}, "Tidx": {"type": "DT_INT32"}, "T": {"type": "DT_FLOAT"}}}, {"name": "StatefulPartitionedCall/model/tfc3/tf_conv_4/conv2d_4/BiasAdd", "op": "_FusedConv2D", "input": ["StatefulPartitionedCall/model/tfc3/concat", "StatefulPartitionedCall/model/tfc3/tf_conv_4/conv2d_4/Conv2D/ReadVariableOp", "StatefulPartitionedCall/model/tfc3/tf_conv_4/conv2d_4/BiasAdd/ReadVariableOp"], "device": "/device:CPU:0", "attr": {"num_host_args": {"i": "0"}, "data_format": {"s": "TkhXQw=="}, "filter_format": {"s": "SFdJTw=="}, "fused_ops": {"list": {"s": ["Qmlhc0FkZA=="]}}, "num_args": {"i": "1"}, "strides": {"list": {"i": ["1", "1", "1", "1"]}}, "TArgs": {"list": {"type": ["DT_FLOAT"]}}, "padding": {"s": "U0FNRQ=="}, "use_cudnn_on_gpu": {"b": true}, "leakyrelu_alpha": {"f": 0.2}, "epsilon": {"f": 0.0}, "T": {"type": "DT_FLOAT"}, "explicit_paddings": {"list": {}}, "dilations": {"list": {"i": ["1", "1", "1", "1"]}}}}, {"name": "StatefulPartitionedCall/model/tfc3/tf_conv_4/Sigmoid", "op": "Sigmoid", "input": ["StatefulPartitionedCall/model/tfc3/tf_conv_4/conv2d_4/BiasAdd"], "attr": {"T": {"type": "DT_FLOAT"}}}, {"name": "StatefulPartitionedCall/model/tfc3/tf_conv_4/mul_1", "op": "Mul", "input": ["StatefulPartitionedCall/model/tfc3/tf_conv_4/conv2d_4/BiasAdd", "StatefulPartitionedCall/model/tfc3/tf_conv_4/Sigmoid"], "attr": {"T": {"type": "DT_FLOAT"}}}, {"name": "StatefulPartitionedCall/model/tf_conv_9/sequential_3/tf_pad_2/Pad", "op": "Pad", "input": ["StatefulPartitionedCall/model/tfc3/tf_conv_4/mul_1", "unknown_19"], "attr": {"Tpaddings": {"type": "DT_INT32"}, "T": {"type": "DT_FLOAT"}}}, {"name": "StatefulPartitionedCall/model/tf_conv_9/sequential_3/conv2d_9/BiasAdd", "op": "_FusedConv2D", "input": ["StatefulPartitionedCall/model/tf_conv_9/sequential_3/tf_pad_2/Pad", "StatefulPartitionedCall/model/tf_conv_9/sequential_3/conv2d_9/Conv2D/ReadVariableOp", "StatefulPartitionedCall/model/tf_conv_9/sequential_3/conv2d_9/BiasAdd/ReadVariableOp"], "device": "/device:CPU:0", "attr": {"num_host_args": {"i": "0"}, "data_format": {"s": "TkhXQw=="}, "filter_format": {"s": "SFdJTw=="}, "fused_ops": {"list": {"s": ["Qmlhc0FkZA=="]}}, "num_args": {"i": "1"}, "strides": {"list": {"i": ["1", "2", "2", "1"]}}, "TArgs": {"list": {"type": ["DT_FLOAT"]}}, "padding": {"s": "VkFMSUQ="}, "use_cudnn_on_gpu": {"b": true}, "leakyrelu_alpha": {"f": 0.2}, "epsilon": {"f": 0.0}, "T": {"type": "DT_FLOAT"}, "explicit_paddings": {"list": {}}, "dilations": {"list": {"i": ["1", "1", "1", "1"]}}}}, {"name": "StatefulPartitionedCall/model/tf_conv_9/Sigmoid", "op": "Sigmoid", "input": ["StatefulPartitionedCall/model/tf_conv_9/sequential_3/conv2d_9/BiasAdd"], "attr": {"T": {"type": "DT_FLOAT"}}}, {"name": "StatefulPartitionedCall/model/tf_conv_9/mul_1", "op": "Mul", "input": ["StatefulPartitionedCall/model/tf_conv_9/sequential_3/conv2d_9/BiasAdd", "StatefulPartitionedCall/model/tf_conv_9/Sigmoid"], "attr": {"T": {"type": "DT_FLOAT"}}}, {"name": "StatefulPartitionedCall/model/tfc3_1/tf_conv_10/conv2d_10/BiasAdd", "op": "_FusedConv2D", "input": ["StatefulPartitionedCall/model/tf_conv_9/mul_1", "StatefulPartitionedCall/model/tfc3_1/tf_conv_10/conv2d_10/Conv2D/ReadVariableOp", "StatefulPartitionedCall/model/tfc3_1/tf_conv_10/conv2d_10/BiasAdd/ReadVariableOp"], "device": "/device:CPU:0", "attr": {"num_host_args": {"i": "0"}, "data_format": {"s": "TkhXQw=="}, "filter_format": {"s": "SFdJTw=="}, "fused_ops": {"list": {"s": ["Qmlhc0FkZA=="]}}, "num_args": {"i": "1"}, "strides": {"list": {"i": ["1", "1", "1", "1"]}}, "TArgs": {"list": {"type": ["DT_FLOAT"]}}, "padding": {"s": "U0FNRQ=="}, "use_cudnn_on_gpu": {"b": true}, "leakyrelu_alpha": {"f": 0.2}, "epsilon": {"f": 0.0}, "T": {"type": "DT_FLOAT"}, "explicit_paddings": {"list": {}}, "dilations": {"list": {"i": ["1", "1", "1", "1"]}}}}, {"name": "StatefulPartitionedCall/model/tfc3_1/tf_conv_11/conv2d_11/BiasAdd", "op": "_FusedConv2D", "input": ["StatefulPartitionedCall/model/tf_conv_9/mul_1", "StatefulPartitionedCall/model/tfc3_1/tf_conv_11/conv2d_11/Conv2D/ReadVariableOp", "StatefulPartitionedCall/model/tfc3_1/tf_conv_11/conv2d_11/BiasAdd/ReadVariableOp"], "device": "/device:CPU:0", "attr": {"num_host_args": {"i": "0"}, "data_format": {"s": "TkhXQw=="}, "filter_format": {"s": "SFdJTw=="}, "fused_ops": {"list": {"s": ["Qmlhc0FkZA=="]}}, "num_args": {"i": "1"}, "strides": {"list": {"i": ["1", "1", "1", "1"]}}, "TArgs": {"list": {"type": ["DT_FLOAT"]}}, "padding": {"s": "U0FNRQ=="}, "use_cudnn_on_gpu": {"b": true}, "leakyrelu_alpha": {"f": 0.2}, "epsilon": {"f": 0.0}, "T": {"type": "DT_FLOAT"}, "explicit_paddings": {"list": {}}, "dilations": {"list": {"i": ["1", "1", "1", "1"]}}}}, {"name": "StatefulPartitionedCall/model/tfc3_1/tf_conv_10/Sigmoid", "op": "Sigmoid", "input": ["StatefulPartitionedCall/model/tfc3_1/tf_conv_10/conv2d_10/BiasAdd"], "attr": {"T": {"type": "DT_FLOAT"}}}, {"name": "StatefulPartitionedCall/model/tfc3_1/tf_conv_11/Sigmoid", "op": "Sigmoid", "input": ["StatefulPartitionedCall/model/tfc3_1/tf_conv_11/conv2d_11/BiasAdd"], "attr": {"T": {"type": "DT_FLOAT"}}}, {"name": "StatefulPartitionedCall/model/tfc3_1/tf_conv_10/mul_1", "op": "Mul", "input": ["StatefulPartitionedCall/model/tfc3_1/tf_conv_10/conv2d_10/BiasAdd", "StatefulPartitionedCall/model/tfc3_1/tf_conv_10/Sigmoid"], "attr": {"T": {"type": "DT_FLOAT"}}}, {"name": "StatefulPartitionedCall/model/tfc3_1/tf_conv_11/mul_1", "op": "Mul", "input": ["StatefulPartitionedCall/model/tfc3_1/tf_conv_11/conv2d_11/BiasAdd", "StatefulPartitionedCall/model/tfc3_1/tf_conv_11/Sigmoid"], "attr": {"T": {"type": "DT_FLOAT"}}}, {"name": "StatefulPartitionedCall/model/tfc3_1/sequential_4/tf_bottleneck_2/tf_conv_13/conv2d_13/BiasAdd", "op": "_FusedConv2D", "input": ["StatefulPartitionedCall/model/tfc3_1/tf_conv_10/mul_1", "StatefulPartitionedCall/model/tfc3_1/sequential_4/tf_bottleneck_2/tf_conv_13/conv2d_13/Conv2D/ReadVariableOp", "StatefulPartitionedCall/model/tfc3_1/sequential_4/tf_bottleneck_2/tf_conv_13/conv2d_13/BiasAdd/ReadVariableOp"], "device": "/device:CPU:0", "attr": {"num_host_args": {"i": "0"}, "data_format": {"s": "TkhXQw=="}, "filter_format": {"s": "SFdJTw=="}, "fused_ops": {"list": {"s": ["Qmlhc0FkZA=="]}}, "num_args": {"i": "1"}, "strides": {"list": {"i": ["1", "1", "1", "1"]}}, "TArgs": {"list": {"type": ["DT_FLOAT"]}}, "padding": {"s": "U0FNRQ=="}, "use_cudnn_on_gpu": {"b": true}, "leakyrelu_alpha": {"f": 0.2}, "epsilon": {"f": 0.0}, "T": {"type": "DT_FLOAT"}, "explicit_paddings": {"list": {}}, "dilations": {"list": {"i": ["1", "1", "1", "1"]}}}}, {"name": "StatefulPartitionedCall/model/tfc3_1/sequential_4/tf_bottleneck_2/tf_conv_13/Sigmoid", "op": "Sigmoid", "input": ["StatefulPartitionedCall/model/tfc3_1/sequential_4/tf_bottleneck_2/tf_conv_13/conv2d_13/BiasAdd"], "attr": {"T": {"type": "DT_FLOAT"}}}, {"name": "StatefulPartitionedCall/model/tfc3_1/sequential_4/tf_bottleneck_2/tf_conv_13/mul_1", "op": "Mul", "input": ["StatefulPartitionedCall/model/tfc3_1/sequential_4/tf_bottleneck_2/tf_conv_13/conv2d_13/BiasAdd", "StatefulPartitionedCall/model/tfc3_1/sequential_4/tf_bottleneck_2/tf_conv_13/Sigmoid"], "attr": {"T": {"type": "DT_FLOAT"}}}, {"name": "StatefulPartitionedCall/model/tfc3_1/sequential_4/tf_bottleneck_2/tf_conv_14/conv2d_14/BiasAdd", "op": "_FusedConv2D", "input": ["StatefulPartitionedCall/model/tfc3_1/sequential_4/tf_bottleneck_2/tf_conv_13/mul_1", "StatefulPartitionedCall/model/tfc3_1/sequential_4/tf_bottleneck_2/tf_conv_14/conv2d_14/Conv2D/ReadVariableOp", "StatefulPartitionedCall/model/tfc3_1/sequential_4/tf_bottleneck_2/tf_conv_14/conv2d_14/BiasAdd/ReadVariableOp"], "device": "/device:CPU:0", "attr": {"num_host_args": {"i": "0"}, "data_format": {"s": "TkhXQw=="}, "filter_format": {"s": "SFdJTw=="}, "fused_ops": {"list": {"s": ["Qmlhc0FkZA=="]}}, "num_args": {"i": "1"}, "strides": {"list": {"i": ["1", "1", "1", "1"]}}, "TArgs": {"list": {"type": ["DT_FLOAT"]}}, "padding": {"s": "U0FNRQ=="}, "use_cudnn_on_gpu": {"b": true}, "leakyrelu_alpha": {"f": 0.2}, "epsilon": {"f": 0.0}, "T": {"type": "DT_FLOAT"}, "explicit_paddings": {"list": {}}, "dilations": {"list": {"i": ["1", "1", "1", "1"]}}}}, {"name": "StatefulPartitionedCall/model/tfc3_1/sequential_4/tf_bottleneck_2/tf_conv_14/Sigmoid", "op": "Sigmoid", "input": ["StatefulPartitionedCall/model/tfc3_1/sequential_4/tf_bottleneck_2/tf_conv_14/conv2d_14/BiasAdd"], "attr": {"T": {"type": "DT_FLOAT"}}}, {"name": "StatefulPartitionedCall/model/tfc3_1/sequential_4/tf_bottleneck_2/tf_conv_14/mul_1", "op": "Mul", "input": ["StatefulPartitionedCall/model/tfc3_1/sequential_4/tf_bottleneck_2/tf_conv_14/conv2d_14/BiasAdd", "StatefulPartitionedCall/model/tfc3_1/sequential_4/tf_bottleneck_2/tf_conv_14/Sigmoid"], "attr": {"T": {"type": "DT_FLOAT"}}}, {"name": "StatefulPartitionedCall/model/tfc3_1/sequential_4/tf_bottleneck_2/add", "op": "AddV2", "input": ["StatefulPartitionedCall/model/tfc3_1/tf_conv_10/mul_1", "StatefulPartitionedCall/model/tfc3_1/sequential_4/tf_bottleneck_2/tf_conv_14/mul_1"], "attr": {"T": {"type": "DT_FLOAT"}}}, {"name": "StatefulPartitionedCall/model/tfc3_1/sequential_4/tf_bottleneck_3/tf_conv_15/conv2d_15/BiasAdd", "op": "_FusedConv2D", "input": ["StatefulPartitionedCall/model/tfc3_1/sequential_4/tf_bottleneck_2/add", "StatefulPartitionedCall/model/tfc3_1/sequential_4/tf_bottleneck_3/tf_conv_15/conv2d_15/Conv2D/ReadVariableOp", "StatefulPartitionedCall/model/tfc3_1/sequential_4/tf_bottleneck_3/tf_conv_15/conv2d_15/BiasAdd/ReadVariableOp"], "device": "/device:CPU:0", "attr": {"num_host_args": {"i": "0"}, "data_format": {"s": "TkhXQw=="}, "filter_format": {"s": "SFdJTw=="}, "strides": {"list": {"i": ["1", "1", "1", "1"]}}, "num_args": {"i": "1"}, "fused_ops": {"list": {"s": ["Qmlhc0FkZA=="]}}, "TArgs": {"list": {"type": ["DT_FLOAT"]}}, "padding": {"s": "U0FNRQ=="}, "use_cudnn_on_gpu": {"b": true}, "leakyrelu_alpha": {"f": 0.2}, "epsilon": {"f": 0.0}, "T": {"type": "DT_FLOAT"}, "explicit_paddings": {"list": {}}, "dilations": {"list": {"i": ["1", "1", "1", "1"]}}}}, {"name": "StatefulPartitionedCall/model/tfc3_1/sequential_4/tf_bottleneck_3/tf_conv_15/Sigmoid", "op": "Sigmoid", "input": ["StatefulPartitionedCall/model/tfc3_1/sequential_4/tf_bottleneck_3/tf_conv_15/conv2d_15/BiasAdd"], "attr": {"T": {"type": "DT_FLOAT"}}}, {"name": "StatefulPartitionedCall/model/tfc3_1/sequential_4/tf_bottleneck_3/tf_conv_15/mul_1", "op": "Mul", "input": ["StatefulPartitionedCall/model/tfc3_1/sequential_4/tf_bottleneck_3/tf_conv_15/conv2d_15/BiasAdd", "StatefulPartitionedCall/model/tfc3_1/sequential_4/tf_bottleneck_3/tf_conv_15/Sigmoid"], "attr": {"T": {"type": "DT_FLOAT"}}}, {"name": "StatefulPartitionedCall/model/tfc3_1/sequential_4/tf_bottleneck_3/tf_conv_16/conv2d_16/BiasAdd", "op": "_FusedConv2D", "input": ["StatefulPartitionedCall/model/tfc3_1/sequential_4/tf_bottleneck_3/tf_conv_15/mul_1", "StatefulPartitionedCall/model/tfc3_1/sequential_4/tf_bottleneck_3/tf_conv_16/conv2d_16/Conv2D/ReadVariableOp", "StatefulPartitionedCall/model/tfc3_1/sequential_4/tf_bottleneck_3/tf_conv_16/conv2d_16/BiasAdd/ReadVariableOp"], "device": "/device:CPU:0", "attr": {"num_host_args": {"i": "0"}, "data_format": {"s": "TkhXQw=="}, "filter_format": {"s": "SFdJTw=="}, "strides": {"list": {"i": ["1", "1", "1", "1"]}}, "num_args": {"i": "1"}, "fused_ops": {"list": {"s": ["Qmlhc0FkZA=="]}}, "TArgs": {"list": {"type": ["DT_FLOAT"]}}, "padding": {"s": "U0FNRQ=="}, "use_cudnn_on_gpu": {"b": true}, "leakyrelu_alpha": {"f": 0.2}, "epsilon": {"f": 0.0}, "T": {"type": "DT_FLOAT"}, "explicit_paddings": {"list": {}}, "dilations": {"list": {"i": ["1", "1", "1", "1"]}}}}, {"name": "StatefulPartitionedCall/model/tfc3_1/sequential_4/tf_bottleneck_3/tf_conv_16/Sigmoid", "op": "Sigmoid", "input": ["StatefulPartitionedCall/model/tfc3_1/sequential_4/tf_bottleneck_3/tf_conv_16/conv2d_16/BiasAdd"], "attr": {"T": {"type": "DT_FLOAT"}}}, {"name": "StatefulPartitionedCall/model/tfc3_1/sequential_4/tf_bottleneck_3/tf_conv_16/mul_1", "op": "Mul", "input": ["StatefulPartitionedCall/model/tfc3_1/sequential_4/tf_bottleneck_3/tf_conv_16/conv2d_16/BiasAdd", "StatefulPartitionedCall/model/tfc3_1/sequential_4/tf_bottleneck_3/tf_conv_16/Sigmoid"], "attr": {"T": {"type": "DT_FLOAT"}}}, {"name": "StatefulPartitionedCall/model/tfc3_1/sequential_4/tf_bottleneck_3/add", "op": "AddV2", "input": ["StatefulPartitionedCall/model/tfc3_1/sequential_4/tf_bottleneck_2/add", "StatefulPartitionedCall/model/tfc3_1/sequential_4/tf_bottleneck_3/tf_conv_16/mul_1"], "attr": {"T": {"type": "DT_FLOAT"}}}, {"name": "StatefulPartitionedCall/model/tfc3_1/sequential_4/tf_bottleneck_4/tf_conv_17/conv2d_17/BiasAdd", "op": "_FusedConv2D", "input": ["StatefulPartitionedCall/model/tfc3_1/sequential_4/tf_bottleneck_3/add", "StatefulPartitionedCall/model/tfc3_1/sequential_4/tf_bottleneck_4/tf_conv_17/conv2d_17/Conv2D/ReadVariableOp", "StatefulPartitionedCall/model/tfc3_1/sequential_4/tf_bottleneck_4/tf_conv_17/conv2d_17/BiasAdd/ReadVariableOp"], "device": "/device:CPU:0", "attr": {"num_host_args": {"i": "0"}, "data_format": {"s": "TkhXQw=="}, "filter_format": {"s": "SFdJTw=="}, "fused_ops": {"list": {"s": ["Qmlhc0FkZA=="]}}, "num_args": {"i": "1"}, "strides": {"list": {"i": ["1", "1", "1", "1"]}}, "TArgs": {"list": {"type": ["DT_FLOAT"]}}, "padding": {"s": "U0FNRQ=="}, "use_cudnn_on_gpu": {"b": true}, "leakyrelu_alpha": {"f": 0.2}, "epsilon": {"f": 0.0}, "T": {"type": "DT_FLOAT"}, "explicit_paddings": {"list": {}}, "dilations": {"list": {"i": ["1", "1", "1", "1"]}}}}, {"name": "StatefulPartitionedCall/model/tfc3_1/sequential_4/tf_bottleneck_4/tf_conv_17/Sigmoid", "op": "Sigmoid", "input": ["StatefulPartitionedCall/model/tfc3_1/sequential_4/tf_bottleneck_4/tf_conv_17/conv2d_17/BiasAdd"], "attr": {"T": {"type": "DT_FLOAT"}}}, {"name": "StatefulPartitionedCall/model/tfc3_1/sequential_4/tf_bottleneck_4/tf_conv_17/mul_1", "op": "Mul", "input": ["StatefulPartitionedCall/model/tfc3_1/sequential_4/tf_bottleneck_4/tf_conv_17/conv2d_17/BiasAdd", "StatefulPartitionedCall/model/tfc3_1/sequential_4/tf_bottleneck_4/tf_conv_17/Sigmoid"], "attr": {"T": {"type": "DT_FLOAT"}}}, {"name": "StatefulPartitionedCall/model/tfc3_1/sequential_4/tf_bottleneck_4/tf_conv_18/conv2d_18/BiasAdd", "op": "_FusedConv2D", "input": ["StatefulPartitionedCall/model/tfc3_1/sequential_4/tf_bottleneck_4/tf_conv_17/mul_1", "StatefulPartitionedCall/model/tfc3_1/sequential_4/tf_bottleneck_4/tf_conv_18/conv2d_18/Conv2D/ReadVariableOp", "StatefulPartitionedCall/model/tfc3_1/sequential_4/tf_bottleneck_4/tf_conv_18/conv2d_18/BiasAdd/ReadVariableOp"], "device": "/device:CPU:0", "attr": {"num_host_args": {"i": "0"}, "data_format": {"s": "TkhXQw=="}, "filter_format": {"s": "SFdJTw=="}, "strides": {"list": {"i": ["1", "1", "1", "1"]}}, "num_args": {"i": "1"}, "fused_ops": {"list": {"s": ["Qmlhc0FkZA=="]}}, "TArgs": {"list": {"type": ["DT_FLOAT"]}}, "padding": {"s": "U0FNRQ=="}, "use_cudnn_on_gpu": {"b": true}, "leakyrelu_alpha": {"f": 0.2}, "epsilon": {"f": 0.0}, "T": {"type": "DT_FLOAT"}, "explicit_paddings": {"list": {}}, "dilations": {"list": {"i": ["1", "1", "1", "1"]}}}}, {"name": "StatefulPartitionedCall/model/tfc3_1/sequential_4/tf_bottleneck_4/tf_conv_18/Sigmoid", "op": "Sigmoid", "input": ["StatefulPartitionedCall/model/tfc3_1/sequential_4/tf_bottleneck_4/tf_conv_18/conv2d_18/BiasAdd"], "attr": {"T": {"type": "DT_FLOAT"}}}, {"name": "StatefulPartitionedCall/model/tfc3_1/sequential_4/tf_bottleneck_4/tf_conv_18/mul_1", "op": "Mul", "input": ["StatefulPartitionedCall/model/tfc3_1/sequential_4/tf_bottleneck_4/tf_conv_18/conv2d_18/BiasAdd", "StatefulPartitionedCall/model/tfc3_1/sequential_4/tf_bottleneck_4/tf_conv_18/Sigmoid"], "attr": {"T": {"type": "DT_FLOAT"}}}, {"name": "StatefulPartitionedCall/model/tfc3_1/sequential_4/tf_bottleneck_4/add", "op": "AddV2", "input": ["StatefulPartitionedCall/model/tfc3_1/sequential_4/tf_bottleneck_3/add", "StatefulPartitionedCall/model/tfc3_1/sequential_4/tf_bottleneck_4/tf_conv_18/mul_1"], "attr": {"T": {"type": "DT_FLOAT"}}}, {"name": "StatefulPartitionedCall/model/tfc3_1/sequential_4/tf_bottleneck_5/tf_conv_19/conv2d_19/BiasAdd", "op": "_FusedConv2D", "input": ["StatefulPartitionedCall/model/tfc3_1/sequential_4/tf_bottleneck_4/add", "StatefulPartitionedCall/model/tfc3_1/sequential_4/tf_bottleneck_5/tf_conv_19/conv2d_19/Conv2D/ReadVariableOp", "StatefulPartitionedCall/model/tfc3_1/sequential_4/tf_bottleneck_5/tf_conv_19/conv2d_19/BiasAdd/ReadVariableOp"], "device": "/device:CPU:0", "attr": {"num_host_args": {"i": "0"}, "data_format": {"s": "TkhXQw=="}, "filter_format": {"s": "SFdJTw=="}, "strides": {"list": {"i": ["1", "1", "1", "1"]}}, "num_args": {"i": "1"}, "fused_ops": {"list": {"s": ["Qmlhc0FkZA=="]}}, "TArgs": {"list": {"type": ["DT_FLOAT"]}}, "padding": {"s": "U0FNRQ=="}, "use_cudnn_on_gpu": {"b": true}, "leakyrelu_alpha": {"f": 0.2}, "epsilon": {"f": 0.0}, "T": {"type": "DT_FLOAT"}, "explicit_paddings": {"list": {}}, "dilations": {"list": {"i": ["1", "1", "1", "1"]}}}}, {"name": "StatefulPartitionedCall/model/tfc3_1/sequential_4/tf_bottleneck_5/tf_conv_19/Sigmoid", "op": "Sigmoid", "input": ["StatefulPartitionedCall/model/tfc3_1/sequential_4/tf_bottleneck_5/tf_conv_19/conv2d_19/BiasAdd"], "attr": {"T": {"type": "DT_FLOAT"}}}, {"name": "StatefulPartitionedCall/model/tfc3_1/sequential_4/tf_bottleneck_5/tf_conv_19/mul_1", "op": "Mul", "input": ["StatefulPartitionedCall/model/tfc3_1/sequential_4/tf_bottleneck_5/tf_conv_19/conv2d_19/BiasAdd", "StatefulPartitionedCall/model/tfc3_1/sequential_4/tf_bottleneck_5/tf_conv_19/Sigmoid"], "attr": {"T": {"type": "DT_FLOAT"}}}, {"name": "StatefulPartitionedCall/model/tfc3_1/sequential_4/tf_bottleneck_5/tf_conv_20/conv2d_20/BiasAdd", "op": "_FusedConv2D", "input": ["StatefulPartitionedCall/model/tfc3_1/sequential_4/tf_bottleneck_5/tf_conv_19/mul_1", "StatefulPartitionedCall/model/tfc3_1/sequential_4/tf_bottleneck_5/tf_conv_20/conv2d_20/Conv2D/ReadVariableOp", "StatefulPartitionedCall/model/tfc3_1/sequential_4/tf_bottleneck_5/tf_conv_20/conv2d_20/BiasAdd/ReadVariableOp"], "device": "/device:CPU:0", "attr": {"num_host_args": {"i": "0"}, "data_format": {"s": "TkhXQw=="}, "filter_format": {"s": "SFdJTw=="}, "strides": {"list": {"i": ["1", "1", "1", "1"]}}, "num_args": {"i": "1"}, "fused_ops": {"list": {"s": ["Qmlhc0FkZA=="]}}, "TArgs": {"list": {"type": ["DT_FLOAT"]}}, "padding": {"s": "U0FNRQ=="}, "use_cudnn_on_gpu": {"b": true}, "leakyrelu_alpha": {"f": 0.2}, "epsilon": {"f": 0.0}, "T": {"type": "DT_FLOAT"}, "explicit_paddings": {"list": {}}, "dilations": {"list": {"i": ["1", "1", "1", "1"]}}}}, {"name": "StatefulPartitionedCall/model/tfc3_1/sequential_4/tf_bottleneck_5/tf_conv_20/Sigmoid", "op": "Sigmoid", "input": ["StatefulPartitionedCall/model/tfc3_1/sequential_4/tf_bottleneck_5/tf_conv_20/conv2d_20/BiasAdd"], "attr": {"T": {"type": "DT_FLOAT"}}}, {"name": "StatefulPartitionedCall/model/tfc3_1/sequential_4/tf_bottleneck_5/tf_conv_20/mul_1", "op": "Mul", "input": ["StatefulPartitionedCall/model/tfc3_1/sequential_4/tf_bottleneck_5/tf_conv_20/conv2d_20/BiasAdd", "StatefulPartitionedCall/model/tfc3_1/sequential_4/tf_bottleneck_5/tf_conv_20/Sigmoid"], "attr": {"T": {"type": "DT_FLOAT"}}}, {"name": "StatefulPartitionedCall/model/tfc3_1/sequential_4/tf_bottleneck_5/add", "op": "AddV2", "input": ["StatefulPartitionedCall/model/tfc3_1/sequential_4/tf_bottleneck_4/add", "StatefulPartitionedCall/model/tfc3_1/sequential_4/tf_bottleneck_5/tf_conv_20/mul_1"], "attr": {"T": {"type": "DT_FLOAT"}}}, {"name": "StatefulPartitionedCall/model/tfc3_1/concat", "op": "ConcatV2", "input": ["StatefulPartitionedCall/model/tfc3_1/sequential_4/tf_bottleneck_5/add", "StatefulPartitionedCall/model/tfc3_1/tf_conv_11/mul_1", "StatefulPartitionedCall/model/tfc3_1/concat/axis"], "attr": {"N": {"i": "2"}, "T": {"type": "DT_FLOAT"}, "Tidx": {"type": "DT_INT32"}}}, {"name": "StatefulPartitionedCall/model/tfc3_1/tf_conv_12/conv2d_12/BiasAdd", "op": "_FusedConv2D", "input": ["StatefulPartitionedCall/model/tfc3_1/concat", "StatefulPartitionedCall/model/tfc3_1/tf_conv_12/conv2d_12/Conv2D/ReadVariableOp", "StatefulPartitionedCall/model/tfc3_1/tf_conv_12/conv2d_12/BiasAdd/ReadVariableOp"], "device": "/device:CPU:0", "attr": {"num_host_args": {"i": "0"}, "data_format": {"s": "TkhXQw=="}, "filter_format": {"s": "SFdJTw=="}, "fused_ops": {"list": {"s": ["Qmlhc0FkZA=="]}}, "num_args": {"i": "1"}, "strides": {"list": {"i": ["1", "1", "1", "1"]}}, "TArgs": {"list": {"type": ["DT_FLOAT"]}}, "padding": {"s": "U0FNRQ=="}, "use_cudnn_on_gpu": {"b": true}, "leakyrelu_alpha": {"f": 0.2}, "epsilon": {"f": 0.0}, "T": {"type": "DT_FLOAT"}, "explicit_paddings": {"list": {}}, "dilations": {"list": {"i": ["1", "1", "1", "1"]}}}}, {"name": "StatefulPartitionedCall/model/tfc3_1/tf_conv_12/Sigmoid", "op": "Sigmoid", "input": ["StatefulPartitionedCall/model/tfc3_1/tf_conv_12/conv2d_12/BiasAdd"], "attr": {"T": {"type": "DT_FLOAT"}}}, {"name": "StatefulPartitionedCall/model/tfc3_1/tf_conv_12/mul_1", "op": "Mul", "input": ["StatefulPartitionedCall/model/tfc3_1/tf_conv_12/conv2d_12/BiasAdd", "StatefulPartitionedCall/model/tfc3_1/tf_conv_12/Sigmoid"], "attr": {"T": {"type": "DT_FLOAT"}}}, {"name": "StatefulPartitionedCall/model/tf_conv_21/sequential_5/tf_pad_3/Pad", "op": "Pad", "input": ["StatefulPartitionedCall/model/tfc3_1/tf_conv_12/mul_1", "unknown_44"], "attr": {"Tpaddings": {"type": "DT_INT32"}, "T": {"type": "DT_FLOAT"}}}, {"name": "StatefulPartitionedCall/model/tf_conv_21/sequential_5/conv2d_21/BiasAdd", "op": "_FusedConv2D", "input": ["StatefulPartitionedCall/model/tf_conv_21/sequential_5/tf_pad_3/Pad", "StatefulPartitionedCall/model/tf_conv_21/sequential_5/conv2d_21/Conv2D/ReadVariableOp", "StatefulPartitionedCall/model/tf_conv_21/sequential_5/conv2d_21/BiasAdd/ReadVariableOp"], "device": "/device:CPU:0", "attr": {"num_host_args": {"i": "0"}, "data_format": {"s": "TkhXQw=="}, "filter_format": {"s": "SFdJTw=="}, "strides": {"list": {"i": ["1", "2", "2", "1"]}}, "num_args": {"i": "1"}, "fused_ops": {"list": {"s": ["Qmlhc0FkZA=="]}}, "TArgs": {"list": {"type": ["DT_FLOAT"]}}, "padding": {"s": "VkFMSUQ="}, "use_cudnn_on_gpu": {"b": true}, "leakyrelu_alpha": {"f": 0.2}, "epsilon": {"f": 0.0}, "T": {"type": "DT_FLOAT"}, "explicit_paddings": {"list": {}}, "dilations": {"list": {"i": ["1", "1", "1", "1"]}}}}, {"name": "StatefulPartitionedCall/model/tf_conv_21/Sigmoid", "op": "Sigmoid", "input": ["StatefulPartitionedCall/model/tf_conv_21/sequential_5/conv2d_21/BiasAdd"], "attr": {"T": {"type": "DT_FLOAT"}}}, {"name": "StatefulPartitionedCall/model/tf_conv_21/mul_1", "op": "Mul", "input": ["StatefulPartitionedCall/model/tf_conv_21/sequential_5/conv2d_21/BiasAdd", "StatefulPartitionedCall/model/tf_conv_21/Sigmoid"], "attr": {"T": {"type": "DT_FLOAT"}}}, {"name": "StatefulPartitionedCall/model/tfc3_2/tf_conv_22/conv2d_22/BiasAdd", "op": "_FusedConv2D", "input": ["StatefulPartitionedCall/model/tf_conv_21/mul_1", "StatefulPartitionedCall/model/tfc3_2/tf_conv_22/conv2d_22/Conv2D/ReadVariableOp", "StatefulPartitionedCall/model/tfc3_2/tf_conv_22/conv2d_22/BiasAdd/ReadVariableOp"], "device": "/device:CPU:0", "attr": {"num_host_args": {"i": "0"}, "data_format": {"s": "TkhXQw=="}, "filter_format": {"s": "SFdJTw=="}, "strides": {"list": {"i": ["1", "1", "1", "1"]}}, "num_args": {"i": "1"}, "fused_ops": {"list": {"s": ["Qmlhc0FkZA=="]}}, "TArgs": {"list": {"type": ["DT_FLOAT"]}}, "padding": {"s": "U0FNRQ=="}, "use_cudnn_on_gpu": {"b": true}, "leakyrelu_alpha": {"f": 0.2}, "epsilon": {"f": 0.0}, "T": {"type": "DT_FLOAT"}, "explicit_paddings": {"list": {}}, "dilations": {"list": {"i": ["1", "1", "1", "1"]}}}}, {"name": "StatefulPartitionedCall/model/tfc3_2/tf_conv_23/conv2d_23/BiasAdd", "op": "_FusedConv2D", "input": ["StatefulPartitionedCall/model/tf_conv_21/mul_1", "StatefulPartitionedCall/model/tfc3_2/tf_conv_23/conv2d_23/Conv2D/ReadVariableOp", "StatefulPartitionedCall/model/tfc3_2/tf_conv_23/conv2d_23/BiasAdd/ReadVariableOp"], "device": "/device:CPU:0", "attr": {"num_host_args": {"i": "0"}, "data_format": {"s": "TkhXQw=="}, "filter_format": {"s": "SFdJTw=="}, "fused_ops": {"list": {"s": ["Qmlhc0FkZA=="]}}, "num_args": {"i": "1"}, "strides": {"list": {"i": ["1", "1", "1", "1"]}}, "TArgs": {"list": {"type": ["DT_FLOAT"]}}, "padding": {"s": "U0FNRQ=="}, "use_cudnn_on_gpu": {"b": true}, "leakyrelu_alpha": {"f": 0.2}, "epsilon": {"f": 0.0}, "T": {"type": "DT_FLOAT"}, "explicit_paddings": {"list": {}}, "dilations": {"list": {"i": ["1", "1", "1", "1"]}}}}, {"name": "StatefulPartitionedCall/model/tfc3_2/tf_conv_22/Sigmoid", "op": "Sigmoid", "input": ["StatefulPartitionedCall/model/tfc3_2/tf_conv_22/conv2d_22/BiasAdd"], "attr": {"T": {"type": "DT_FLOAT"}}}, {"name": "StatefulPartitionedCall/model/tfc3_2/tf_conv_23/Sigmoid", "op": "Sigmoid", "input": ["StatefulPartitionedCall/model/tfc3_2/tf_conv_23/conv2d_23/BiasAdd"], "attr": {"T": {"type": "DT_FLOAT"}}}, {"name": "StatefulPartitionedCall/model/tfc3_2/tf_conv_22/mul_1", "op": "Mul", "input": ["StatefulPartitionedCall/model/tfc3_2/tf_conv_22/conv2d_22/BiasAdd", "StatefulPartitionedCall/model/tfc3_2/tf_conv_22/Sigmoid"], "attr": {"T": {"type": "DT_FLOAT"}}}, {"name": "StatefulPartitionedCall/model/tfc3_2/tf_conv_23/mul_1", "op": "Mul", "input": ["StatefulPartitionedCall/model/tfc3_2/tf_conv_23/conv2d_23/BiasAdd", "StatefulPartitionedCall/model/tfc3_2/tf_conv_23/Sigmoid"], "attr": {"T": {"type": "DT_FLOAT"}}}, {"name": "StatefulPartitionedCall/model/tfc3_2/sequential_6/tf_bottleneck_6/tf_conv_25/conv2d_25/BiasAdd", "op": "_FusedConv2D", "input": ["StatefulPartitionedCall/model/tfc3_2/tf_conv_22/mul_1", "StatefulPartitionedCall/model/tfc3_2/sequential_6/tf_bottleneck_6/tf_conv_25/conv2d_25/Conv2D/ReadVariableOp", "StatefulPartitionedCall/model/tfc3_2/sequential_6/tf_bottleneck_6/tf_conv_25/conv2d_25/BiasAdd/ReadVariableOp"], "device": "/device:CPU:0", "attr": {"num_host_args": {"i": "0"}, "data_format": {"s": "TkhXQw=="}, "filter_format": {"s": "SFdJTw=="}, "fused_ops": {"list": {"s": ["Qmlhc0FkZA=="]}}, "num_args": {"i": "1"}, "strides": {"list": {"i": ["1", "1", "1", "1"]}}, "TArgs": {"list": {"type": ["DT_FLOAT"]}}, "padding": {"s": "U0FNRQ=="}, "use_cudnn_on_gpu": {"b": true}, "leakyrelu_alpha": {"f": 0.2}, "epsilon": {"f": 0.0}, "T": {"type": "DT_FLOAT"}, "explicit_paddings": {"list": {}}, "dilations": {"list": {"i": ["1", "1", "1", "1"]}}}}, {"name": "StatefulPartitionedCall/model/tfc3_2/sequential_6/tf_bottleneck_6/tf_conv_25/Sigmoid", "op": "Sigmoid", "input": ["StatefulPartitionedCall/model/tfc3_2/sequential_6/tf_bottleneck_6/tf_conv_25/conv2d_25/BiasAdd"], "attr": {"T": {"type": "DT_FLOAT"}}}, {"name": "StatefulPartitionedCall/model/tfc3_2/sequential_6/tf_bottleneck_6/tf_conv_25/mul_1", "op": "Mul", "input": ["StatefulPartitionedCall/model/tfc3_2/sequential_6/tf_bottleneck_6/tf_conv_25/conv2d_25/BiasAdd", "StatefulPartitionedCall/model/tfc3_2/sequential_6/tf_bottleneck_6/tf_conv_25/Sigmoid"], "attr": {"T": {"type": "DT_FLOAT"}}}, {"name": "StatefulPartitionedCall/model/tfc3_2/sequential_6/tf_bottleneck_6/tf_conv_26/conv2d_26/BiasAdd", "op": "_FusedConv2D", "input": ["StatefulPartitionedCall/model/tfc3_2/sequential_6/tf_bottleneck_6/tf_conv_25/mul_1", "StatefulPartitionedCall/model/tfc3_2/sequential_6/tf_bottleneck_6/tf_conv_26/conv2d_26/Conv2D/ReadVariableOp", "StatefulPartitionedCall/model/tfc3_2/sequential_6/tf_bottleneck_6/tf_conv_26/conv2d_26/BiasAdd/ReadVariableOp"], "device": "/device:CPU:0", "attr": {"num_host_args": {"i": "0"}, "data_format": {"s": "TkhXQw=="}, "filter_format": {"s": "SFdJTw=="}, "strides": {"list": {"i": ["1", "1", "1", "1"]}}, "num_args": {"i": "1"}, "fused_ops": {"list": {"s": ["Qmlhc0FkZA=="]}}, "TArgs": {"list": {"type": ["DT_FLOAT"]}}, "padding": {"s": "U0FNRQ=="}, "use_cudnn_on_gpu": {"b": true}, "leakyrelu_alpha": {"f": 0.2}, "epsilon": {"f": 0.0}, "T": {"type": "DT_FLOAT"}, "explicit_paddings": {"list": {}}, "dilations": {"list": {"i": ["1", "1", "1", "1"]}}}}, {"name": "StatefulPartitionedCall/model/tfc3_2/sequential_6/tf_bottleneck_6/tf_conv_26/Sigmoid", "op": "Sigmoid", "input": ["StatefulPartitionedCall/model/tfc3_2/sequential_6/tf_bottleneck_6/tf_conv_26/conv2d_26/BiasAdd"], "attr": {"T": {"type": "DT_FLOAT"}}}, {"name": "StatefulPartitionedCall/model/tfc3_2/sequential_6/tf_bottleneck_6/tf_conv_26/mul_1", "op": "Mul", "input": ["StatefulPartitionedCall/model/tfc3_2/sequential_6/tf_bottleneck_6/tf_conv_26/conv2d_26/BiasAdd", "StatefulPartitionedCall/model/tfc3_2/sequential_6/tf_bottleneck_6/tf_conv_26/Sigmoid"], "attr": {"T": {"type": "DT_FLOAT"}}}, {"name": "StatefulPartitionedCall/model/tfc3_2/sequential_6/tf_bottleneck_6/add", "op": "AddV2", "input": ["StatefulPartitionedCall/model/tfc3_2/tf_conv_22/mul_1", "StatefulPartitionedCall/model/tfc3_2/sequential_6/tf_bottleneck_6/tf_conv_26/mul_1"], "attr": {"T": {"type": "DT_FLOAT"}}}, {"name": "StatefulPartitionedCall/model/tfc3_2/sequential_6/tf_bottleneck_7/tf_conv_27/conv2d_27/BiasAdd", "op": "_FusedConv2D", "input": ["StatefulPartitionedCall/model/tfc3_2/sequential_6/tf_bottleneck_6/add", "StatefulPartitionedCall/model/tfc3_2/sequential_6/tf_bottleneck_7/tf_conv_27/conv2d_27/Conv2D/ReadVariableOp", "StatefulPartitionedCall/model/tfc3_2/sequential_6/tf_bottleneck_7/tf_conv_27/conv2d_27/BiasAdd/ReadVariableOp"], "device": "/device:CPU:0", "attr": {"num_host_args": {"i": "0"}, "data_format": {"s": "TkhXQw=="}, "filter_format": {"s": "SFdJTw=="}, "strides": {"list": {"i": ["1", "1", "1", "1"]}}, "num_args": {"i": "1"}, "fused_ops": {"list": {"s": ["Qmlhc0FkZA=="]}}, "TArgs": {"list": {"type": ["DT_FLOAT"]}}, "padding": {"s": "U0FNRQ=="}, "use_cudnn_on_gpu": {"b": true}, "leakyrelu_alpha": {"f": 0.2}, "epsilon": {"f": 0.0}, "T": {"type": "DT_FLOAT"}, "explicit_paddings": {"list": {}}, "dilations": {"list": {"i": ["1", "1", "1", "1"]}}}}, {"name": "StatefulPartitionedCall/model/tfc3_2/sequential_6/tf_bottleneck_7/tf_conv_27/Sigmoid", "op": "Sigmoid", "input": ["StatefulPartitionedCall/model/tfc3_2/sequential_6/tf_bottleneck_7/tf_conv_27/conv2d_27/BiasAdd"], "attr": {"T": {"type": "DT_FLOAT"}}}, {"name": "StatefulPartitionedCall/model/tfc3_2/sequential_6/tf_bottleneck_7/tf_conv_27/mul_1", "op": "Mul", "input": ["StatefulPartitionedCall/model/tfc3_2/sequential_6/tf_bottleneck_7/tf_conv_27/conv2d_27/BiasAdd", "StatefulPartitionedCall/model/tfc3_2/sequential_6/tf_bottleneck_7/tf_conv_27/Sigmoid"], "attr": {"T": {"type": "DT_FLOAT"}}}, {"name": "StatefulPartitionedCall/model/tfc3_2/sequential_6/tf_bottleneck_7/tf_conv_28/conv2d_28/BiasAdd", "op": "_FusedConv2D", "input": ["StatefulPartitionedCall/model/tfc3_2/sequential_6/tf_bottleneck_7/tf_conv_27/mul_1", "StatefulPartitionedCall/model/tfc3_2/sequential_6/tf_bottleneck_7/tf_conv_28/conv2d_28/Conv2D/ReadVariableOp", "StatefulPartitionedCall/model/tfc3_2/sequential_6/tf_bottleneck_7/tf_conv_28/conv2d_28/BiasAdd/ReadVariableOp"], "device": "/device:CPU:0", "attr": {"num_host_args": {"i": "0"}, "data_format": {"s": "TkhXQw=="}, "filter_format": {"s": "SFdJTw=="}, "fused_ops": {"list": {"s": ["Qmlhc0FkZA=="]}}, "num_args": {"i": "1"}, "strides": {"list": {"i": ["1", "1", "1", "1"]}}, "TArgs": {"list": {"type": ["DT_FLOAT"]}}, "padding": {"s": "U0FNRQ=="}, "use_cudnn_on_gpu": {"b": true}, "leakyrelu_alpha": {"f": 0.2}, "epsilon": {"f": 0.0}, "T": {"type": "DT_FLOAT"}, "explicit_paddings": {"list": {}}, "dilations": {"list": {"i": ["1", "1", "1", "1"]}}}}, {"name": "StatefulPartitionedCall/model/tfc3_2/sequential_6/tf_bottleneck_7/tf_conv_28/Sigmoid", "op": "Sigmoid", "input": ["StatefulPartitionedCall/model/tfc3_2/sequential_6/tf_bottleneck_7/tf_conv_28/conv2d_28/BiasAdd"], "attr": {"T": {"type": "DT_FLOAT"}}}, {"name": "StatefulPartitionedCall/model/tfc3_2/sequential_6/tf_bottleneck_7/tf_conv_28/mul_1", "op": "Mul", "input": ["StatefulPartitionedCall/model/tfc3_2/sequential_6/tf_bottleneck_7/tf_conv_28/conv2d_28/BiasAdd", "StatefulPartitionedCall/model/tfc3_2/sequential_6/tf_bottleneck_7/tf_conv_28/Sigmoid"], "attr": {"T": {"type": "DT_FLOAT"}}}, {"name": "StatefulPartitionedCall/model/tfc3_2/sequential_6/tf_bottleneck_7/add", "op": "AddV2", "input": ["StatefulPartitionedCall/model/tfc3_2/sequential_6/tf_bottleneck_6/add", "StatefulPartitionedCall/model/tfc3_2/sequential_6/tf_bottleneck_7/tf_conv_28/mul_1"], "attr": {"T": {"type": "DT_FLOAT"}}}, {"name": "StatefulPartitionedCall/model/tfc3_2/sequential_6/tf_bottleneck_8/tf_conv_29/conv2d_29/BiasAdd", "op": "_FusedConv2D", "input": ["StatefulPartitionedCall/model/tfc3_2/sequential_6/tf_bottleneck_7/add", "StatefulPartitionedCall/model/tfc3_2/sequential_6/tf_bottleneck_8/tf_conv_29/conv2d_29/Conv2D/ReadVariableOp", "StatefulPartitionedCall/model/tfc3_2/sequential_6/tf_bottleneck_8/tf_conv_29/conv2d_29/BiasAdd/ReadVariableOp"], "device": "/device:CPU:0", "attr": {"num_host_args": {"i": "0"}, "data_format": {"s": "TkhXQw=="}, "filter_format": {"s": "SFdJTw=="}, "strides": {"list": {"i": ["1", "1", "1", "1"]}}, "num_args": {"i": "1"}, "fused_ops": {"list": {"s": ["Qmlhc0FkZA=="]}}, "TArgs": {"list": {"type": ["DT_FLOAT"]}}, "padding": {"s": "U0FNRQ=="}, "use_cudnn_on_gpu": {"b": true}, "leakyrelu_alpha": {"f": 0.2}, "epsilon": {"f": 0.0}, "T": {"type": "DT_FLOAT"}, "explicit_paddings": {"list": {}}, "dilations": {"list": {"i": ["1", "1", "1", "1"]}}}}, {"name": "StatefulPartitionedCall/model/tfc3_2/sequential_6/tf_bottleneck_8/tf_conv_29/Sigmoid", "op": "Sigmoid", "input": ["StatefulPartitionedCall/model/tfc3_2/sequential_6/tf_bottleneck_8/tf_conv_29/conv2d_29/BiasAdd"], "attr": {"T": {"type": "DT_FLOAT"}}}, {"name": "StatefulPartitionedCall/model/tfc3_2/sequential_6/tf_bottleneck_8/tf_conv_29/mul_1", "op": "Mul", "input": ["StatefulPartitionedCall/model/tfc3_2/sequential_6/tf_bottleneck_8/tf_conv_29/conv2d_29/BiasAdd", "StatefulPartitionedCall/model/tfc3_2/sequential_6/tf_bottleneck_8/tf_conv_29/Sigmoid"], "attr": {"T": {"type": "DT_FLOAT"}}}, {"name": "StatefulPartitionedCall/model/tfc3_2/sequential_6/tf_bottleneck_8/tf_conv_30/conv2d_30/BiasAdd", "op": "_FusedConv2D", "input": ["StatefulPartitionedCall/model/tfc3_2/sequential_6/tf_bottleneck_8/tf_conv_29/mul_1", "StatefulPartitionedCall/model/tfc3_2/sequential_6/tf_bottleneck_8/tf_conv_30/conv2d_30/Conv2D/ReadVariableOp", "StatefulPartitionedCall/model/tfc3_2/sequential_6/tf_bottleneck_8/tf_conv_30/conv2d_30/BiasAdd/ReadVariableOp"], "device": "/device:CPU:0", "attr": {"num_host_args": {"i": "0"}, "data_format": {"s": "TkhXQw=="}, "filter_format": {"s": "SFdJTw=="}, "fused_ops": {"list": {"s": ["Qmlhc0FkZA=="]}}, "num_args": {"i": "1"}, "strides": {"list": {"i": ["1", "1", "1", "1"]}}, "TArgs": {"list": {"type": ["DT_FLOAT"]}}, "padding": {"s": "U0FNRQ=="}, "use_cudnn_on_gpu": {"b": true}, "leakyrelu_alpha": {"f": 0.2}, "epsilon": {"f": 0.0}, "T": {"type": "DT_FLOAT"}, "explicit_paddings": {"list": {}}, "dilations": {"list": {"i": ["1", "1", "1", "1"]}}}}, {"name": "StatefulPartitionedCall/model/tfc3_2/sequential_6/tf_bottleneck_8/tf_conv_30/Sigmoid", "op": "Sigmoid", "input": ["StatefulPartitionedCall/model/tfc3_2/sequential_6/tf_bottleneck_8/tf_conv_30/conv2d_30/BiasAdd"], "attr": {"T": {"type": "DT_FLOAT"}}}, {"name": "StatefulPartitionedCall/model/tfc3_2/sequential_6/tf_bottleneck_8/tf_conv_30/mul_1", "op": "Mul", "input": ["StatefulPartitionedCall/model/tfc3_2/sequential_6/tf_bottleneck_8/tf_conv_30/conv2d_30/BiasAdd", "StatefulPartitionedCall/model/tfc3_2/sequential_6/tf_bottleneck_8/tf_conv_30/Sigmoid"], "attr": {"T": {"type": "DT_FLOAT"}}}, {"name": "StatefulPartitionedCall/model/tfc3_2/sequential_6/tf_bottleneck_8/add", "op": "AddV2", "input": ["StatefulPartitionedCall/model/tfc3_2/sequential_6/tf_bottleneck_7/add", "StatefulPartitionedCall/model/tfc3_2/sequential_6/tf_bottleneck_8/tf_conv_30/mul_1"], "attr": {"T": {"type": "DT_FLOAT"}}}, {"name": "StatefulPartitionedCall/model/tfc3_2/sequential_6/tf_bottleneck_9/tf_conv_31/conv2d_31/BiasAdd", "op": "_FusedConv2D", "input": ["StatefulPartitionedCall/model/tfc3_2/sequential_6/tf_bottleneck_8/add", "StatefulPartitionedCall/model/tfc3_2/sequential_6/tf_bottleneck_9/tf_conv_31/conv2d_31/Conv2D/ReadVariableOp", "StatefulPartitionedCall/model/tfc3_2/sequential_6/tf_bottleneck_9/tf_conv_31/conv2d_31/BiasAdd/ReadVariableOp"], "device": "/device:CPU:0", "attr": {"num_host_args": {"i": "0"}, "data_format": {"s": "TkhXQw=="}, "filter_format": {"s": "SFdJTw=="}, "fused_ops": {"list": {"s": ["Qmlhc0FkZA=="]}}, "num_args": {"i": "1"}, "strides": {"list": {"i": ["1", "1", "1", "1"]}}, "TArgs": {"list": {"type": ["DT_FLOAT"]}}, "padding": {"s": "U0FNRQ=="}, "use_cudnn_on_gpu": {"b": true}, "leakyrelu_alpha": {"f": 0.2}, "epsilon": {"f": 0.0}, "T": {"type": "DT_FLOAT"}, "explicit_paddings": {"list": {}}, "dilations": {"list": {"i": ["1", "1", "1", "1"]}}}}, {"name": "StatefulPartitionedCall/model/tfc3_2/sequential_6/tf_bottleneck_9/tf_conv_31/Sigmoid", "op": "Sigmoid", "input": ["StatefulPartitionedCall/model/tfc3_2/sequential_6/tf_bottleneck_9/tf_conv_31/conv2d_31/BiasAdd"], "attr": {"T": {"type": "DT_FLOAT"}}}, {"name": "StatefulPartitionedCall/model/tfc3_2/sequential_6/tf_bottleneck_9/tf_conv_31/mul_1", "op": "Mul", "input": ["StatefulPartitionedCall/model/tfc3_2/sequential_6/tf_bottleneck_9/tf_conv_31/conv2d_31/BiasAdd", "StatefulPartitionedCall/model/tfc3_2/sequential_6/tf_bottleneck_9/tf_conv_31/Sigmoid"], "attr": {"T": {"type": "DT_FLOAT"}}}, {"name": "StatefulPartitionedCall/model/tfc3_2/sequential_6/tf_bottleneck_9/tf_conv_32/conv2d_32/BiasAdd", "op": "_FusedConv2D", "input": ["StatefulPartitionedCall/model/tfc3_2/sequential_6/tf_bottleneck_9/tf_conv_31/mul_1", "StatefulPartitionedCall/model/tfc3_2/sequential_6/tf_bottleneck_9/tf_conv_32/conv2d_32/Conv2D/ReadVariableOp", "StatefulPartitionedCall/model/tfc3_2/sequential_6/tf_bottleneck_9/tf_conv_32/conv2d_32/BiasAdd/ReadVariableOp"], "device": "/device:CPU:0", "attr": {"num_host_args": {"i": "0"}, "data_format": {"s": "TkhXQw=="}, "filter_format": {"s": "SFdJTw=="}, "fused_ops": {"list": {"s": ["Qmlhc0FkZA=="]}}, "num_args": {"i": "1"}, "strides": {"list": {"i": ["1", "1", "1", "1"]}}, "TArgs": {"list": {"type": ["DT_FLOAT"]}}, "padding": {"s": "U0FNRQ=="}, "use_cudnn_on_gpu": {"b": true}, "leakyrelu_alpha": {"f": 0.2}, "epsilon": {"f": 0.0}, "T": {"type": "DT_FLOAT"}, "explicit_paddings": {"list": {}}, "dilations": {"list": {"i": ["1", "1", "1", "1"]}}}}, {"name": "StatefulPartitionedCall/model/tfc3_2/sequential_6/tf_bottleneck_9/tf_conv_32/Sigmoid", "op": "Sigmoid", "input": ["StatefulPartitionedCall/model/tfc3_2/sequential_6/tf_bottleneck_9/tf_conv_32/conv2d_32/BiasAdd"], "attr": {"T": {"type": "DT_FLOAT"}}}, {"name": "StatefulPartitionedCall/model/tfc3_2/sequential_6/tf_bottleneck_9/tf_conv_32/mul_1", "op": "Mul", "input": ["StatefulPartitionedCall/model/tfc3_2/sequential_6/tf_bottleneck_9/tf_conv_32/conv2d_32/BiasAdd", "StatefulPartitionedCall/model/tfc3_2/sequential_6/tf_bottleneck_9/tf_conv_32/Sigmoid"], "attr": {"T": {"type": "DT_FLOAT"}}}, {"name": "StatefulPartitionedCall/model/tfc3_2/sequential_6/tf_bottleneck_9/add", "op": "AddV2", "input": ["StatefulPartitionedCall/model/tfc3_2/sequential_6/tf_bottleneck_8/add", "StatefulPartitionedCall/model/tfc3_2/sequential_6/tf_bottleneck_9/tf_conv_32/mul_1"], "attr": {"T": {"type": "DT_FLOAT"}}}, {"name": "StatefulPartitionedCall/model/tfc3_2/sequential_6/tf_bottleneck_10/tf_conv_33/conv2d_33/BiasAdd", "op": "_FusedConv2D", "input": ["StatefulPartitionedCall/model/tfc3_2/sequential_6/tf_bottleneck_9/add", "StatefulPartitionedCall/model/tfc3_2/sequential_6/tf_bottleneck_10/tf_conv_33/conv2d_33/Conv2D/ReadVariableOp", "StatefulPartitionedCall/model/tfc3_2/sequential_6/tf_bottleneck_10/tf_conv_33/conv2d_33/BiasAdd/ReadVariableOp"], "device": "/device:CPU:0", "attr": {"num_host_args": {"i": "0"}, "data_format": {"s": "TkhXQw=="}, "filter_format": {"s": "SFdJTw=="}, "strides": {"list": {"i": ["1", "1", "1", "1"]}}, "num_args": {"i": "1"}, "fused_ops": {"list": {"s": ["Qmlhc0FkZA=="]}}, "TArgs": {"list": {"type": ["DT_FLOAT"]}}, "padding": {"s": "U0FNRQ=="}, "use_cudnn_on_gpu": {"b": true}, "leakyrelu_alpha": {"f": 0.2}, "epsilon": {"f": 0.0}, "T": {"type": "DT_FLOAT"}, "explicit_paddings": {"list": {}}, "dilations": {"list": {"i": ["1", "1", "1", "1"]}}}}, {"name": "StatefulPartitionedCall/model/tfc3_2/sequential_6/tf_bottleneck_10/tf_conv_33/Sigmoid", "op": "Sigmoid", "input": ["StatefulPartitionedCall/model/tfc3_2/sequential_6/tf_bottleneck_10/tf_conv_33/conv2d_33/BiasAdd"], "attr": {"T": {"type": "DT_FLOAT"}}}, {"name": "StatefulPartitionedCall/model/tfc3_2/sequential_6/tf_bottleneck_10/tf_conv_33/mul_1", "op": "Mul", "input": ["StatefulPartitionedCall/model/tfc3_2/sequential_6/tf_bottleneck_10/tf_conv_33/conv2d_33/BiasAdd", "StatefulPartitionedCall/model/tfc3_2/sequential_6/tf_bottleneck_10/tf_conv_33/Sigmoid"], "attr": {"T": {"type": "DT_FLOAT"}}}, {"name": "StatefulPartitionedCall/model/tfc3_2/sequential_6/tf_bottleneck_10/tf_conv_34/conv2d_34/BiasAdd", "op": "_FusedConv2D", "input": ["StatefulPartitionedCall/model/tfc3_2/sequential_6/tf_bottleneck_10/tf_conv_33/mul_1", "StatefulPartitionedCall/model/tfc3_2/sequential_6/tf_bottleneck_10/tf_conv_34/conv2d_34/Conv2D/ReadVariableOp", "StatefulPartitionedCall/model/tfc3_2/sequential_6/tf_bottleneck_10/tf_conv_34/conv2d_34/BiasAdd/ReadVariableOp"], "device": "/device:CPU:0", "attr": {"num_host_args": {"i": "0"}, "data_format": {"s": "TkhXQw=="}, "filter_format": {"s": "SFdJTw=="}, "strides": {"list": {"i": ["1", "1", "1", "1"]}}, "num_args": {"i": "1"}, "fused_ops": {"list": {"s": ["Qmlhc0FkZA=="]}}, "TArgs": {"list": {"type": ["DT_FLOAT"]}}, "padding": {"s": "U0FNRQ=="}, "use_cudnn_on_gpu": {"b": true}, "leakyrelu_alpha": {"f": 0.2}, "epsilon": {"f": 0.0}, "T": {"type": "DT_FLOAT"}, "explicit_paddings": {"list": {}}, "dilations": {"list": {"i": ["1", "1", "1", "1"]}}}}, {"name": "StatefulPartitionedCall/model/tfc3_2/sequential_6/tf_bottleneck_10/tf_conv_34/Sigmoid", "op": "Sigmoid", "input": ["StatefulPartitionedCall/model/tfc3_2/sequential_6/tf_bottleneck_10/tf_conv_34/conv2d_34/BiasAdd"], "attr": {"T": {"type": "DT_FLOAT"}}}, {"name": "StatefulPartitionedCall/model/tfc3_2/sequential_6/tf_bottleneck_10/tf_conv_34/mul_1", "op": "Mul", "input": ["StatefulPartitionedCall/model/tfc3_2/sequential_6/tf_bottleneck_10/tf_conv_34/conv2d_34/BiasAdd", "StatefulPartitionedCall/model/tfc3_2/sequential_6/tf_bottleneck_10/tf_conv_34/Sigmoid"], "attr": {"T": {"type": "DT_FLOAT"}}}, {"name": "StatefulPartitionedCall/model/tfc3_2/sequential_6/tf_bottleneck_10/add", "op": "AddV2", "input": ["StatefulPartitionedCall/model/tfc3_2/sequential_6/tf_bottleneck_9/add", "StatefulPartitionedCall/model/tfc3_2/sequential_6/tf_bottleneck_10/tf_conv_34/mul_1"], "attr": {"T": {"type": "DT_FLOAT"}}}, {"name": "StatefulPartitionedCall/model/tfc3_2/sequential_6/tf_bottleneck_11/tf_conv_35/conv2d_35/BiasAdd", "op": "_FusedConv2D", "input": ["StatefulPartitionedCall/model/tfc3_2/sequential_6/tf_bottleneck_10/add", "StatefulPartitionedCall/model/tfc3_2/sequential_6/tf_bottleneck_11/tf_conv_35/conv2d_35/Conv2D/ReadVariableOp", "StatefulPartitionedCall/model/tfc3_2/sequential_6/tf_bottleneck_11/tf_conv_35/conv2d_35/BiasAdd/ReadVariableOp"], "device": "/device:CPU:0", "attr": {"num_host_args": {"i": "0"}, "data_format": {"s": "TkhXQw=="}, "filter_format": {"s": "SFdJTw=="}, "fused_ops": {"list": {"s": ["Qmlhc0FkZA=="]}}, "num_args": {"i": "1"}, "strides": {"list": {"i": ["1", "1", "1", "1"]}}, "TArgs": {"list": {"type": ["DT_FLOAT"]}}, "padding": {"s": "U0FNRQ=="}, "use_cudnn_on_gpu": {"b": true}, "leakyrelu_alpha": {"f": 0.2}, "epsilon": {"f": 0.0}, "T": {"type": "DT_FLOAT"}, "explicit_paddings": {"list": {}}, "dilations": {"list": {"i": ["1", "1", "1", "1"]}}}}, {"name": "StatefulPartitionedCall/model/tfc3_2/sequential_6/tf_bottleneck_11/tf_conv_35/Sigmoid", "op": "Sigmoid", "input": ["StatefulPartitionedCall/model/tfc3_2/sequential_6/tf_bottleneck_11/tf_conv_35/conv2d_35/BiasAdd"], "attr": {"T": {"type": "DT_FLOAT"}}}, {"name": "StatefulPartitionedCall/model/tfc3_2/sequential_6/tf_bottleneck_11/tf_conv_35/mul_1", "op": "Mul", "input": ["StatefulPartitionedCall/model/tfc3_2/sequential_6/tf_bottleneck_11/tf_conv_35/conv2d_35/BiasAdd", "StatefulPartitionedCall/model/tfc3_2/sequential_6/tf_bottleneck_11/tf_conv_35/Sigmoid"], "attr": {"T": {"type": "DT_FLOAT"}}}, {"name": "StatefulPartitionedCall/model/tfc3_2/sequential_6/tf_bottleneck_11/tf_conv_36/conv2d_36/BiasAdd", "op": "_FusedConv2D", "input": ["StatefulPartitionedCall/model/tfc3_2/sequential_6/tf_bottleneck_11/tf_conv_35/mul_1", "StatefulPartitionedCall/model/tfc3_2/sequential_6/tf_bottleneck_11/tf_conv_36/conv2d_36/Conv2D/ReadVariableOp", "StatefulPartitionedCall/model/tfc3_2/sequential_6/tf_bottleneck_11/tf_conv_36/conv2d_36/BiasAdd/ReadVariableOp"], "device": "/device:CPU:0", "attr": {"num_host_args": {"i": "0"}, "data_format": {"s": "TkhXQw=="}, "filter_format": {"s": "SFdJTw=="}, "strides": {"list": {"i": ["1", "1", "1", "1"]}}, "num_args": {"i": "1"}, "fused_ops": {"list": {"s": ["Qmlhc0FkZA=="]}}, "TArgs": {"list": {"type": ["DT_FLOAT"]}}, "padding": {"s": "U0FNRQ=="}, "use_cudnn_on_gpu": {"b": true}, "leakyrelu_alpha": {"f": 0.2}, "epsilon": {"f": 0.0}, "T": {"type": "DT_FLOAT"}, "explicit_paddings": {"list": {}}, "dilations": {"list": {"i": ["1", "1", "1", "1"]}}}}, {"name": "StatefulPartitionedCall/model/tfc3_2/sequential_6/tf_bottleneck_11/tf_conv_36/Sigmoid", "op": "Sigmoid", "input": ["StatefulPartitionedCall/model/tfc3_2/sequential_6/tf_bottleneck_11/tf_conv_36/conv2d_36/BiasAdd"], "attr": {"T": {"type": "DT_FLOAT"}}}, {"name": "StatefulPartitionedCall/model/tfc3_2/sequential_6/tf_bottleneck_11/tf_conv_36/mul_1", "op": "Mul", "input": ["StatefulPartitionedCall/model/tfc3_2/sequential_6/tf_bottleneck_11/tf_conv_36/conv2d_36/BiasAdd", "StatefulPartitionedCall/model/tfc3_2/sequential_6/tf_bottleneck_11/tf_conv_36/Sigmoid"], "attr": {"T": {"type": "DT_FLOAT"}}}, {"name": "StatefulPartitionedCall/model/tfc3_2/sequential_6/tf_bottleneck_11/add", "op": "AddV2", "input": ["StatefulPartitionedCall/model/tfc3_2/sequential_6/tf_bottleneck_10/add", "StatefulPartitionedCall/model/tfc3_2/sequential_6/tf_bottleneck_11/tf_conv_36/mul_1"], "attr": {"T": {"type": "DT_FLOAT"}}}, {"name": "StatefulPartitionedCall/model/tfc3_2/concat", "op": "ConcatV2", "input": ["StatefulPartitionedCall/model/tfc3_2/sequential_6/tf_bottleneck_11/add", "StatefulPartitionedCall/model/tfc3_2/tf_conv_23/mul_1", "StatefulPartitionedCall/model/tfc3_2/concat/axis"], "attr": {"N": {"i": "2"}, "Tidx": {"type": "DT_INT32"}, "T": {"type": "DT_FLOAT"}}}, {"name": "StatefulPartitionedCall/model/tfc3_2/tf_conv_24/conv2d_24/BiasAdd", "op": "_FusedConv2D", "input": ["StatefulPartitionedCall/model/tfc3_2/concat", "StatefulPartitionedCall/model/tfc3_2/tf_conv_24/conv2d_24/Conv2D/ReadVariableOp", "StatefulPartitionedCall/model/tfc3_2/tf_conv_24/conv2d_24/BiasAdd/ReadVariableOp"], "device": "/device:CPU:0", "attr": {"num_host_args": {"i": "0"}, "data_format": {"s": "TkhXQw=="}, "filter_format": {"s": "SFdJTw=="}, "fused_ops": {"list": {"s": ["Qmlhc0FkZA=="]}}, "num_args": {"i": "1"}, "strides": {"list": {"i": ["1", "1", "1", "1"]}}, "TArgs": {"list": {"type": ["DT_FLOAT"]}}, "padding": {"s": "U0FNRQ=="}, "use_cudnn_on_gpu": {"b": true}, "leakyrelu_alpha": {"f": 0.2}, "epsilon": {"f": 0.0}, "T": {"type": "DT_FLOAT"}, "explicit_paddings": {"list": {}}, "dilations": {"list": {"i": ["1", "1", "1", "1"]}}}}, {"name": "StatefulPartitionedCall/model/tfc3_2/tf_conv_24/Sigmoid", "op": "Sigmoid", "input": ["StatefulPartitionedCall/model/tfc3_2/tf_conv_24/conv2d_24/BiasAdd"], "attr": {"T": {"type": "DT_FLOAT"}}}, {"name": "StatefulPartitionedCall/model/tfc3_2/tf_conv_24/mul_1", "op": "Mul", "input": ["StatefulPartitionedCall/model/tfc3_2/tf_conv_24/conv2d_24/BiasAdd", "StatefulPartitionedCall/model/tfc3_2/tf_conv_24/Sigmoid"], "attr": {"T": {"type": "DT_FLOAT"}}}, {"name": "StatefulPartitionedCall/model/tf_conv_37/sequential_7/tf_pad_4/Pad", "op": "Pad", "input": ["StatefulPartitionedCall/model/tfc3_2/tf_conv_24/mul_1", "unknown_77"], "attr": {"Tpaddings": {"type": "DT_INT32"}, "T": {"type": "DT_FLOAT"}}}, {"name": "StatefulPartitionedCall/model/tf_conv_37/sequential_7/conv2d_37/BiasAdd", "op": "_FusedConv2D", "input": ["StatefulPartitionedCall/model/tf_conv_37/sequential_7/tf_pad_4/Pad", "StatefulPartitionedCall/model/tf_conv_37/sequential_7/conv2d_37/Conv2D/ReadVariableOp", "StatefulPartitionedCall/model/tf_conv_37/sequential_7/conv2d_37/BiasAdd/ReadVariableOp"], "device": "/device:CPU:0", "attr": {"num_host_args": {"i": "0"}, "data_format": {"s": "TkhXQw=="}, "filter_format": {"s": "SFdJTw=="}, "strides": {"list": {"i": ["1", "2", "2", "1"]}}, "num_args": {"i": "1"}, "fused_ops": {"list": {"s": ["Qmlhc0FkZA=="]}}, "TArgs": {"list": {"type": ["DT_FLOAT"]}}, "padding": {"s": "VkFMSUQ="}, "use_cudnn_on_gpu": {"b": true}, "leakyrelu_alpha": {"f": 0.2}, "epsilon": {"f": 0.0}, "T": {"type": "DT_FLOAT"}, "explicit_paddings": {"list": {}}, "dilations": {"list": {"i": ["1", "1", "1", "1"]}}}}, {"name": "StatefulPartitionedCall/model/tf_conv_37/Sigmoid", "op": "Sigmoid", "input": ["StatefulPartitionedCall/model/tf_conv_37/sequential_7/conv2d_37/BiasAdd"], "attr": {"T": {"type": "DT_FLOAT"}}}, {"name": "StatefulPartitionedCall/model/tf_conv_37/mul_1", "op": "Mul", "input": ["StatefulPartitionedCall/model/tf_conv_37/sequential_7/conv2d_37/BiasAdd", "StatefulPartitionedCall/model/tf_conv_37/Sigmoid"], "attr": {"T": {"type": "DT_FLOAT"}}}, {"name": "StatefulPartitionedCall/model/tfc3_3/tf_conv_38/conv2d_38/BiasAdd", "op": "_FusedConv2D", "input": ["StatefulPartitionedCall/model/tf_conv_37/mul_1", "StatefulPartitionedCall/model/tfc3_3/tf_conv_38/conv2d_38/Conv2D/ReadVariableOp", "StatefulPartitionedCall/model/tfc3_3/tf_conv_38/conv2d_38/BiasAdd/ReadVariableOp"], "device": "/device:CPU:0", "attr": {"num_host_args": {"i": "0"}, "data_format": {"s": "TkhXQw=="}, "filter_format": {"s": "SFdJTw=="}, "fused_ops": {"list": {"s": ["Qmlhc0FkZA=="]}}, "num_args": {"i": "1"}, "strides": {"list": {"i": ["1", "1", "1", "1"]}}, "TArgs": {"list": {"type": ["DT_FLOAT"]}}, "padding": {"s": "U0FNRQ=="}, "use_cudnn_on_gpu": {"b": true}, "leakyrelu_alpha": {"f": 0.2}, "epsilon": {"f": 0.0}, "T": {"type": "DT_FLOAT"}, "explicit_paddings": {"list": {}}, "dilations": {"list": {"i": ["1", "1", "1", "1"]}}}}, {"name": "StatefulPartitionedCall/model/tfc3_3/tf_conv_39/conv2d_39/BiasAdd", "op": "_FusedConv2D", "input": ["StatefulPartitionedCall/model/tf_conv_37/mul_1", "StatefulPartitionedCall/model/tfc3_3/tf_conv_39/conv2d_39/Conv2D/ReadVariableOp", "StatefulPartitionedCall/model/tfc3_3/tf_conv_39/conv2d_39/BiasAdd/ReadVariableOp"], "device": "/device:CPU:0", "attr": {"num_host_args": {"i": "0"}, "data_format": {"s": "TkhXQw=="}, "filter_format": {"s": "SFdJTw=="}, "fused_ops": {"list": {"s": ["Qmlhc0FkZA=="]}}, "num_args": {"i": "1"}, "strides": {"list": {"i": ["1", "1", "1", "1"]}}, "TArgs": {"list": {"type": ["DT_FLOAT"]}}, "padding": {"s": "U0FNRQ=="}, "use_cudnn_on_gpu": {"b": true}, "leakyrelu_alpha": {"f": 0.2}, "epsilon": {"f": 0.0}, "T": {"type": "DT_FLOAT"}, "explicit_paddings": {"list": {}}, "dilations": {"list": {"i": ["1", "1", "1", "1"]}}}}, {"name": "StatefulPartitionedCall/model/tfc3_3/tf_conv_38/Sigmoid", "op": "Sigmoid", "input": ["StatefulPartitionedCall/model/tfc3_3/tf_conv_38/conv2d_38/BiasAdd"], "attr": {"T": {"type": "DT_FLOAT"}}}, {"name": "StatefulPartitionedCall/model/tfc3_3/tf_conv_39/Sigmoid", "op": "Sigmoid", "input": ["StatefulPartitionedCall/model/tfc3_3/tf_conv_39/conv2d_39/BiasAdd"], "attr": {"T": {"type": "DT_FLOAT"}}}, {"name": "StatefulPartitionedCall/model/tfc3_3/tf_conv_38/mul_1", "op": "Mul", "input": ["StatefulPartitionedCall/model/tfc3_3/tf_conv_38/conv2d_38/BiasAdd", "StatefulPartitionedCall/model/tfc3_3/tf_conv_38/Sigmoid"], "attr": {"T": {"type": "DT_FLOAT"}}}, {"name": "StatefulPartitionedCall/model/tfc3_3/tf_conv_39/mul_1", "op": "Mul", "input": ["StatefulPartitionedCall/model/tfc3_3/tf_conv_39/conv2d_39/BiasAdd", "StatefulPartitionedCall/model/tfc3_3/tf_conv_39/Sigmoid"], "attr": {"T": {"type": "DT_FLOAT"}}}, {"name": "StatefulPartitionedCall/model/tfc3_3/sequential_8/tf_bottleneck_12/tf_conv_41/conv2d_41/BiasAdd", "op": "_FusedConv2D", "input": ["StatefulPartitionedCall/model/tfc3_3/tf_conv_38/mul_1", "StatefulPartitionedCall/model/tfc3_3/sequential_8/tf_bottleneck_12/tf_conv_41/conv2d_41/Conv2D/ReadVariableOp", "StatefulPartitionedCall/model/tfc3_3/sequential_8/tf_bottleneck_12/tf_conv_41/conv2d_41/BiasAdd/ReadVariableOp"], "device": "/device:CPU:0", "attr": {"num_host_args": {"i": "0"}, "data_format": {"s": "TkhXQw=="}, "filter_format": {"s": "SFdJTw=="}, "strides": {"list": {"i": ["1", "1", "1", "1"]}}, "num_args": {"i": "1"}, "fused_ops": {"list": {"s": ["Qmlhc0FkZA=="]}}, "TArgs": {"list": {"type": ["DT_FLOAT"]}}, "padding": {"s": "U0FNRQ=="}, "use_cudnn_on_gpu": {"b": true}, "leakyrelu_alpha": {"f": 0.2}, "epsilon": {"f": 0.0}, "T": {"type": "DT_FLOAT"}, "explicit_paddings": {"list": {}}, "dilations": {"list": {"i": ["1", "1", "1", "1"]}}}}, {"name": "StatefulPartitionedCall/model/tfc3_3/sequential_8/tf_bottleneck_12/tf_conv_41/Sigmoid", "op": "Sigmoid", "input": ["StatefulPartitionedCall/model/tfc3_3/sequential_8/tf_bottleneck_12/tf_conv_41/conv2d_41/BiasAdd"], "attr": {"T": {"type": "DT_FLOAT"}}}, {"name": "StatefulPartitionedCall/model/tfc3_3/sequential_8/tf_bottleneck_12/tf_conv_41/mul_1", "op": "Mul", "input": ["StatefulPartitionedCall/model/tfc3_3/sequential_8/tf_bottleneck_12/tf_conv_41/conv2d_41/BiasAdd", "StatefulPartitionedCall/model/tfc3_3/sequential_8/tf_bottleneck_12/tf_conv_41/Sigmoid"], "attr": {"T": {"type": "DT_FLOAT"}}}, {"name": "StatefulPartitionedCall/model/tfc3_3/sequential_8/tf_bottleneck_12/tf_conv_42/conv2d_42/BiasAdd", "op": "_FusedConv2D", "input": ["StatefulPartitionedCall/model/tfc3_3/sequential_8/tf_bottleneck_12/tf_conv_41/mul_1", "StatefulPartitionedCall/model/tfc3_3/sequential_8/tf_bottleneck_12/tf_conv_42/conv2d_42/Conv2D/ReadVariableOp", "StatefulPartitionedCall/model/tfc3_3/sequential_8/tf_bottleneck_12/tf_conv_42/conv2d_42/BiasAdd/ReadVariableOp"], "device": "/device:CPU:0", "attr": {"num_host_args": {"i": "0"}, "data_format": {"s": "TkhXQw=="}, "filter_format": {"s": "SFdJTw=="}, "fused_ops": {"list": {"s": ["Qmlhc0FkZA=="]}}, "num_args": {"i": "1"}, "strides": {"list": {"i": ["1", "1", "1", "1"]}}, "TArgs": {"list": {"type": ["DT_FLOAT"]}}, "padding": {"s": "U0FNRQ=="}, "use_cudnn_on_gpu": {"b": true}, "leakyrelu_alpha": {"f": 0.2}, "epsilon": {"f": 0.0}, "T": {"type": "DT_FLOAT"}, "explicit_paddings": {"list": {}}, "dilations": {"list": {"i": ["1", "1", "1", "1"]}}}}, {"name": "StatefulPartitionedCall/model/tfc3_3/sequential_8/tf_bottleneck_12/tf_conv_42/Sigmoid", "op": "Sigmoid", "input": ["StatefulPartitionedCall/model/tfc3_3/sequential_8/tf_bottleneck_12/tf_conv_42/conv2d_42/BiasAdd"], "attr": {"T": {"type": "DT_FLOAT"}}}, {"name": "StatefulPartitionedCall/model/tfc3_3/sequential_8/tf_bottleneck_12/tf_conv_42/mul_1", "op": "Mul", "input": ["StatefulPartitionedCall/model/tfc3_3/sequential_8/tf_bottleneck_12/tf_conv_42/conv2d_42/BiasAdd", "StatefulPartitionedCall/model/tfc3_3/sequential_8/tf_bottleneck_12/tf_conv_42/Sigmoid"], "attr": {"T": {"type": "DT_FLOAT"}}}, {"name": "StatefulPartitionedCall/model/tfc3_3/sequential_8/tf_bottleneck_12/add", "op": "AddV2", "input": ["StatefulPartitionedCall/model/tfc3_3/tf_conv_38/mul_1", "StatefulPartitionedCall/model/tfc3_3/sequential_8/tf_bottleneck_12/tf_conv_42/mul_1"], "attr": {"T": {"type": "DT_FLOAT"}}}, {"name": "StatefulPartitionedCall/model/tfc3_3/sequential_8/tf_bottleneck_13/tf_conv_43/conv2d_43/BiasAdd", "op": "_FusedConv2D", "input": ["StatefulPartitionedCall/model/tfc3_3/sequential_8/tf_bottleneck_12/add", "StatefulPartitionedCall/model/tfc3_3/sequential_8/tf_bottleneck_13/tf_conv_43/conv2d_43/Conv2D/ReadVariableOp", "StatefulPartitionedCall/model/tfc3_3/sequential_8/tf_bottleneck_13/tf_conv_43/conv2d_43/BiasAdd/ReadVariableOp"], "device": "/device:CPU:0", "attr": {"num_host_args": {"i": "0"}, "data_format": {"s": "TkhXQw=="}, "filter_format": {"s": "SFdJTw=="}, "fused_ops": {"list": {"s": ["Qmlhc0FkZA=="]}}, "num_args": {"i": "1"}, "strides": {"list": {"i": ["1", "1", "1", "1"]}}, "TArgs": {"list": {"type": ["DT_FLOAT"]}}, "padding": {"s": "U0FNRQ=="}, "use_cudnn_on_gpu": {"b": true}, "leakyrelu_alpha": {"f": 0.2}, "epsilon": {"f": 0.0}, "T": {"type": "DT_FLOAT"}, "explicit_paddings": {"list": {}}, "dilations": {"list": {"i": ["1", "1", "1", "1"]}}}}, {"name": "StatefulPartitionedCall/model/tfc3_3/sequential_8/tf_bottleneck_13/tf_conv_43/Sigmoid", "op": "Sigmoid", "input": ["StatefulPartitionedCall/model/tfc3_3/sequential_8/tf_bottleneck_13/tf_conv_43/conv2d_43/BiasAdd"], "attr": {"T": {"type": "DT_FLOAT"}}}, {"name": "StatefulPartitionedCall/model/tfc3_3/sequential_8/tf_bottleneck_13/tf_conv_43/mul_1", "op": "Mul", "input": ["StatefulPartitionedCall/model/tfc3_3/sequential_8/tf_bottleneck_13/tf_conv_43/conv2d_43/BiasAdd", "StatefulPartitionedCall/model/tfc3_3/sequential_8/tf_bottleneck_13/tf_conv_43/Sigmoid"], "attr": {"T": {"type": "DT_FLOAT"}}}, {"name": "StatefulPartitionedCall/model/tfc3_3/sequential_8/tf_bottleneck_13/tf_conv_44/conv2d_44/BiasAdd", "op": "_FusedConv2D", "input": ["StatefulPartitionedCall/model/tfc3_3/sequential_8/tf_bottleneck_13/tf_conv_43/mul_1", "StatefulPartitionedCall/model/tfc3_3/sequential_8/tf_bottleneck_13/tf_conv_44/conv2d_44/Conv2D/ReadVariableOp", "StatefulPartitionedCall/model/tfc3_3/sequential_8/tf_bottleneck_13/tf_conv_44/conv2d_44/BiasAdd/ReadVariableOp"], "device": "/device:CPU:0", "attr": {"num_host_args": {"i": "0"}, "data_format": {"s": "TkhXQw=="}, "filter_format": {"s": "SFdJTw=="}, "fused_ops": {"list": {"s": ["Qmlhc0FkZA=="]}}, "num_args": {"i": "1"}, "strides": {"list": {"i": ["1", "1", "1", "1"]}}, "TArgs": {"list": {"type": ["DT_FLOAT"]}}, "padding": {"s": "U0FNRQ=="}, "use_cudnn_on_gpu": {"b": true}, "leakyrelu_alpha": {"f": 0.2}, "epsilon": {"f": 0.0}, "T": {"type": "DT_FLOAT"}, "explicit_paddings": {"list": {}}, "dilations": {"list": {"i": ["1", "1", "1", "1"]}}}}, {"name": "StatefulPartitionedCall/model/tfc3_3/sequential_8/tf_bottleneck_13/tf_conv_44/Sigmoid", "op": "Sigmoid", "input": ["StatefulPartitionedCall/model/tfc3_3/sequential_8/tf_bottleneck_13/tf_conv_44/conv2d_44/BiasAdd"], "attr": {"T": {"type": "DT_FLOAT"}}}, {"name": "StatefulPartitionedCall/model/tfc3_3/sequential_8/tf_bottleneck_13/tf_conv_44/mul_1", "op": "Mul", "input": ["StatefulPartitionedCall/model/tfc3_3/sequential_8/tf_bottleneck_13/tf_conv_44/conv2d_44/BiasAdd", "StatefulPartitionedCall/model/tfc3_3/sequential_8/tf_bottleneck_13/tf_conv_44/Sigmoid"], "attr": {"T": {"type": "DT_FLOAT"}}}, {"name": "StatefulPartitionedCall/model/tfc3_3/sequential_8/tf_bottleneck_13/add", "op": "AddV2", "input": ["StatefulPartitionedCall/model/tfc3_3/sequential_8/tf_bottleneck_12/add", "StatefulPartitionedCall/model/tfc3_3/sequential_8/tf_bottleneck_13/tf_conv_44/mul_1"], "attr": {"T": {"type": "DT_FLOAT"}}}, {"name": "StatefulPartitionedCall/model/tfc3_3/concat", "op": "ConcatV2", "input": ["StatefulPartitionedCall/model/tfc3_3/sequential_8/tf_bottleneck_13/add", "StatefulPartitionedCall/model/tfc3_3/tf_conv_39/mul_1", "StatefulPartitionedCall/model/tfc3_3/concat/axis"], "attr": {"N": {"i": "2"}, "T": {"type": "DT_FLOAT"}, "Tidx": {"type": "DT_INT32"}}}, {"name": "StatefulPartitionedCall/model/tfc3_3/tf_conv_40/conv2d_40/BiasAdd", "op": "_FusedConv2D", "input": ["StatefulPartitionedCall/model/tfc3_3/concat", "StatefulPartitionedCall/model/tfc3_3/tf_conv_40/conv2d_40/Conv2D/ReadVariableOp", "StatefulPartitionedCall/model/tfc3_3/tf_conv_40/conv2d_40/BiasAdd/ReadVariableOp"], "device": "/device:CPU:0", "attr": {"num_host_args": {"i": "0"}, "data_format": {"s": "TkhXQw=="}, "filter_format": {"s": "SFdJTw=="}, "strides": {"list": {"i": ["1", "1", "1", "1"]}}, "num_args": {"i": "1"}, "fused_ops": {"list": {"s": ["Qmlhc0FkZA=="]}}, "TArgs": {"list": {"type": ["DT_FLOAT"]}}, "padding": {"s": "U0FNRQ=="}, "use_cudnn_on_gpu": {"b": true}, "leakyrelu_alpha": {"f": 0.2}, "epsilon": {"f": 0.0}, "T": {"type": "DT_FLOAT"}, "explicit_paddings": {"list": {}}, "dilations": {"list": {"i": ["1", "1", "1", "1"]}}}}, {"name": "StatefulPartitionedCall/model/tfc3_3/tf_conv_40/Sigmoid", "op": "Sigmoid", "input": ["StatefulPartitionedCall/model/tfc3_3/tf_conv_40/conv2d_40/BiasAdd"], "attr": {"T": {"type": "DT_FLOAT"}}}, {"name": "StatefulPartitionedCall/model/tfc3_3/tf_conv_40/mul_1", "op": "Mul", "input": ["StatefulPartitionedCall/model/tfc3_3/tf_conv_40/conv2d_40/BiasAdd", "StatefulPartitionedCall/model/tfc3_3/tf_conv_40/Sigmoid"], "attr": {"T": {"type": "DT_FLOAT"}}}, {"name": "StatefulPartitionedCall/model/tfsppf/tf_conv_45/conv2d_45/BiasAdd", "op": "_FusedConv2D", "input": ["StatefulPartitionedCall/model/tfc3_3/tf_conv_40/mul_1", "StatefulPartitionedCall/model/tfsppf/tf_conv_45/conv2d_45/Conv2D/ReadVariableOp", "StatefulPartitionedCall/model/tfsppf/tf_conv_45/conv2d_45/BiasAdd/ReadVariableOp"], "device": "/device:CPU:0", "attr": {"num_host_args": {"i": "0"}, "data_format": {"s": "TkhXQw=="}, "filter_format": {"s": "SFdJTw=="}, "strides": {"list": {"i": ["1", "1", "1", "1"]}}, "num_args": {"i": "1"}, "fused_ops": {"list": {"s": ["Qmlhc0FkZA=="]}}, "TArgs": {"list": {"type": ["DT_FLOAT"]}}, "padding": {"s": "U0FNRQ=="}, "use_cudnn_on_gpu": {"b": true}, "leakyrelu_alpha": {"f": 0.2}, "epsilon": {"f": 0.0}, "T": {"type": "DT_FLOAT"}, "explicit_paddings": {"list": {}}, "dilations": {"list": {"i": ["1", "1", "1", "1"]}}}}, {"name": "StatefulPartitionedCall/model/tfsppf/tf_conv_45/Sigmoid", "op": "Sigmoid", "input": ["StatefulPartitionedCall/model/tfsppf/tf_conv_45/conv2d_45/BiasAdd"], "attr": {"T": {"type": "DT_FLOAT"}}}, {"name": "StatefulPartitionedCall/model/tfsppf/tf_conv_45/mul_1", "op": "Mul", "input": ["StatefulPartitionedCall/model/tfsppf/tf_conv_45/conv2d_45/BiasAdd", "StatefulPartitionedCall/model/tfsppf/tf_conv_45/Sigmoid"], "attr": {"T": {"type": "DT_FLOAT"}}}, {"name": "StatefulPartitionedCall/model/tfsppf/max_pooling2d/MaxPool", "op": "MaxPool", "input": ["StatefulPartitionedCall/model/tfsppf/tf_conv_45/mul_1"], "attr": {"padding": {"s": "U0FNRQ=="}, "data_format": {"s": "TkhXQw=="}, "T": {"type": "DT_FLOAT"}, "explicit_paddings": {"list": {}}, "ksize": {"list": {"i": ["1", "5", "5", "1"]}}, "strides": {"list": {"i": ["1", "1", "1", "1"]}}}}, {"name": "StatefulPartitionedCall/model/tfsppf/max_pooling2d/MaxPool_1", "op": "MaxPool", "input": ["StatefulPartitionedCall/model/tfsppf/max_pooling2d/MaxPool"], "attr": {"padding": {"s": "U0FNRQ=="}, "data_format": {"s": "TkhXQw=="}, "T": {"type": "DT_FLOAT"}, "explicit_paddings": {"list": {}}, "ksize": {"list": {"i": ["1", "5", "5", "1"]}}, "strides": {"list": {"i": ["1", "1", "1", "1"]}}}}, {"name": "StatefulPartitionedCall/model/tfsppf/max_pooling2d/MaxPool_2", "op": "MaxPool", "input": ["StatefulPartitionedCall/model/tfsppf/max_pooling2d/MaxPool_1"], "attr": {"ksize": {"list": {"i": ["1", "5", "5", "1"]}}, "data_format": {"s": "TkhXQw=="}, "T": {"type": "DT_FLOAT"}, "explicit_paddings": {"list": {}}, "padding": {"s": "U0FNRQ=="}, "strides": {"list": {"i": ["1", "1", "1", "1"]}}}}, {"name": "StatefulPartitionedCall/model/tfsppf/concat", "op": "ConcatV2", "input": ["StatefulPartitionedCall/model/tfsppf/tf_conv_45/mul_1", "StatefulPartitionedCall/model/tfsppf/max_pooling2d/MaxPool", "StatefulPartitionedCall/model/tfsppf/max_pooling2d/MaxPool_1", "StatefulPartitionedCall/model/tfsppf/max_pooling2d/MaxPool_2", "StatefulPartitionedCall/model/tfsppf/concat/axis"], "attr": {"N": {"i": "4"}, "T": {"type": "DT_FLOAT"}, "Tidx": {"type": "DT_INT32"}}}, {"name": "StatefulPartitionedCall/model/tfsppf/tf_conv_46/conv2d_46/BiasAdd", "op": "_FusedConv2D", "input": ["StatefulPartitionedCall/model/tfsppf/concat", "StatefulPartitionedCall/model/tfsppf/tf_conv_46/conv2d_46/Conv2D/ReadVariableOp", "StatefulPartitionedCall/model/tfsppf/tf_conv_46/conv2d_46/BiasAdd/ReadVariableOp"], "device": "/device:CPU:0", "attr": {"num_host_args": {"i": "0"}, "data_format": {"s": "TkhXQw=="}, "filter_format": {"s": "SFdJTw=="}, "fused_ops": {"list": {"s": ["Qmlhc0FkZA=="]}}, "num_args": {"i": "1"}, "strides": {"list": {"i": ["1", "1", "1", "1"]}}, "TArgs": {"list": {"type": ["DT_FLOAT"]}}, "padding": {"s": "U0FNRQ=="}, "use_cudnn_on_gpu": {"b": true}, "leakyrelu_alpha": {"f": 0.2}, "epsilon": {"f": 0.0}, "T": {"type": "DT_FLOAT"}, "explicit_paddings": {"list": {}}, "dilations": {"list": {"i": ["1", "1", "1", "1"]}}}}, {"name": "StatefulPartitionedCall/model/tfsppf/tf_conv_46/Sigmoid", "op": "Sigmoid", "input": ["StatefulPartitionedCall/model/tfsppf/tf_conv_46/conv2d_46/BiasAdd"], "attr": {"T": {"type": "DT_FLOAT"}}}, {"name": "StatefulPartitionedCall/model/tfsppf/tf_conv_46/mul_1", "op": "Mul", "input": ["StatefulPartitionedCall/model/tfsppf/tf_conv_46/conv2d_46/BiasAdd", "StatefulPartitionedCall/model/tfsppf/tf_conv_46/Sigmoid"], "attr": {"T": {"type": "DT_FLOAT"}}}, {"name": "StatefulPartitionedCall/model/tf_conv_47/conv2d_47/BiasAdd", "op": "_FusedConv2D", "input": ["StatefulPartitionedCall/model/tfsppf/tf_conv_46/mul_1", "StatefulPartitionedCall/model/tf_conv_47/conv2d_47/Conv2D/ReadVariableOp", "StatefulPartitionedCall/model/tf_conv_47/conv2d_47/BiasAdd/ReadVariableOp"], "device": "/device:CPU:0", "attr": {"num_host_args": {"i": "0"}, "data_format": {"s": "TkhXQw=="}, "filter_format": {"s": "SFdJTw=="}, "strides": {"list": {"i": ["1", "1", "1", "1"]}}, "num_args": {"i": "1"}, "fused_ops": {"list": {"s": ["Qmlhc0FkZA=="]}}, "TArgs": {"list": {"type": ["DT_FLOAT"]}}, "padding": {"s": "U0FNRQ=="}, "use_cudnn_on_gpu": {"b": true}, "leakyrelu_alpha": {"f": 0.2}, "epsilon": {"f": 0.0}, "T": {"type": "DT_FLOAT"}, "explicit_paddings": {"list": {}}, "dilations": {"list": {"i": ["1", "1", "1", "1"]}}}}, {"name": "StatefulPartitionedCall/model/tf_conv_47/Sigmoid", "op": "Sigmoid", "input": ["StatefulPartitionedCall/model/tf_conv_47/conv2d_47/BiasAdd"], "attr": {"T": {"type": "DT_FLOAT"}}}, {"name": "StatefulPartitionedCall/model/tf_conv_47/mul_1", "op": "Mul", "input": ["StatefulPartitionedCall/model/tf_conv_47/conv2d_47/BiasAdd", "StatefulPartitionedCall/model/tf_conv_47/Sigmoid"], "attr": {"T": {"type": "DT_FLOAT"}}}, {"name": "StatefulPartitionedCall/model/tf_upsample/resize/ResizeNearestNeighbor", "op": "ResizeNearestNeighbor", "input": ["StatefulPartitionedCall/model/tf_conv_47/mul_1", "StatefulPartitionedCall/model/tf_upsample/resize/size"], "attr": {"T": {"type": "DT_FLOAT"}, "align_corners": {"b": false}, "half_pixel_centers": {"b": true}}}, {"name": "StatefulPartitionedCall/model/tf_concat/concat", "op": "ConcatV2", "input": ["StatefulPartitionedCall/model/tf_upsample/resize/ResizeNearestNeighbor", "StatefulPartitionedCall/model/tfc3_2/tf_conv_24/mul_1", "StatefulPartitionedCall/model/tf_concat/concat/axis"], "attr": {"N": {"i": "2"}, "T": {"type": "DT_FLOAT"}, "Tidx": {"type": "DT_INT32"}}}, {"name": "StatefulPartitionedCall/model/tfc3_4/tf_conv_48/conv2d_48/BiasAdd", "op": "_FusedConv2D", "input": ["StatefulPartitionedCall/model/tf_concat/concat", "StatefulPartitionedCall/model/tfc3_4/tf_conv_48/conv2d_48/Conv2D/ReadVariableOp", "StatefulPartitionedCall/model/tfc3_4/tf_conv_48/conv2d_48/BiasAdd/ReadVariableOp"], "device": "/device:CPU:0", "attr": {"num_host_args": {"i": "0"}, "data_format": {"s": "TkhXQw=="}, "filter_format": {"s": "SFdJTw=="}, "fused_ops": {"list": {"s": ["Qmlhc0FkZA=="]}}, "num_args": {"i": "1"}, "strides": {"list": {"i": ["1", "1", "1", "1"]}}, "TArgs": {"list": {"type": ["DT_FLOAT"]}}, "padding": {"s": "U0FNRQ=="}, "use_cudnn_on_gpu": {"b": true}, "leakyrelu_alpha": {"f": 0.2}, "epsilon": {"f": 0.0}, "T": {"type": "DT_FLOAT"}, "explicit_paddings": {"list": {}}, "dilations": {"list": {"i": ["1", "1", "1", "1"]}}}}, {"name": "StatefulPartitionedCall/model/tfc3_4/tf_conv_49/conv2d_49/BiasAdd", "op": "_FusedConv2D", "input": ["StatefulPartitionedCall/model/tf_concat/concat", "StatefulPartitionedCall/model/tfc3_4/tf_conv_49/conv2d_49/Conv2D/ReadVariableOp", "StatefulPartitionedCall/model/tfc3_4/tf_conv_49/conv2d_49/BiasAdd/ReadVariableOp"], "device": "/device:CPU:0", "attr": {"num_host_args": {"i": "0"}, "data_format": {"s": "TkhXQw=="}, "filter_format": {"s": "SFdJTw=="}, "strides": {"list": {"i": ["1", "1", "1", "1"]}}, "num_args": {"i": "1"}, "fused_ops": {"list": {"s": ["Qmlhc0FkZA=="]}}, "TArgs": {"list": {"type": ["DT_FLOAT"]}}, "padding": {"s": "U0FNRQ=="}, "use_cudnn_on_gpu": {"b": true}, "leakyrelu_alpha": {"f": 0.2}, "epsilon": {"f": 0.0}, "T": {"type": "DT_FLOAT"}, "explicit_paddings": {"list": {}}, "dilations": {"list": {"i": ["1", "1", "1", "1"]}}}}, {"name": "StatefulPartitionedCall/model/tfc3_4/tf_conv_48/Sigmoid", "op": "Sigmoid", "input": ["StatefulPartitionedCall/model/tfc3_4/tf_conv_48/conv2d_48/BiasAdd"], "attr": {"T": {"type": "DT_FLOAT"}}}, {"name": "StatefulPartitionedCall/model/tfc3_4/tf_conv_49/Sigmoid", "op": "Sigmoid", "input": ["StatefulPartitionedCall/model/tfc3_4/tf_conv_49/conv2d_49/BiasAdd"], "attr": {"T": {"type": "DT_FLOAT"}}}, {"name": "StatefulPartitionedCall/model/tfc3_4/tf_conv_48/mul_1", "op": "Mul", "input": ["StatefulPartitionedCall/model/tfc3_4/tf_conv_48/conv2d_48/BiasAdd", "StatefulPartitionedCall/model/tfc3_4/tf_conv_48/Sigmoid"], "attr": {"T": {"type": "DT_FLOAT"}}}, {"name": "StatefulPartitionedCall/model/tfc3_4/tf_conv_49/mul_1", "op": "Mul", "input": ["StatefulPartitionedCall/model/tfc3_4/tf_conv_49/conv2d_49/BiasAdd", "StatefulPartitionedCall/model/tfc3_4/tf_conv_49/Sigmoid"], "attr": {"T": {"type": "DT_FLOAT"}}}, {"name": "StatefulPartitionedCall/model/tfc3_4/sequential_9/tf_bottleneck_14/tf_conv_51/conv2d_51/BiasAdd", "op": "_FusedConv2D", "input": ["StatefulPartitionedCall/model/tfc3_4/tf_conv_48/mul_1", "StatefulPartitionedCall/model/tfc3_4/sequential_9/tf_bottleneck_14/tf_conv_51/conv2d_51/Conv2D/ReadVariableOp", "StatefulPartitionedCall/model/tfc3_4/sequential_9/tf_bottleneck_14/tf_conv_51/conv2d_51/BiasAdd/ReadVariableOp"], "device": "/device:CPU:0", "attr": {"num_host_args": {"i": "0"}, "data_format": {"s": "TkhXQw=="}, "filter_format": {"s": "SFdJTw=="}, "strides": {"list": {"i": ["1", "1", "1", "1"]}}, "num_args": {"i": "1"}, "fused_ops": {"list": {"s": ["Qmlhc0FkZA=="]}}, "TArgs": {"list": {"type": ["DT_FLOAT"]}}, "padding": {"s": "U0FNRQ=="}, "use_cudnn_on_gpu": {"b": true}, "leakyrelu_alpha": {"f": 0.2}, "epsilon": {"f": 0.0}, "T": {"type": "DT_FLOAT"}, "explicit_paddings": {"list": {}}, "dilations": {"list": {"i": ["1", "1", "1", "1"]}}}}, {"name": "StatefulPartitionedCall/model/tfc3_4/sequential_9/tf_bottleneck_14/tf_conv_51/Sigmoid", "op": "Sigmoid", "input": ["StatefulPartitionedCall/model/tfc3_4/sequential_9/tf_bottleneck_14/tf_conv_51/conv2d_51/BiasAdd"], "attr": {"T": {"type": "DT_FLOAT"}}}, {"name": "StatefulPartitionedCall/model/tfc3_4/sequential_9/tf_bottleneck_14/tf_conv_51/mul_1", "op": "Mul", "input": ["StatefulPartitionedCall/model/tfc3_4/sequential_9/tf_bottleneck_14/tf_conv_51/conv2d_51/BiasAdd", "StatefulPartitionedCall/model/tfc3_4/sequential_9/tf_bottleneck_14/tf_conv_51/Sigmoid"], "attr": {"T": {"type": "DT_FLOAT"}}}, {"name": "StatefulPartitionedCall/model/tfc3_4/sequential_9/tf_bottleneck_14/tf_conv_52/conv2d_52/BiasAdd", "op": "_FusedConv2D", "input": ["StatefulPartitionedCall/model/tfc3_4/sequential_9/tf_bottleneck_14/tf_conv_51/mul_1", "StatefulPartitionedCall/model/tfc3_4/sequential_9/tf_bottleneck_14/tf_conv_52/conv2d_52/Conv2D/ReadVariableOp", "StatefulPartitionedCall/model/tfc3_4/sequential_9/tf_bottleneck_14/tf_conv_52/conv2d_52/BiasAdd/ReadVariableOp"], "device": "/device:CPU:0", "attr": {"num_host_args": {"i": "0"}, "data_format": {"s": "TkhXQw=="}, "filter_format": {"s": "SFdJTw=="}, "strides": {"list": {"i": ["1", "1", "1", "1"]}}, "num_args": {"i": "1"}, "fused_ops": {"list": {"s": ["Qmlhc0FkZA=="]}}, "TArgs": {"list": {"type": ["DT_FLOAT"]}}, "padding": {"s": "U0FNRQ=="}, "use_cudnn_on_gpu": {"b": true}, "leakyrelu_alpha": {"f": 0.2}, "epsilon": {"f": 0.0}, "T": {"type": "DT_FLOAT"}, "explicit_paddings": {"list": {}}, "dilations": {"list": {"i": ["1", "1", "1", "1"]}}}}, {"name": "StatefulPartitionedCall/model/tfc3_4/sequential_9/tf_bottleneck_14/tf_conv_52/Sigmoid", "op": "Sigmoid", "input": ["StatefulPartitionedCall/model/tfc3_4/sequential_9/tf_bottleneck_14/tf_conv_52/conv2d_52/BiasAdd"], "attr": {"T": {"type": "DT_FLOAT"}}}, {"name": "StatefulPartitionedCall/model/tfc3_4/sequential_9/tf_bottleneck_14/tf_conv_52/mul_1", "op": "Mul", "input": ["StatefulPartitionedCall/model/tfc3_4/sequential_9/tf_bottleneck_14/tf_conv_52/conv2d_52/BiasAdd", "StatefulPartitionedCall/model/tfc3_4/sequential_9/tf_bottleneck_14/tf_conv_52/Sigmoid"], "attr":…
onedCall/model/tf_segment/truediv_3", "StatefulPartitionedCall/model/tf_segment/Sigmoid_5", "StatefulPartitionedCall/model/tf_segment/strided_slice_15", "StatefulPartitionedCall/model/tf_segment/concat_1/axis"], "attr": {"N": {"i": "4"}, "T": {"type": "DT_FLOAT"}, "Tidx": {"type": "DT_INT32"}}}, {"name": "StatefulPartitionedCall/model/tfc3_7/tf_conv_72/mul_1", "op": "Mul", "input": ["StatefulPartitionedCall/model/tfc3_7/tf_conv_72/conv2d_72/BiasAdd", "StatefulPartitionedCall/model/tfc3_7/tf_conv_72/Sigmoid"], "attr": {"T": {"type": "DT_FLOAT"}}}, {"name": "StatefulPartitionedCall/model/tfc3_7/tf_conv_73/mul_1", "op": "Mul", "input": ["StatefulPartitionedCall/model/tfc3_7/tf_conv_73/conv2d_73/BiasAdd", "StatefulPartitionedCall/model/tfc3_7/tf_conv_73/Sigmoid"], "attr": {"T": {"type": "DT_FLOAT"}}}, {"name": "StatefulPartitionedCall/model/tf_segment/Reshape_3", "op": "Reshape", "input": ["StatefulPartitionedCall/model/tf_segment/concat_1", "StatefulPartitionedCall/model/tf_segment/Reshape_3/shape_1"], "attr": {"T": {"type": "DT_FLOAT"}, "Tshape": {"type": "DT_INT32"}}}, {"name": "StatefulPartitionedCall/model/tfc3_7/sequential_14/tf_bottleneck_20/tf_conv_75/conv2d_75/BiasAdd", "op": "_FusedConv2D", "input": ["StatefulPartitionedCall/model/tfc3_7/tf_conv_72/mul_1", "StatefulPartitionedCall/model/tfc3_7/sequential_14/tf_bottleneck_20/tf_conv_75/conv2d_75/Conv2D/ReadVariableOp", "StatefulPartitionedCall/model/tfc3_7/sequential_14/tf_bottleneck_20/tf_conv_75/conv2d_75/BiasAdd/ReadVariableOp"], "device": "/device:CPU:0", "attr": {"num_host_args": {"i": "0"}, "data_format": {"s": "TkhXQw=="}, "filter_format": {"s": "SFdJTw=="}, "strides": {"list": {"i": ["1", "1", "1", "1"]}}, "num_args": {"i": "1"}, "fused_ops": {"list": {"s": ["Qmlhc0FkZA=="]}}, "TArgs": {"list": {"type": ["DT_FLOAT"]}}, "padding": {"s": "U0FNRQ=="}, "use_cudnn_on_gpu": {"b": true}, "leakyrelu_alpha": {"f": 0.2}, "epsilon": {"f": 0.0}, "T": {"type": "DT_FLOAT"}, "explicit_paddings": {"list": {}}, "dilations": {"list": {"i": ["1", "1", "1", "1"]}}}}, {"name": "StatefulPartitionedCall/model/tfc3_7/sequential_14/tf_bottleneck_20/tf_conv_75/Sigmoid", "op": "Sigmoid", "input": ["StatefulPartitionedCall/model/tfc3_7/sequential_14/tf_bottleneck_20/tf_conv_75/conv2d_75/BiasAdd"], "attr": {"T": {"type": "DT_FLOAT"}}}, {"name": "StatefulPartitionedCall/model/tfc3_7/sequential_14/tf_bottleneck_20/tf_conv_75/mul_1", "op": "Mul", "input": ["StatefulPartitionedCall/model/tfc3_7/sequential_14/tf_bottleneck_20/tf_conv_75/conv2d_75/BiasAdd", "StatefulPartitionedCall/model/tfc3_7/sequential_14/tf_bottleneck_20/tf_conv_75/Sigmoid"], "attr": {"T": {"type": "DT_FLOAT"}}}, {"name": "StatefulPartitionedCall/model/tfc3_7/sequential_14/tf_bottleneck_20/tf_conv_76/conv2d_76/BiasAdd", "op": "_FusedConv2D", "input": ["StatefulPartitionedCall/model/tfc3_7/sequential_14/tf_bottleneck_20/tf_conv_75/mul_1", "StatefulPartitionedCall/model/tfc3_7/sequential_14/tf_bottleneck_20/tf_conv_76/conv2d_76/Conv2D/ReadVariableOp", "StatefulPartitionedCall/model/tfc3_7/sequential_14/tf_bottleneck_20/tf_conv_76/conv2d_76/BiasAdd/ReadVariableOp"], "device": "/device:CPU:0", "attr": {"num_host_args": {"i": "0"}, "data_format": {"s": "TkhXQw=="}, "filter_format": {"s": "SFdJTw=="}, "fused_ops": {"list": {"s": ["Qmlhc0FkZA=="]}}, "num_args": {"i": "1"}, "strides": {"list": {"i": ["1", "1", "1", "1"]}}, "TArgs": {"list": {"type": ["DT_FLOAT"]}}, "padding": {"s": "U0FNRQ=="}, "use_cudnn_on_gpu": {"b": true}, "leakyrelu_alpha": {"f": 0.2}, "epsilon": {"f": 0.0}, "T": {"type": "DT_FLOAT"}, "explicit_paddings": {"list": {}}, "dilations": {"list": {"i": ["1", "1", "1", "1"]}}}}, {"name": "StatefulPartitionedCall/model/tfc3_7/sequential_14/tf_bottleneck_20/tf_conv_76/Sigmoid", "op": "Sigmoid", "input": ["StatefulPartitionedCall/model/tfc3_7/sequential_14/tf_bottleneck_20/tf_conv_76/conv2d_76/BiasAdd"], "attr": {"T": {"type": "DT_FLOAT"}}}, {"name": "StatefulPartitionedCall/model/tfc3_7/sequential_14/tf_bottleneck_20/tf_conv_76/mul_1", "op": "Mul", "input": ["StatefulPartitionedCall/model/tfc3_7/sequential_14/tf_bottleneck_20/tf_conv_76/conv2d_76/BiasAdd", "StatefulPartitionedCall/model/tfc3_7/sequential_14/tf_bottleneck_20/tf_conv_76/Sigmoid"], "attr": {"T": {"type": "DT_FLOAT"}}}, {"name": "StatefulPartitionedCall/model/tfc3_7/sequential_14/tf_bottleneck_21/tf_conv_77/conv2d_77/BiasAdd", "op": "_FusedConv2D", "input": ["StatefulPartitionedCall/model/tfc3_7/sequential_14/tf_bottleneck_20/tf_conv_76/mul_1", "StatefulPartitionedCall/model/tfc3_7/sequential_14/tf_bottleneck_21/tf_conv_77/conv2d_77/Conv2D/ReadVariableOp", "StatefulPartitionedCall/model/tfc3_7/sequential_14/tf_bottleneck_21/tf_conv_77/conv2d_77/BiasAdd/ReadVariableOp"], "device": "/device:CPU:0", "attr": {"num_host_args": {"i": "0"}, "data_format": {"s": "TkhXQw=="}, "filter_format": {"s": "SFdJTw=="}, "strides": {"list": {"i": ["1", "1", "1", "1"]}}, "num_args": {"i": "1"}, "fused_ops": {"list": {"s": ["Qmlhc0FkZA=="]}}, "TArgs": {"list": {"type": ["DT_FLOAT"]}}, "padding": {"s": "U0FNRQ=="}, "use_cudnn_on_gpu": {"b": true}, "leakyrelu_alpha": {"f": 0.2}, "epsilon": {"f": 0.0}, "T": {"type": "DT_FLOAT"}, "explicit_paddings": {"list": {}}, "dilations": {"list": {"i": ["1", "1", "1", "1"]}}}}, {"name": "StatefulPartitionedCall/model/tfc3_7/sequential_14/tf_bottleneck_21/tf_conv_77/Sigmoid", "op": "Sigmoid", "input": ["StatefulPartitionedCall/model/tfc3_7/sequential_14/tf_bottleneck_21/tf_conv_77/conv2d_77/BiasAdd"], "attr": {"T": {"type": "DT_FLOAT"}}}, {"name": "StatefulPartitionedCall/model/tfc3_7/sequential_14/tf_bottleneck_21/tf_conv_77/mul_1", "op": "Mul", "input": ["StatefulPartitionedCall/model/tfc3_7/sequential_14/tf_bottleneck_21/tf_conv_77/conv2d_77/BiasAdd", "StatefulPartitionedCall/model/tfc3_7/sequential_14/tf_bottleneck_21/tf_conv_77/Sigmoid"], "attr": {"T": {"type": "DT_FLOAT"}}}, {"name": "StatefulPartitionedCall/model/tfc3_7/sequential_14/tf_bottleneck_21/tf_conv_78/conv2d_78/BiasAdd", "op": "_FusedConv2D", "input": ["StatefulPartitionedCall/model/tfc3_7/sequential_14/tf_bottleneck_21/tf_conv_77/mul_1", "StatefulPartitionedCall/model/tfc3_7/sequential_14/tf_bottleneck_21/tf_conv_78/conv2d_78/Conv2D/ReadVariableOp", "StatefulPartitionedCall/model/tfc3_7/sequential_14/tf_bottleneck_21/tf_conv_78/conv2d_78/BiasAdd/ReadVariableOp"], "device": "/device:CPU:0", "attr": {"num_host_args": {"i": "0"}, "data_format": {"s": "TkhXQw=="}, "filter_format": {"s": "SFdJTw=="}, "fused_ops": {"list": {"s": ["Qmlhc0FkZA=="]}}, "num_args": {"i": "1"}, "strides": {"list": {"i": ["1", "1", "1", "1"]}}, "TArgs": {"list": {"type": ["DT_FLOAT"]}}, "padding": {"s": "U0FNRQ=="}, "use_cudnn_on_gpu": {"b": true}, "leakyrelu_alpha": {"f": 0.2}, "epsilon": {"f": 0.0}, "T": {"type": "DT_FLOAT"}, "explicit_paddings": {"list": {}}, "dilations": {"list": {"i": ["1", "1", "1", "1"]}}}}, {"name": "StatefulPartitionedCall/model/tfc3_7/sequential_14/tf_bottleneck_21/tf_conv_78/Sigmoid", "op": "Sigmoid", "input": ["StatefulPartitionedCall/model/tfc3_7/sequential_14/tf_bottleneck_21/tf_conv_78/conv2d_78/BiasAdd"], "attr": {"T": {"type": "DT_FLOAT"}}}, {"name": "StatefulPartitionedCall/model/tfc3_7/sequential_14/tf_bottleneck_21/tf_conv_78/mul_1", "op": "Mul", "input": ["StatefulPartitionedCall/model/tfc3_7/sequential_14/tf_bottleneck_21/tf_conv_78/conv2d_78/BiasAdd", "StatefulPartitionedCall/model/tfc3_7/sequential_14/tf_bottleneck_21/tf_conv_78/Sigmoid"], "attr": {"T": {"type": "DT_FLOAT"}}}, {"name": "StatefulPartitionedCall/model/tfc3_7/concat", "op": "ConcatV2", "input": ["StatefulPartitionedCall/model/tfc3_7/sequential_14/tf_bottleneck_21/tf_conv_78/mul_1", "StatefulPartitionedCall/model/tfc3_7/tf_conv_73/mul_1", "StatefulPartitionedCall/model/tfc3_7/concat/axis"], "attr": {"N": {"i": "2"}, "Tidx": {"type": "DT_INT32"}, "T": {"type": "DT_FLOAT"}}}, {"name": "StatefulPartitionedCall/model/tfc3_7/tf_conv_74/conv2d_74/BiasAdd", "op": "_FusedConv2D", "input": ["StatefulPartitionedCall/model/tfc3_7/concat", "StatefulPartitionedCall/model/tfc3_7/tf_conv_74/conv2d_74/Conv2D/ReadVariableOp", "StatefulPartitionedCall/model/tfc3_7/tf_conv_74/conv2d_74/BiasAdd/ReadVariableOp"], "device": "/device:CPU:0", "attr": {"num_host_args": {"i": "0"}, "data_format": {"s": "TkhXQw=="}, "filter_format": {"s": "SFdJTw=="}, "strides": {"list": {"i": ["1", "1", "1", "1"]}}, "num_args": {"i": "1"}, "fused_ops": {"list": {"s": ["Qmlhc0FkZA=="]}}, "TArgs": {"list": {"type": ["DT_FLOAT"]}}, "padding": {"s": "U0FNRQ=="}, "use_cudnn_on_gpu": {"b": true}, "leakyrelu_alpha": {"f": 0.2}, "epsilon": {"f": 0.0}, "T": {"type": "DT_FLOAT"}, "explicit_paddings": {"list": {}}, "dilations": {"list": {"i": ["1", "1", "1", "1"]}}}}, {"name": "StatefulPartitionedCall/model/tfc3_7/tf_conv_74/Sigmoid", "op": "Sigmoid", "input": ["StatefulPartitionedCall/model/tfc3_7/tf_conv_74/conv2d_74/BiasAdd"], "attr": {"T": {"type": "DT_FLOAT"}}}, {"name": "StatefulPartitionedCall/model/tfc3_7/tf_conv_74/mul_1", "op": "Mul", "input": ["StatefulPartitionedCall/model/tfc3_7/tf_conv_74/conv2d_74/BiasAdd", "StatefulPartitionedCall/model/tfc3_7/tf_conv_74/Sigmoid"], "attr": {"T": {"type": "DT_FLOAT"}}}, {"name": "StatefulPartitionedCall/model/tf_segment/tf_conv2d_5/conv2d_84/BiasAdd", "op": "_FusedConv2D", "input": ["StatefulPartitionedCall/model/tfc3_7/tf_conv_74/mul_1", "StatefulPartitionedCall/model/tf_segment/tf_conv2d_5/conv2d_84/Conv2D/ReadVariableOp", "StatefulPartitionedCall/model/tf_segment/tf_conv2d_5/conv2d_84/BiasAdd/ReadVariableOp"], "device": "/device:CPU:0", "attr": {"num_host_args": {"i": "0"}, "data_format": {"s": "TkhXQw=="}, "filter_format": {"s": "SFdJTw=="}, "fused_ops": {"list": {"s": ["Qmlhc0FkZA=="]}}, "num_args": {"i": "1"}, "strides": {"list": {"i": ["1", "1", "1", "1"]}}, "TArgs": {"list": {"type": ["DT_FLOAT"]}}, "padding": {"s": "VkFMSUQ="}, "use_cudnn_on_gpu": {"b": true}, "leakyrelu_alpha": {"f": 0.2}, "epsilon": {"f": 0.0}, "T": {"type": "DT_FLOAT"}, "explicit_paddings": {"list": {}}, "dilations": {"list": {"i": ["1", "1", "1", "1"]}}}}, {"name": "StatefulPartitionedCall/model/tf_segment/Reshape_4", "op": "Reshape", "input": ["StatefulPartitionedCall/model/tf_segment/tf_conv2d_5/conv2d_84/BiasAdd", "StatefulPartitionedCall/model/tf_segment/Reshape_4/shape_1"], "attr": {"T": {"type": "DT_FLOAT"}, "Tshape": {"type": "DT_INT32"}}}, {"name": "StatefulPartitionedCall/model/tf_segment/strided_slice_19", "op": "StridedSlice", "input": ["StatefulPartitionedCall/model/tf_segment/Reshape_4", "StatefulPartitionedCall/model/tf_segment/strided_slice_19/stack", "StatefulPartitionedCall/model/tf_segment/strided_slice_19/stack_1", "StatefulPartitionedCall/model/tf_segment/strided_slice_19/stack_2"], "attr": {"shrink_axis_mask": {"i": "0"}, "new_axis_mask": {"i": "0"}, "Index": {"type": "DT_INT32"}, "begin_mask": {"i": "0"}, "T": {"type": "DT_FLOAT"}, "end_mask": {"i": "0"}, "ellipsis_mask": {"i": "1"}}}, {"name": "StatefulPartitionedCall/model/tf_segment/strided_slice_21", "op": "StridedSlice", "input": ["StatefulPartitionedCall/model/tf_segment/Reshape_4", "StatefulPartitionedCall/model/tf_segment/strided_slice_21/stack", "StatefulPartitionedCall/model/tf_segment/strided_slice_21/stack_1", "StatefulPartitionedCall/model/tf_segment/strided_slice_21/stack_2"], "attr": {"shrink_axis_mask": {"i": "0"}, "new_axis_mask": {"i": "0"}, "Index": {"type": "DT_INT32"}, "begin_mask": {"i": "0"}, "end_mask": {"i": "0"}, "T": {"type": "DT_FLOAT"}, "ellipsis_mask": {"i": "1"}}}, {"name": "StatefulPartitionedCall/model/tf_segment/strided_slice_22", "op": "StridedSlice", "input": ["StatefulPartitionedCall/model/tf_segment/Reshape_4", "StatefulPartitionedCall/model/tf_segment/strided_slice_22/stack", "StatefulPartitionedCall/model/tf_segment/strided_slice_22/stack_1", "StatefulPartitionedCall/model/tf_segment/strided_slice_22/stack_2"], "attr": {"shrink_axis_mask": {"i": "0"}, "Index": {"type": "DT_INT32"}, "new_axis_mask": {"i": "0"}, "begin_mask": {"i": "0"}, "T": {"type": "DT_FLOAT"}, "end_mask": {"i": "0"}, "ellipsis_mask": {"i": "1"}}}, {"name": "StatefulPartitionedCall/model/tf_segment/strided_slice_23", "op": "StridedSlice", "input": ["StatefulPartitionedCall/model/tf_segment/Reshape_4", "StatefulPartitionedCall/model/tf_segment/strided_slice_23/stack", "StatefulPartitionedCall/model/tf_segment/strided_slice_23/stack_1", "StatefulPartitionedCall/model/tf_segment/strided_slice_23/stack_2"], "attr": {"shrink_axis_mask": {"i": "0"}, "Index": {"type": "DT_INT32"}, "new_axis_mask": {"i": "0"}, "begin_mask": {"i": "0"}, "T": {"type": "DT_FLOAT"}, "end_mask": {"i": "2"}, "ellipsis_mask": {"i": "1"}}}, {"name": "StatefulPartitionedCall/model/tf_segment/Sigmoid_6", "op": "Sigmoid", "input": ["StatefulPartitionedCall/model/tf_segment/strided_slice_19"], "attr": {"T": {"type": "DT_FLOAT"}}}, {"name": "StatefulPartitionedCall/model/tf_segment/Sigmoid_7", "op": "Sigmoid", "input": ["StatefulPartitionedCall/model/tf_segment/strided_slice_21"], "attr": {"T": {"type": "DT_FLOAT"}}}, {"name": "StatefulPartitionedCall/model/tf_segment/Sigmoid_8", "op": "Sigmoid", "input": ["StatefulPartitionedCall/model/tf_segment/strided_slice_22"], "attr": {"T": {"type": "DT_FLOAT"}}}, {"name": "StatefulPartitionedCall/model/tf_segment/mul_16", "op": "Mul", "input": ["StatefulPartitionedCall/model/tf_segment/Sigmoid_6", "StatefulPartitionedCall/model/tf_segment/mul_16/y"], "attr": {"T": {"type": "DT_FLOAT"}}}, {"name": "StatefulPartitionedCall/model/tf_segment/pow_2", "op": "Square", "input": ["StatefulPartitionedCall/model/tf_segment/Sigmoid_7"], "attr": {"T": {"type": "DT_FLOAT"}}}, {"name": "StatefulPartitionedCall/model/tf_segment/add_2", "op": "AddV2", "input": ["StatefulPartitionedCall/model/tf_segment/mul_16", "StatefulPartitionedCall/model/tf_segment/sub_2"], "attr": {"T": {"type": "DT_FLOAT"}}}, {"name": "StatefulPartitionedCall/model/tf_segment/truediv_5", "op": "Mul", "input": ["StatefulPartitionedCall/model/tf_segment/pow_2", "StatefulPartitionedCall/model/tf_segment/mul_18"], "attr": {"T": {"type": "DT_FLOAT"}}}, {"name": "StatefulPartitionedCall/model/tf_segment/truediv_4", "op": "Mul", "input": ["StatefulPartitionedCall/model/tf_segment/add_2", "StatefulPartitionedCall/model/tf_segment/mul_17"], "attr": {"T": {"type": "DT_FLOAT"}}}, {"name": "StatefulPartitionedCall/model/tf_segment/concat_2", "op": "ConcatV2", "input": ["StatefulPartitionedCall/model/tf_segment/truediv_4", "StatefulPartitionedCall/model/tf_segment/truediv_5", "StatefulPartitionedCall/model/tf_segment/Sigmoid_8", "StatefulPartitionedCall/model/tf_segment/strided_slice_23", "StatefulPartitionedCall/model/tf_segment/concat_2/axis"], "attr": {"N": {"i": "4"}, "Tidx": {"type": "DT_INT32"}, "T": {"type": "DT_FLOAT"}}}, {"name": "StatefulPartitionedCall/model/tf_segment/Reshape_5", "op": "Reshape", "input": ["StatefulPartitionedCall/model/tf_segment/concat_2", "StatefulPartitionedCall/model/tf_segment/Reshape_5/shape_1"], "attr": {"T": {"type": "DT_FLOAT"}, "Tshape": {"type": "DT_INT32"}}}, {"name": "StatefulPartitionedCall/model/tf_segment/concat_3", "op": "ConcatV2", "input": ["StatefulPartitionedCall/model/tf_segment/Reshape_1", "StatefulPartitionedCall/model/tf_segment/Reshape_3", "StatefulPartitionedCall/model/tf_segment/Reshape_5", "StatefulPartitionedCall/model/tf_segment/concat_3/axis"], "attr": {"N": {"i": "3"}, "T": {"type": "DT_FLOAT"}, "Tidx": {"type": "DT_INT32"}}}, {"name": "Identity", "op": "Identity", "input": ["StatefulPartitionedCall/model/tf_segment/concat_3"], "attr": {"T": {"type": "DT_FLOAT"}}}], "library": {}, "versions": {"producer": 1395}}, "weightsManifest": [{"paths": ["group1-shard1of21.bin", "group1-shard2of21.bin", "group1-shard3of21.bin", "group1-shard4of21.bin", "group1-shard5of21.bin", "group1-shard6of21.bin", "group1-shard7of21.bin", "group1-shard8of21.bin", "group1-shard9of21.bin", "group1-shard10of21.bin", "group1-shard11of21.bin", "group1-shard12of21.bin", "group1-shard13of21.bin", "group1-shard14of21.bin", "group1-shard15of21.bin", "group1-shard16of21.bin", "group1-shard17of21.bin", "group1-shard18of21.bin", "group1-shard19of21.bin", "group1-shard20of21.bin", "group1-shard21of21.bin"], "weights": [{"name": "StatefulPartitionedCall/model/tf_segment/strided_slice_3/stack", "shape": [2], "dtype": "int32"}, {"name": "StatefulPartitionedCall/model/tf_segment/strided_slice_3/stack_1", "shape": [2], "dtype": "int32"}, {"name": "StatefulPartitionedCall/model/tf_segment/strided_slice_3/stack_2", "shape": [2], "dtype": "int32"}, {"name": "StatefulPartitionedCall/model/tf_segment/mul_2/y", "shape": [], "dtype": "float32"}, {"name": "StatefulPartitionedCall/model/tf_segment/sub", "shape": [1, 6400, 1, 2], "dtype": "float32"}, {"name": "StatefulPartitionedCall/model/tf_segment/mul_3", "shape": [1, 2], "dtype": "float32"}, {"name": "StatefulPartitionedCall/model/tf_segment/strided_slice_5/stack", "shape": [2], "dtype": "int32"}, {"name": "StatefulPartitionedCall/model/tf_segment/strided_slice_5/stack_1", "shape": [2], "dtype": "int32"}, {"name": "StatefulPartitionedCall/model/tf_segment/strided_slice_5/stack_2", "shape": [2], "dtype": "int32"}, {"name": "StatefulPartitionedCall/model/tf_segment/mul_4", "shape": [1, 1, 3, 2], "dtype": "float32"}, {"name": "StatefulPartitionedCall/model/tf_segment/strided_slice_6/stack", "shape": [2], "dtype": "int32"}, {"name": "StatefulPartitionedCall/model/tf_segment/strided_slice_6/stack_1", "shape": [2], "dtype": "int32"}, {"name": "StatefulPartitionedCall/model/tf_segment/strided_slice_6/stack_2", "shape": [2], "dtype": "int32"}, {"name": "StatefulPartitionedCall/model/tf_segment/tf_conv2d_3/conv2d_82/Conv2D/ReadVariableOp", "shape": [1, 1, 192, 351], "dtype": "float32"}, {"name": "StatefulPartitionedCall/model/tf_segment/tf_conv2d_3/conv2d_82/BiasAdd/ReadVariableOp", "shape": [351], "dtype": "float32"}, {"name": "StatefulPartitionedCall/model/tf_segment/Reshape/shape_1", "shape": [4], "dtype": "int32"}, {"name": "StatefulPartitionedCall/model/tf_segment/strided_slice_7/stack", "shape": [2], "dtype": "int32"}, {"name": "StatefulPartitionedCall/model/tf_segment/strided_slice_7/stack_1", "shape": [2], "dtype": "int32"}, {"name": "StatefulPartitionedCall/model/tf_segment/strided_slice_7/stack_2", "shape": [2], "dtype": "int32"}, {"name": "StatefulPartitionedCall/model/tf_segment/concat/axis", "shape": [], "dtype": "int32"}, {"name": "StatefulPartitionedCall/model/tf_segment/Reshape_1/shape_1", "shape": [3], "dtype": "int32"}, {"name": "StatefulPartitionedCall/model/tf_segment/strided_slice_11/stack", "shape": [2], "dtype": "int32"}, {"name": "StatefulPartitionedCall/model/tf_segment/strided_slice_11/stack_1", "shape": [2], "dtype": "int32"}, {"name": "StatefulPartitionedCall/model/tf_segment/strided_slice_11/stack_2", "shape": [2], "dtype": "int32"}, {"name": "StatefulPartitionedCall/model/tf_segment/mul_9/y", "shape": [], "dtype": "float32"}, {"name": "StatefulPartitionedCall/model/tf_segment/sub_1", "shape": [1, 1600, 1, 2], "dtype": "float32"}, {"name": "StatefulPartitionedCall/model/tf_segment/mul_10", "shape": [1, 2], "dtype": "float32"}, {"name": "StatefulPartitionedCall/model/tf_segment/strided_slice_13/stack", "shape": [2], "dtype": "int32"}, {"name": "StatefulPartitionedCall/model/tf_segment/strided_slice_13/stack_1", "shape": [2], "dtype": "int32"}, {"name": "StatefulPartitionedCall/model/tf_segment/strided_slice_13/stack_2", "shape": [2], "dtype": "int32"}, {"name": "StatefulPartitionedCall/model/tf_segment/mul_11", "shape": [1, 1, 3, 2], "dtype": "float32"}, {"name": "StatefulPartitionedCall/model/tf_segment/strided_slice_14/stack", "shape": [2], "dtype": "int32"}, {"name": "StatefulPartitionedCall/model/tf_segment/strided_slice_14/stack_1", "shape": [2], "dtype": "int32"}, {"name": "StatefulPartitionedCall/model/tf_segment/strided_slice_14/stack_2", "shape": [2], "dtype": "int32"}, {"name": "StatefulPartitionedCall/model/tf_segment/tf_conv2d_4/conv2d_83/Conv2D/ReadVariableOp", "shape": [1, 1, 384, 351], "dtype": "float32"}, {"name": "StatefulPartitionedCall/model/tf_segment/tf_conv2d_4/conv2d_83/BiasAdd/ReadVariableOp", "shape": [351], "dtype": "float32"}, {"name": "StatefulPartitionedCall/model/tf_segment/Reshape_2/shape_1", "shape": [4], "dtype": "int32"}, {"name": "StatefulPartitionedCall/model/tf_segment/strided_slice_15/stack", "shape": [2], "dtype": "int32"}, {"name": "StatefulPartitionedCall/model/tf_segment/strided_slice_15/stack_1", "shape": [2], "dtype": "int32"}, {"name": "StatefulPartitionedCall/model/tf_segment/strided_slice_15/stack_2", "shape": [2], "dtype": "int32"}, {"name": "StatefulPartitionedCall/model/tf_segment/concat_1/axis", "shape": [], "dtype": "int32"}, {"name": "StatefulPartitionedCall/model/tf_segment/Reshape_3/shape_1", "shape": [3], "dtype": "int32"}, {"name": "StatefulPartitionedCall/model/tf_segment/strided_slice_19/stack", "shape": [2], "dtype": "int32"}, {"name": "StatefulPartitionedCall/model/tf_segment/strided_slice_19/stack_1", "shape": [2], "dtype": "int32"}, {"name": "StatefulPartitionedCall/model/tf_segment/strided_slice_19/stack_2", "shape": [2], "dtype": "int32"}, {"name": "StatefulPartitionedCall/model/tf_segment/mul_16/y", "shape": [], "dtype": "float32"}, {"name": "StatefulPartitionedCall/model/tf_segment/sub_2", "shape": [1, 400, 1, 2], "dtype": "float32"}, {"name": "StatefulPartitionedCall/model/tf_segment/mul_17", "shape": [1, 2], "dtype": "float32"}, {"name": "StatefulPartitionedCall/model/tf_segment/strided_slice_21/stack", "shape": [2], "dtype": "int32"}, {"name": "StatefulPartitionedCall/model/tf_segment/strided_slice_21/stack_1", "shape": [2], "dtype": "int32"}, {"name": "StatefulPartitionedCall/model/tf_segment/strided_slice_21/stack_2", "shape": [2], "dtype": "int32"}, {"name": "StatefulPartitionedCall/model/tf_segment/mul_18", "shape": [1, 1, 3, 2], "dtype": "float32"}, {"name": "StatefulPartitionedCall/model/tf_segment/strided_slice_22/stack", "shape": [2], "dtype": "int32"}, {"name": "StatefulPartitionedCall/model/tf_segment/strided_slice_22/stack_1", "shape": [2], "dtype": "int32"}, {"name": "StatefulPartitionedCall/model/tf_segment/strided_slice_22/stack_2", "shape": [2], "dtype": "int32"}, {"name": "StatefulPartitionedCall/model/tfc3_7/tf_conv_72/conv2d_72/Conv2D/ReadVariableOp", "shape": [1, 1, 768, 384], "dtype": "float32"}, {"name": "StatefulPartitionedCall/model/tfc3_7/tf_conv_72/conv2d_72/BiasAdd/ReadVariableOp", "shape": [384], "dtype": "float32"}, {"name": "StatefulPartitionedCall/model/tfc3_7/sequential_14/tf_bottleneck_20/tf_conv_75/conv2d_75/Conv2D/ReadVariableOp", "shape": [1, 1, 384, 384], "dtype": "float32"}, {"name": "StatefulPartitionedCall/model/tfc3_7/sequential_14/tf_bottleneck_20/tf_conv_75/conv2d_75/BiasAdd/ReadVariableOp", "shape": [384], "dtype": "float32"}, {"name": "StatefulPartitionedCall/model/tfc3_7/sequential_14/tf_bottleneck_20/tf_conv_76/conv2d_76/Conv2D/ReadVariableOp", "shape": [3, 3, 384, 384], "dtype": "float32"}, {"name": "StatefulPartitionedCall/model/tfc3_7/sequential_14/tf_bottleneck_20/tf_conv_76/conv2d_76/BiasAdd/ReadVariableOp", "shape": [384], "dtype": "float32"}, {"name": "StatefulPartitionedCall/model/tfc3_7/sequential_14/tf_bottleneck_21/tf_conv_77/conv2d_77/Conv2D/ReadVariableOp", "shape": [1, 1, 384, 384], "dtype": "float32"}, {"name": "StatefulPartitionedCall/model/tfc3_7/sequential_14/tf_bottleneck_21/tf_conv_77/conv2d_77/BiasAdd/ReadVariableOp", "shape": [384], "dtype": "float32"}, {"name": "StatefulPartitionedCall/model/tfc3_7/sequential_14/tf_bottleneck_21/tf_conv_78/conv2d_78/Conv2D/ReadVariableOp", "shape": [3, 3, 384, 384], "dtype": "float32"}, {"name": "StatefulPartitionedCall/model/tfc3_7/sequential_14/tf_bottleneck_21/tf_conv_78/conv2d_78/BiasAdd/ReadVariableOp", "shape": [384], "dtype": "float32"}, {"name": "StatefulPartitionedCall/model/tfc3_6/tf_conv_64/conv2d_64/Conv2D/ReadVariableOp", "shape": [1, 1, 384, 192], "dtype": "float32"}, {"name": "StatefulPartitionedCall/model/tfc3_6/tf_conv_64/conv2d_64/BiasAdd/ReadVariableOp", "shape": [192], "dtype": "float32"}, {"name": "StatefulPartitionedCall/model/tfc3_6/sequential_12/tf_bottleneck_18/tf_conv_67/conv2d_67/Conv2D/ReadVariableOp", "shape": [1, 1, 192, 192], "dtype": "float32"}, {"name": "StatefulPartitionedCall/model/tfc3_6/sequential_12/tf_bottleneck_18/tf_conv_67/conv2d_67/BiasAdd/ReadVariableOp", "shape": [192], "dtype": "float32"}, {"name": "StatefulPartitionedCall/model/tfc3_6/sequential_12/tf_bottleneck_18/tf_conv_68/conv2d_68/Conv2D/ReadVariableOp", "shape": [3, 3, 192, 192], "dtype": "float32"}, {"name": "StatefulPartitionedCall/model/tfc3_6/sequential_12/tf_bottleneck_18/tf_conv_68/conv2d_68/BiasAdd/ReadVariableOp", "shape": [192], "dtype": "float32"}, {"name": "StatefulPartitionedCall/model/tfc3_6/sequential_12/tf_bottleneck_19/tf_conv_69/conv2d_69/Conv2D/ReadVariableOp", "shape": [1, 1, 192, 192], "dtype": "float32"}, {"name": "StatefulPartitionedCall/model/tfc3_6/sequential_12/tf_bottleneck_19/tf_conv_69/conv2d_69/BiasAdd/ReadVariableOp", "shape": [192], "dtype": "float32"}, {"name": "StatefulPartitionedCall/model/tfc3_6/sequential_12/tf_bottleneck_19/tf_conv_70/conv2d_70/Conv2D/ReadVariableOp", "shape": [3, 3, 192, 192], "dtype": "float32"}, {"name": "StatefulPartitionedCall/model/tfc3_6/sequential_12/tf_bottleneck_19/tf_conv_70/conv2d_70/BiasAdd/ReadVariableOp", "shape": [192], "dtype": "float32"}, {"name": "unknown_130", "shape": [4, 2], "dtype": "int32"}, {"name": "StatefulPartitionedCall/model/tf_conv_63/sequential_11/conv2d_63/Conv2D/ReadVariableOp", "shape": [3, 3, 192, 192], "dtype": "float32"}, {"name": "StatefulPartitionedCall/model/tf_conv_63/sequential_11/conv2d_63/BiasAdd/ReadVariableOp", "shape": [192], "dtype": "float32"}, {"name": "StatefulPartitionedCall/model/tf_concat_2/concat/axis", "shape": [], "dtype": "int32"}, {"name": "StatefulPartitionedCall/model/tfc3_6/tf_conv_65/conv2d_65/Conv2D/ReadVariableOp", "shape": [1, 1, 384, 192], "dtype": "float32"}, {"name": "StatefulPartitionedCall/model/tfc3_6/tf_conv_65/conv2d_65/BiasAdd/ReadVariableOp", "shape": [192], "dtype": "float32"}, {"name": "StatefulPartitionedCall/model/tfc3_6/concat/axis", "shape": [], "dtype": "int32"}, {"name": "StatefulPartitionedCall/model/tfc3_6/tf_conv_66/conv2d_66/Conv2D/ReadVariableOp", "shape": [1, 1, 384, 384], "dtype": "float32"}, {"name": "StatefulPartitionedCall/model/tfc3_6/tf_conv_66/conv2d_66/BiasAdd/ReadVariableOp", "shape": [384], "dtype": "float32"}, {"name": "unknown_147", "shape": [4, 2], "dtype": "int32"}, {"name": "StatefulPartitionedCall/model/tf_conv_71/sequential_13/conv2d_71/Conv2D/ReadVariableOp", "shape": [3, 3, 384, 384], "dtype": "float32"}, {"name": "StatefulPartitionedCall/model/tf_conv_71/sequential_13/conv2d_71/BiasAdd/ReadVariableOp", "shape": [384], "dtype": "float32"}, {"name": "StatefulPartitionedCall/model/tf_concat_3/concat/axis", "shape": [], "dtype": "int32"}, {"name": "StatefulPartitionedCall/model/tfc3_7/tf_conv_73/conv2d_73/Conv2D/ReadVariableOp", "shape": [1, 1, 768, 384], "dtype": "float32"}, {"name": "StatefulPartitionedCall/model/tfc3_7/tf_conv_73/conv2d_73/BiasAdd/ReadVariableOp", "shape": [384], "dtype": "float32"}, {"name": "StatefulPartitionedCall/model/tfc3_7/concat/axis", "shape": [], "dtype": "int32"}, {"name": "StatefulPartitionedCall/model/tfc3_7/tf_conv_74/conv2d_74/Conv2D/ReadVariableOp", "shape": [1, 1, 768, 768], "dtype": "float32"}, {"name": "StatefulPartitionedCall/model/tfc3_7/tf_conv_74/conv2d_74/BiasAdd/ReadVariableOp", "shape": [768], "dtype": "float32"}, {"name": "StatefulPartitionedCall/model/tf_segment/tf_conv2d_5/conv2d_84/Conv2D/ReadVariableOp", "shape": [1, 1, 768, 351], "dtype": "float32"}, {"name": "StatefulPartitionedCall/model/tf_segment/tf_conv2d_5/conv2d_84/BiasAdd/ReadVariableOp", "shape": [351], "dtype": "float32"}, {"name": "StatefulPartitionedCall/model/tf_segment/Reshape_4/shape_1", "shape": [4], "dtype": "int32"}, {"name": "StatefulPartitionedCall/model/tf_segment/strided_slice_23/stack", "shape": [2], "dtype": "int32"}, {"name": "StatefulPartitionedCall/model/tf_segment/strided_slice_23/stack_1", "shape": [2], "dtype": "int32"}, {"name": "StatefulPartitionedCall/model/tf_segment/strided_slice_23/stack_2", "shape": [2], "dtype": "int32"}, {"name": "StatefulPartitionedCall/model/tf_segment/concat_2/axis", "shape": [], "dtype": "int32"}, {"name": "StatefulPartitionedCall/model/tf_segment/Reshape_5/shape_1", "shape": [3], "dtype": "int32"}, {"name": "StatefulPartitionedCall/model/tf_segment/concat_3/axis", "shape": [], "dtype": "int32"}, {"name": "StatefulPartitionedCall/model/tfc3_5/tf_conv_56/conv2d_56/Conv2D/ReadVariableOp", "shape": [1, 1, 384, 96], "dtype": "float32"}, {"name": "StatefulPartitionedCall/model/tfc3_5/tf_conv_56/conv2d_56/BiasAdd/ReadVariableOp", "shape": [96], "dtype": "float32"}, {"name": "StatefulPartitionedCall/model/tfc3_5/sequential_10/tf_bottleneck_16/tf_conv_59/conv2d_59/Conv2D/ReadVariableOp", "shape": [1, 1, 96, 96], "dtype": "float32"}, {"name": "StatefulPartitionedCall/model/tfc3_5/sequential_10/tf_bottleneck_16/tf_conv_59/conv2d_59/BiasAdd/ReadVariableOp", "shape": [96], "dtype": "float32"}, {"name": "StatefulPartitionedCall/model/tfc3_5/sequential_10/tf_bottleneck_16/tf_conv_60/conv2d_60/Conv2D/ReadVariableOp", "shape": [3, 3, 96, 96], "dtype": "float32"}, {"name": "StatefulPartitionedCall/model/tfc3_5/sequential_10/tf_bottleneck_16/tf_conv_60/conv2d_60/BiasAdd/ReadVariableOp", "shape": [96], "dtype": "float32"}, {"name": "StatefulPartitionedCall/model/tfc3_5/sequential_10/tf_bottleneck_17/tf_conv_61/conv2d_61/Conv2D/ReadVariableOp", "shape": [1, 1, 96, 96], "dtype": "float32"}, {"name": "StatefulPartitionedCall/model/tfc3_5/sequential_10/tf_bottleneck_17/tf_conv_61/conv2d_61/BiasAdd/ReadVariableOp", "shape": [96], "dtype": "float32"}, {"name": "StatefulPartitionedCall/model/tfc3_5/sequential_10/tf_bottleneck_17/tf_conv_62/conv2d_62/Conv2D/ReadVariableOp", "shape": [3, 3, 96, 96], "dtype": "float32"}, {"name": "StatefulPartitionedCall/model/tfc3_5/sequential_10/tf_bottleneck_17/tf_conv_62/conv2d_62/BiasAdd/ReadVariableOp", "shape": [96], "dtype": "float32"}, {"name": "StatefulPartitionedCall/model/tfc3_4/tf_conv_48/conv2d_48/Conv2D/ReadVariableOp", "shape": [1, 1, 768, 192], "dtype": "float32"}, {"name": "StatefulPartitionedCall/model/tfc3_4/tf_conv_48/conv2d_48/BiasAdd/ReadVariableOp", "shape": [192], "dtype": "float32"}, {"name": "StatefulPartitionedCall/model/tfc3_4/sequential_9/tf_bottleneck_14/tf_conv_51/conv2d_51/Conv2D/ReadVariableOp", "shape": [1, 1, 192, 192], "dtype": "float32"}, {"name": "StatefulPartitionedCall/model/tfc3_4/sequential_9/tf_bottleneck_14/tf_conv_51/conv2d_51/BiasAdd/ReadVariableOp", "shape": [192], "dtype": "float32"}, {"name": "StatefulPartitionedCall/model/tfc3_4/sequential_9/tf_bottleneck_14/tf_conv_52/conv2d_52/Conv2D/ReadVariableOp", "shape": [3, 3, 192, 192], "dtype": "float32"}, {"name": "StatefulPartitionedCall/model/tfc3_4/sequential_9/tf_bottleneck_14/tf_conv_52/conv2d_52/BiasAdd/ReadVariableOp", "shape": [192], "dtype": "float32"}, {"name": "StatefulPartitionedCall/model/tfc3_4/sequential_9/tf_bottleneck_15/tf_conv_53/conv2d_53/Conv2D/ReadVariableOp", "shape": [1, 1, 192, 192], "dtype": "float32"}, {"name": "StatefulPartitionedCall/model/tfc3_4/sequential_9/tf_bottleneck_15/tf_conv_53/conv2d_53/BiasAdd/ReadVariableOp", "shape": [192], "dtype": "float32"}, {"name": "StatefulPartitionedCall/model/tfc3_4/sequential_9/tf_bottleneck_15/tf_conv_54/conv2d_54/Conv2D/ReadVariableOp", "shape": [3, 3, 192, 192], "dtype": "float32"}, {"name": "StatefulPartitionedCall/model/tfc3_4/sequential_9/tf_bottleneck_15/tf_conv_54/conv2d_54/BiasAdd/ReadVariableOp", "shape": [192], "dtype": "float32"}, {"name": "StatefulPartitionedCall/model/tfc3_3/tf_conv_38/conv2d_38/Conv2D/ReadVariableOp", "shape": [1, 1, 768, 384], "dtype": "float32"}, {"name": "StatefulPartitionedCall/model/tfc3_3/tf_conv_38/conv2d_38/BiasAdd/ReadVariableOp", "shape": [384], "dtype": "float32"}, {"name": "StatefulPartitionedCall/model/tfc3_3/sequential_8/tf_bottleneck_12/tf_conv_41/conv2d_41/Conv2D/ReadVariableOp", "shape": [1, 1, 384, 384], "dtype": "float32"}, {"name": "StatefulPartitionedCall/model/tfc3_3/sequential_8/tf_bottleneck_12/tf_conv_41/conv2d_41/BiasAdd/ReadVariableOp", "shape": [384], "dtype": "float32"}, {"name": "StatefulPartitionedCall/model/tfc3_3/sequential_8/tf_bottleneck_12/tf_conv_42/conv2d_42/Conv2D/ReadVariableOp", "shape": [3, 3, 384, 384], "dtype": "float32"}, {"name": "StatefulPartitionedCall/model/tfc3_3/sequential_8/tf_bottleneck_12/tf_conv_42/conv2d_42/BiasAdd/ReadVariableOp", "shape": [384], "dtype": "float32"}, {"name": "StatefulPartitionedCall/model/tfc3_3/sequential_8/tf_bottleneck_13/tf_conv_43/conv2d_43/Conv2D/ReadVariableOp", "shape": [1, 1, 384, 384], "dtype": "float32"}, {"name": "StatefulPartitionedCall/model/tfc3_3/sequential_8/tf_bottleneck_13/tf_conv_43/conv2d_43/BiasAdd/ReadVariableOp", "shape": [384], "dtype": "float32"}, {"name": "StatefulPartitionedCall/model/tfc3_3/sequential_8/tf_bottleneck_13/tf_conv_44/conv2d_44/Conv2D/ReadVariableOp", "shape": [3, 3, 384, 384], "dtype": "float32"}, {"name": "StatefulPartitionedCall/model/tfc3_3/sequential_8/tf_bottleneck_13/tf_conv_44/conv2d_44/BiasAdd/ReadVariableOp", "shape": [384], "dtype": "float32"}, {"name": "unknown_77", "shape": [4, 2], "dtype": "int32"}, {"name": "StatefulPartitionedCall/model/tf_conv_37/sequential_7/conv2d_37/Conv2D/ReadVariableOp", "shape": [3, 3, 384, 768], "dtype": "float32"}, {"name": "StatefulPartitionedCall/model/tf_conv_37/sequential_7/conv2d_37/BiasAdd/ReadVariableOp", "shape": [768], "dtype": "float32"}, {"name": "StatefulPartitionedCall/model/tfc3_3/tf_conv_39/conv2d_39/Conv2D/ReadVariableOp", "shape": [1, 1, 768, 384], "dtype": "float32"}, {"name": "StatefulPartitionedCall/model/tfc3_3/tf_conv_39/conv2d_39/BiasAdd/ReadVariableOp", "shape": [384], "dtype": "float32"}, {"name": "StatefulPartitionedCall/model/tfc3_3/concat/axis", "shape": [], "dtype": "int32"}, {"name": "StatefulPartitionedCall/model/tfc3_3/tf_conv_40/conv2d_40/Conv2D/ReadVariableOp", "shape": [1, 1, 768, 768], "dtype": "float32"}, {"name": "StatefulPartitionedCall/model/tfc3_3/tf_conv_40/conv2d_40/BiasAdd/ReadVariableOp", "shape": [768], "dtype": "float32"}, {"name": "StatefulPartitionedCall/model/tfsppf/tf_conv_45/conv2d_45/Conv2D/ReadVariableOp", "shape": [1, 1, 768, 384], "dtype": "float32"}, {"name": "StatefulPartitionedCall/model/tfsppf/tf_conv_45/conv2d_45/BiasAdd/ReadVariableOp", "shape": [384], "dtype": "float32"}, {"name": "StatefulPartitionedCall/model/tfsppf/concat/axis", "shape": [], "dtype": "int32"}, {"name": "StatefulPartitionedCall/model/tfsppf/tf_conv_46/conv2d_46/Conv2D/ReadVariableOp", "shape": [1, 1, 1536, 768], "dtype": "float32"}, {"name": "StatefulPartitionedCall/model/tfsppf/tf_conv_46/conv2d_46/BiasAdd/ReadVariableOp", "shape": [768], "dtype": "float32"}, {"name": "StatefulPartitionedCall/model/tf_conv_47/conv2d_47/Conv2D/ReadVariableOp", "shape": [1, 1, 768, 384], "dtype": "float32"}, {"name": "StatefulPartitionedCall/model/tf_conv_47/conv2d_47/BiasAdd/ReadVariableOp", "shape": [384], "dtype": "float32"}, {"name": "StatefulPartitionedCall/model/tf_upsample/resize/size", "shape": [2], "dtype": "int32"}, {"name": "StatefulPartitionedCall/model/tfc3_2/tf_conv_22/conv2d_22/Conv2D/ReadVariableOp", "shape": [1, 1, 384, 192], "dtype": "float32"}, {"name": "StatefulPartitionedCall/model/tfc3_2/tf_conv_22/conv2d_22/BiasAdd/ReadVariableOp", "shape": [192], "dtype": "float32"}, {"name": "StatefulPartitionedCall/model/tfc3_2/sequential_6/tf_bottleneck_6/tf_conv_25/conv2d_25/Conv2D/ReadVariableOp", "shape": [1, 1, 192, 192], "dtype": "float32"}, {"name": "StatefulPartitionedCall/model/tfc3_2/sequential_6/tf_bottleneck_6/tf_conv_25/conv2d_25/BiasAdd/ReadVariableOp", "shape": [192], "dtype": "float32"}, {"name": "StatefulPartitionedCall/model/tfc3_2/sequential_6/tf_bottleneck_6/tf_conv_26/conv2d_26/Conv2D/ReadVariableOp", "shape": [3, 3, 192, 192], "dtype": "float32"}, {"name": "StatefulPartitionedCall/model/tfc3_2/sequential_6/tf_bottleneck_6/tf_conv_26/conv2d_26/BiasAdd/ReadVariableOp", "shape": [192], "dtype": "float32"}, {"name": "StatefulPartitionedCall/model/tfc3_2/sequential_6/tf_bottleneck_7/tf_conv_27/conv2d_27/Conv2D/ReadVariableOp", "shape": [1, 1, 192, 192], "dtype": "float32"}, {"name": "StatefulPartitionedCall/model/tfc3_2/sequential_6/tf_bottleneck_7/tf_conv_27/conv2d_27/BiasAdd/ReadVariableOp", "shape": [192], "dtype": "float32"}, {"name": "StatefulPartitionedCall/model/tfc3_2/sequential_6/tf_bottleneck_7/tf_conv_28/conv2d_28/Conv2D/ReadVariableOp", "shape": [3, 3, 192, 192], "dtype": "float32"}, {"name": "StatefulPartitionedCall/model/tfc3_2/sequential_6/tf_bottleneck_7/tf_conv_28/conv2d_28/BiasAdd/ReadVariableOp", "shape": [192], "dtype": "float32"}, {"name": "StatefulPartitionedCall/model/tfc3_2/sequential_6/tf_bottleneck_8/tf_conv_29/conv2d_29/Conv2D/ReadVariableOp", "shape": [1, 1, 192, 192], "dtype": "float32"}, {"name": "StatefulPartitionedCall/model/tfc3_2/sequential_6/tf_bottleneck_8/tf_conv_29/conv2d_29/BiasAdd/ReadVariableOp", "shape": [192], "dtype": "float32"}, {"name": "StatefulPartitionedCall/model/tfc3_2/sequential_6/tf_bottleneck_8/tf_conv_30/conv2d_30/Conv2D/ReadVariableOp", "shape": [3, 3, 192, 192], "dtype": "float32"}, {"name": "StatefulPartitionedCall/model/tfc3_2/sequential_6/tf_bottleneck_8/tf_conv_30/conv2d_30/BiasAdd/ReadVariableOp", "shape": [192], "dtype": "float32"}, {"name": "StatefulPartitionedCall/model/tfc3_2/sequential_6/tf_bottleneck_9/tf_conv_31/conv2d_31/Conv2D/ReadVariableOp", "shape": [1, 1, 192, 192], "dtype": "float32"}, {"name": "StatefulPartitionedCall/model/tfc3_2/sequential_6/tf_bottleneck_9/tf_conv_31/conv2d_31/BiasAdd/ReadVariableOp", "shape": [192], "dtype": "float32"}, {"name": "StatefulPartitionedCall/model/tfc3_2/sequential_6/tf_bottleneck_9/tf_conv_32/conv2d_32/Conv2D/ReadVariableOp", "shape": [3, 3, 192, 192], "dtype": "float32"}, {"name": "StatefulPartitionedCall/model/tfc3_2/sequential_6/tf_bottleneck_9/tf_conv_32/conv2d_32/BiasAdd/ReadVariableOp", "shape": [192], "dtype": "float32"}, {"name": "StatefulPartitionedCall/model/tfc3_2/sequential_6/tf_bottleneck_10/tf_conv_33/conv2d_33/Conv2D/ReadVariableOp", "shape": [1, 1, 192, 192], "dtype": "float32"}, {"name": "StatefulPartitionedCall/model/tfc3_2/sequential_6/tf_bottleneck_10/tf_conv_33/conv2d_33/BiasAdd/ReadVariableOp", "shape": [192], "dtype": "float32"}, {"name": "StatefulPartitionedCall/model/tfc3_2/sequential_6/tf_bottleneck_10/tf_conv_34/conv2d_34/Conv2D/ReadVariableOp", "shape": [3, 3, 192, 192], "dtype": "float32"}, {"name": "StatefulPartitionedCall/model/tfc3_2/sequential_6/tf_bottleneck_10/tf_conv_34/conv2d_34/BiasAdd/ReadVariableOp", "shape": [192], "dtype": "float32"}, {"name": "StatefulPartitionedCall/model/tfc3_2/sequential_6/tf_bottleneck_11/tf_conv_35/conv2d_35/Conv2D/ReadVariableOp", "shape": [1, 1, 192, 192], "dtype": "float32"}, {"name": "StatefulPartitionedCall/model/tfc3_2/sequential_6/tf_bottleneck_11/tf_conv_35/conv2d_35/BiasAdd/ReadVariableOp", "shape": [192], "dtype": "float32"}, {"name": "StatefulPartitionedCall/model/tfc3_2/sequential_6/tf_bottleneck_11/tf_conv_36/conv2d_36/Conv2D/ReadVariableOp", "shape": [3, 3, 192, 192], "dtype": "float32"}, {"name": "StatefulPartitionedCall/model/tfc3_2/sequential_6/tf_bottleneck_11/tf_conv_36/conv2d_36/BiasAdd/ReadVariableOp", "shape": [192], "dtype": "float32"}, {"name": "unknown_44", "shape": [4, 2], "dtype": "int32"}, {"name": "StatefulPartitionedCall/model/tf_conv_21/sequential_5/conv2d_21/Conv2D/ReadVariableOp", "shape": [3, 3, 192, 384], "dtype": "float32"}, {"name": "StatefulPartitionedCall/model/tf_conv_21/sequential_5/conv2d_21/BiasAdd/ReadVariableOp", "shape": [384], "dtype": "float32"}, {"name": "StatefulPartitionedCall/model/tfc3_2/tf_conv_23/conv2d_23/Conv2D/ReadVariableOp", "shape": [1, 1, 384, 192], "dtype": "float32"}, {"name": "StatefulPartitionedCall/model/tfc3_2/tf_conv_23/conv2d_23/BiasAdd/ReadVariableOp", "shape": [192], "dtype": "float32"}, {"name": "StatefulPartitionedCall/model/tfc3_2/concat/axis", "shape": [], "dtype": "int32"}, {"name": "StatefulPartitionedCall/model/tfc3_2/tf_conv_24/conv2d_24/Conv2D/ReadVariableOp", "shape": [1, 1, 384, 384], "dtype": "float32"}, {"name": "StatefulPartitionedCall/model/tfc3_2/tf_conv_24/conv2d_24/BiasAdd/ReadVariableOp", "shape": [384], "dtype": "float32"}, {"name": "StatefulPartitionedCall/model/tf_concat/concat/axis", "shape": [], "dtype": "int32"}, {"name": "StatefulPartitionedCall/model/tfc3_4/tf_conv_49/conv2d_49/Conv2D/ReadVariableOp", "shape": [1, 1, 768, 192], "dtype": "float32"}, {"name": "StatefulPartitionedCall/model/tfc3_4/tf_conv_49/conv2d_49/BiasAdd/ReadVariableOp", "shape": [192], "dtype": "float32"}, {"name": "StatefulPartitionedCall/model/tfc3_4/concat/axis", "shape": [], "dtype": "int32"}, {"name": "StatefulPartitionedCall/model/tfc3_4/tf_conv_50/conv2d_50/Conv2D/ReadVariableOp", "shape": [1, 1, 384, 384], "dtype": "float32"}, {"name": "StatefulPartitionedCall/model/tfc3_4/tf_conv_50/conv2d_50/BiasAdd/ReadVariableOp", "shape": [384], "dtype": "float32"}, {"name": "StatefulPartitionedCall/model/tf_conv_55/conv2d_55/Conv2D/ReadVariableOp", "shape": [1, 1, 384, 192], "dtype": "float32"}, {"name": "StatefulPartitionedCall/model/tf_conv_55/conv2d_55/BiasAdd/ReadVariableOp", "shape": [192], "dtype": "float32"}, {"name": "StatefulPartitionedCall/model/tf_upsample_1/resize/size", "shape": [2], "dtype": "int32"}, {"name": "StatefulPartitionedCall/model/tfc3_1/tf_conv_10/conv2d_10/Conv2D/ReadVariableOp", "shape": [1, 1, 192, 96], "dtype": "float32"}, {"name": "StatefulPartitionedCall/model/tfc3_1/tf_conv_10/conv2d_10/BiasAdd/ReadVariableOp", "shape": [96], "dtype": "float32"}, {"name": "StatefulPartitionedCall/model/tfc3_1/sequential_4/tf_bottleneck_2/tf_conv_13/conv2d_13/Conv2D/ReadVariableOp", "shape": [1, 1, 96, 96], "dtype": "float32"}, {"name": "StatefulPartitionedCall/model/tfc3_1/sequential_4/tf_bottleneck_2/tf_conv_13/conv2d_13/BiasAdd/ReadVariableOp", "shape": [96], "dtype": "float32"}, {"name": "StatefulPartitionedCall/model/tfc3_1/sequential_4/tf_bottleneck_2/tf_conv_14/conv2d_14/Conv2D/ReadVariableOp", "shape": [3, 3, 96, 96], "dtype": "float32"}, {"name": "StatefulPartitionedCall/model/tfc3_1/sequential_4/tf_bottleneck_2/tf_conv_14/conv2d_14/BiasAdd/ReadVariableOp", "shape": [96], "dtype": "float32"}, {"name": "StatefulPartitionedCall/model/tfc3_1/sequential_4/tf_bottleneck_3/tf_conv_15/conv2d_15/Conv2D/ReadVariableOp", "shape": [1, 1, 96, 96], "dtype": "float32"}, {"name": "StatefulPartitionedCall/model/tfc3_1/sequential_4/tf_bottleneck_3/tf_conv_15/conv2d_15/BiasAdd/ReadVariableOp", "shape": [96], "dtype": "float32"}, {"name": "StatefulPartitionedCall/model/tfc3_1/sequential_4/tf_bottleneck_3/tf_conv_16/conv2d_16/Conv2D/ReadVariableOp", "shape": [3, 3, 96, 96], "dtype": "float32"}, {"name": "StatefulPartitionedCall/model/tfc3_1/sequential_4/tf_bottleneck_3/tf_conv_16/conv2d_16/BiasAdd/ReadVariableOp", "shape": [96], "dtype": "float32"}, {"name": "StatefulPartitionedCall/model/tfc3_1/sequential_4/tf_bottleneck_4/tf_conv_17/conv2d_17/Conv2D/ReadVariableOp", "shape": [1, 1, 96, 96], "dtype": "float32"}, {"name": "StatefulPartitionedCall/model/tfc3_1/sequential_4/tf_bottleneck_4/tf_conv_17/conv2d_17/BiasAdd/ReadVariableOp", "shape": [96], "dtype": "float32"}, {"name": "StatefulPartitionedCall/model/tfc3_1/sequential_4/tf_bottleneck_4/tf_conv_18/conv2d_18/Conv2D/ReadVariableOp", "shape": [3, 3, 96, 96], "dtype": "float32"}, {"name": "StatefulPartitionedCall/model/tfc3_1/sequential_4/tf_bottleneck_4/tf_conv_18/conv2d_18/BiasAdd/ReadVariableOp", "shape": [96], "dtype": "float32"}, {"name": "StatefulPartitionedCall/model/tfc3_1/sequential_4/tf_bottleneck_5/tf_conv_19/conv2d_19/Conv2D/ReadVariableOp", "shape": [1, 1, 96, 96], "dtype": "float32"}, {"name": "StatefulPartitionedCall/model/tfc3_1/sequential_4/tf_bottleneck_5/tf_conv_19/conv2d_19/BiasAdd/ReadVariableOp", "shape": [96], "dtype": "float32"}, {"name": "StatefulPartitionedCall/model/tfc3_1/sequential_4/tf_bottleneck_5/tf_conv_20/conv2d_20/Conv2D/ReadVariableOp", "shape": [3, 3, 96, 96], "dtype": "float32"}, {"name": "StatefulPartitionedCall/model/tfc3_1/sequential_4/tf_bottleneck_5/tf_conv_20/conv2d_20/BiasAdd/ReadVariableOp", "shape": [96], "dtype": "float32"}, {"name": "StatefulPartitionedCall/model/tfc3/tf_conv_2/conv2d_2/Conv2D/ReadVariableOp", "shape": [1, 1, 96, 48], "dtype": "float32"}, {"name": "StatefulPartitionedCall/model/tfc3/tf_conv_2/conv2d_2/BiasAdd/ReadVariableOp", "shape": [48], "dtype": "float32"}, {"name": "StatefulPartitionedCall/model/tfc3/sequential_2/tf_bottleneck/tf_conv_5/conv2d_5/Conv2D/ReadVariableOp", "shape": [1, 1, 48, 48], "dtype": "float32"}, {"name": "StatefulPartitionedCall/model/tfc3/sequential_2/tf_bottleneck/tf_conv_5/conv2d_5/BiasAdd/ReadVariableOp", "shape": [48], "dtype": "float32"}, {"name": "StatefulPartitionedCall/model/tfc3/sequential_2/tf_bottleneck/tf_conv_6/conv2d_6/Conv2D/ReadVariableOp", "shape": [3, 3, 48, 48], "dtype": "float32"}, {"name": "StatefulPartitionedCall/model/tfc3/sequential_2/tf_bottleneck/tf_conv_6/conv2d_6/BiasAdd/ReadVariableOp", "shape": [48], "dtype": "float32"}, {"name": "StatefulPartitionedCall/model/tfc3/sequential_2/tf_bottleneck_1/tf_conv_7/conv2d_7/Conv2D/ReadVariableOp", "shape": [1, 1, 48, 48], "dtype": "float32"}, {"name": "StatefulPartitionedCall/model/tfc3/sequential_2/tf_bottleneck_1/tf_conv_7/conv2d_7/BiasAdd/ReadVariableOp", "shape": [48], "dtype": "float32"}, {"name": "StatefulPartitionedCall/model/tfc3/sequential_2/tf_bottleneck_1/tf_conv_8/conv2d_8/Conv2D/ReadVariableOp", "shape": [3, 3, 48, 48], "dtype": "float32"}, {"name": "StatefulPartitionedCall/model/tfc3/sequential_2/tf_bottleneck_1/tf_conv_8/conv2d_8/BiasAdd/ReadVariableOp", "shape": [48], "dtype": "float32"}, {"name": "unknown", "shape": [4, 2], "dtype": "int32"}, {"name": "StatefulPartitionedCall/model/tf_conv/sequential/conv2d/Conv2D/ReadVariableOp", "shape": [6, 6, 3, 48], "dtype": "float32"}, {"name": "StatefulPartitionedCall/model/tf_conv/sequential/conv2d/BiasAdd/ReadVariableOp", "shape": [48], "dtype": "float32"}, {"name": "unknown_2", "shape": [4, 2], "dtype": "int32"}, {"name": "StatefulPartitionedCall/model/tf_conv_1/sequential_1/conv2d_1/Conv2D/ReadVariableOp", "shape": [3, 3, 48, 96], "dtype": "float32"}, {"name": "StatefulPartitionedCall/model/tf_conv_1/sequential_1/conv2d_1/BiasAdd/ReadVariableOp", "shape": [96], "dtype": "float32"}, {"name": "StatefulPartitionedCall/model/tfc3/tf_conv_3/conv2d_3/Conv2D/ReadVariableOp", "shape": [1, 1, 96, 48], "dtype": "float32"}, {"name": "StatefulPartitionedCall/model/tfc3/tf_conv_3/conv2d_3/BiasAdd/ReadVariableOp", "shape": [48], "dtype": "float32"}, {"name": "StatefulPartitionedCall/model/tfc3/concat/axis", "shape": [], "dtype": "int32"}, {"name": "StatefulPartitionedCall/model/tfc3/tf_conv_4/conv2d_4/Conv2D/ReadVariableOp", "shape": [1, 1, 96, 96], "dtype": "float32"}, {"name": "StatefulPartitionedCall/model/tfc3/tf_conv_4/conv2d_4/BiasAdd/ReadVariableOp", "shape": [96], "dtype": "float32"}, {"name": "unknown_19", "shape": [4, 2], "dtype": "int32"}, {"name": "StatefulPartitionedCall/model/tf_conv_9/sequential_3/conv2d_9/Conv2D/ReadVariableOp", "shape": [3, 3, 96, 192], "dtype": "float32"}, {"name": "StatefulPartitionedCall/model/tf_conv_9/sequential_3/conv2d_9/BiasAdd/ReadVariableOp", "shape": [192], "dtype": "float32"}, {"name": "StatefulPartitionedCall/model/tfc3_1/tf_conv_11/conv2d_11/Conv2D/ReadVariableOp", "shape": [1, 1, 192, 96], "dtype": "float32"}, {"name": "StatefulPartitionedCall/model/tfc3_1/tf_conv_11/conv2d_11/BiasAdd/ReadVariableOp", "shape": [96], "dtype": "float32"}, {"name": "StatefulPartitionedCall/model/tfc3_1/concat/axis", "shape": [], "dtype": "int32"}, {"name": "StatefulPartitionedCall/model/tfc3_1/tf_conv_12/conv2d_12/Conv2D/ReadVariableOp", "shape": [1, 1, 192, 192], "dtype": "float32"}, {"name": "StatefulPartitionedCall/model/tfc3_1/tf_conv_12/conv2d_12/BiasAdd/ReadVariableOp", "shape": [192], "dtype": "float32"}, {"name": "StatefulPartitionedCall/model/tf_concat_1/concat/axis", "shape": [], "dtype": "int32"}, {"name": "StatefulPartitionedCall/model/tfc3_5/tf_conv_57/conv2d_57/Conv2D/ReadVariableOp", "shape": [1, 1, 384, 96], "dtype": "float32"}, {"name": "StatefulPartitionedCall/model/tfc3_5/tf_conv_57/conv2d_57/BiasAdd/ReadVariableOp", "shape": [96], "dtype": "float32"}, {"name": "StatefulPartitionedCall/model/tfc3_5/concat/axis", "shape": [], "dtype": "int32"}, {"name": "StatefulPartitionedCall/model/tfc3_5/tf_conv_58/conv2d_58/Conv2D/ReadVariableOp", "shape": [1, 1, 192, 192], "dtype": "float32"}, {"name": "StatefulPartitionedCall/model/tfc3_5/tf_conv_58/conv2d_58/BiasAdd/ReadVariableOp", "shape": [192], "dtype": "float32"}, {"name": "StatefulPartitionedCall/model/tf_segment/tf_proto/tf_conv_79/conv2d_85/Conv2D/ReadVariableOp", "shape": [3, 3, 192, 192], "dtype": "float32"}, {"name": "StatefulPartitionedCall/model/tf_segment/tf_proto/tf_conv_79/conv2d_85/BiasAdd/ReadVariableOp", "shape": [192], "dtype": "float32"}, {"name": "StatefulPartitionedCall/model/tf_segment/tf_proto/tf_upsample_2/resize/size", "shape": [2], "dtype": "int32"}, {"name": "StatefulPartitionedCall/model/tf_segment/tf_proto/tf_conv_80/conv2d_86/Conv2D/ReadVariableOp", "shape": [3, 3, 192, 192], "dtype": "float32"}, {"name": "StatefulPartitionedCall/model/tf_segment/tf_proto/tf_conv_80/conv2d_86/BiasAdd/ReadVariableOp", "shape": [192], "dtype": "float32"}, {"name": "StatefulPartitionedCall/model/tf_segment/tf_proto/tf_conv_81/conv2d_87/Conv2D/ReadVariableOp", "shape": [1, 1, 192, 32], "dtype": "float32"}, {"name": "StatefulPartitionedCall/model/tf_segment/tf_proto/tf_conv_81/conv2d_87/BiasAdd/ReadVariableOp", "shape": [32], "dtype": "float32"}, {"name": "StatefulPartitionedCall/model/tf_segment/transpose/perm", "shape": [4], "dtype": "int32"}]}]}